data/models/model_demonstrator_v02_normalized.pth (torch, 10700 bytes, 6 tensors)

0.weight f4 [128, 8]
0	0xbea24090	-0.31689882
1	0xbd95872e	-0.07301174
2	0x3db9f4c5	0.09079889
3	0xbe0b8479	-0.13624753
4	0xbe9f87be	-0.3115825
5	0xbe097bb3	-0.13426094
6	0xbd003643	-0.031301748
7	0x3e15dc69	0.14634861
8	0xbe5daa8e	-0.21647093
9	0xbf8faa56	-1.1223857
10	0xbe9e2f33	-0.30895385
11	0x3ec12cbd	0.37729445
12	0x3e53a727	0.20669232
13	0xbff56868	-1.9172487
14	0xbfdd91e6	-1.731015
15	0xbdb217cf	-0.086959474
16	0xbf8ad83b	-1.0847238
17	0xbf81f511	-1.0152913
18	0xbe913ea3	-0.283681
19	0x3e9efaad	0.31050625
20	0xbdc5a038	-0.096497
21	0xbfeac9c1	-1.834282
22	0xbfe6bb38	-1.8025885
23	0x3f6e5ddc	0.9311197
24	0xbf95c975	-1.1702105
25	0xbf2e299d	-0.68032247
26	0xbeac9ecd	-0.33714905
27	0xbeeb975a	-0.4601391
28	0x3ed75068	0.42053533
29	0xbffc954d	-1.9733063
30	0xbfb635d2	-1.4235175
31	0xbf381d19	-0.719194
32	0xbeccc4ce	-0.399939
33	0xbf4bb913	-0.79579276
34	0xbe86b221	-0.26307777
35	0xbdc2e754	-0.095167786
36	0x3f6fe6b9	0.9371143
37	0xbfe6cd3a	-1.803138
38	0xbfbb0506	-1.4610908
39	0xbee2ca7d	-0.4429511
40	0xbf5fe74e	-0.8746232
41	0xbfc9734f	-1.5738314
42	0x3bbc9008	0.0057544746
43	0x3e18d974	0.14926702
44	0x3f7501d9	0.95705944
45	0xbff77790	-1.9333363
46	0xbfec385c	-1.84547
47	0xbecd12b6	-0.40053338
48	0xbe9999ed	-0.3000025
49	0xbee37e07	-0.4443209
50	0x3f667853	0.9002735
51	0x3cb968c0	0.022632957
52	0x3de5b5be	0.11216305
53	0xbfbf10cc	-1.4927001
54	0xbf87da0f	-1.0613421
55	0x3fbb59d8	1.4636793
56	0xbec8915a	-0.39173394
57	0xbfc090ff	-1.5044249
58	0x3d960ff5	0.07327262
59	0x3f202956	0.62563074
60	0x3ee3e714	0.44512236
61	0xbfed4a55	-1.8538309
62	0xbfb7ac3d	-1.4349438
63	0xbefd2f28	-0.4945004
64	0x3ddb4af9	0.10707659
65	0xbde64997	-0.11244505
66	0xbd8b5962	-0.06804158
67	0xbe807d5c	-0.25095642
68	0xbe876c54	-0.26449835
69	0xbe8ae07d	-0.27124396
70	0x3e7b70d6	0.24554762
71	0xbdb475df	-0.088115446
72	0xbf9ef29f	-1.2417792
73	0xbfe16636	-1.7609317
74	0xbda999d3	-0.08281293
75	0x3f27bacb	0.655194
76	0xbc820446	-0.015871178
77	0xc0101764	-2.2514277
78	0xbfeac7ab	-1.8342184
79	0xbe90d701	-0.28289035
80	0xbe849519	-0.25895002
81	0xbf85443c	-1.0411448
82	0x3f32fd21	0.69917494
83	0xbea2af92	-0.31774575
84	0xbc6b8cbb	-0.0143768145
85	0xc00bf00c	-2.1865263
86	0xbf9ce633	-1.2257751
87	0x3fb1100b	1.3833021
88	0xbeaeaa3b	-0.3411425
89	0xbf9c60b2	-1.2217009
90	0x3f4f4c77	0.8097605
91	0x3ea3b571	0.31974366
92	0xbdf9e37f	-0.122015946
93	0xc00d793d	-2.2105248
94	0xbfe94182	-1.8223116
95	0x3f70ad8f	0.9401483
96	0xbf56c194	-0.83889127
97	0xbea86527	-0.32889673
98	0xbf060409	-0.5234991
99	0xbf31d901	-0.69471747
100	0x3e76aa18	0.24088323
101	0xbfc19190	-1.5122547
102	0xbf9e2e35	-1.2357851
103	0xbf9d6475	-1.2296282
104	0xbfc34581	-1.5255586
105	0xbf18de07	-0.59713787
106	0xbee43b3d	-0.44576445
107	0xbf52c166	-0.8232635
108	0xbe87b253	-0.26503238
109	0xbfa32bf4	-1.2747788
110	0xbfa54fcb	-1.2914976
111	0xbf859b3d	-1.0438
112	0xbe2a41e0	-0.16626692
113	0x3d4baf28	0.04972759
114	0xbe6fb7c1	-0.2340994
115	0x3db7474c	0.08949146
116	0xbe942007	-0.28930685
117	0xbdd4d1fb	-0.10391613
118	0x3eb10d1c	0.34580314
119	0xbd2944df	-0.041325446
120	0x3e016ffc	0.12640375
121	0xbd64c2b4	-0.055849746
122	0x3e060f91	0.13091876
123	0xbe1e040d	-0.15431233
124	0x3cefe54e	0.029284146
125	0xbddf88b3	-0.10914745
126	0x3e8b2b74	0.2718159
127	0x3e21c133	0.15796356
128	0xbeeafd76	-0.458965
129	0x3f9481d5	1.1602122
130	0xbf9a1578	-1.2037802
131	0xbf93286f	-1.1496714
132	0x3f21d9b3	0.6322281
133	0xbf05e5a3	-0.5230352
134	0xbfa2c9a8	-1.2717791
135	0xbf195ae6	-0.59904325
136	0xbe94eefb	-0.29088578
137	0xbd0bf289	-0.034166846
138	0x3e06ef40	0.13177204
139	0xbeabd6fc	-0.33562458
140	0x3e50c557	0.20387779
141	0xbe4ab9ac	-0.1979739
142	0xbe8e44ec	-0.27786958
143	0x3ea46e4b	0.32115397
144	0xbf08113c	-0.531513
145	0xbf3ab6be	-0.7293509
146	0x3e9d6fce	0.30749363
147	0x3df5065f	0.11964106
148	0x3e25728b	0.16156976
149	0xbffaeaf5	-1.9602953
150	0xbf936418	-1.1514921
151	0x3f35bef4	0.70994496
152	0xbca8ebd2	-0.02062026
153	0xbd9f9ba2	-0.077933565
154	0xbe5ef58c	-0.21773356
155	0x3e8951ca	0.26820213
156	0xbe2f97fb	-0.1714782
157	0xbea918e9	-0.33026817
158	0x3eb484bb	0.35257515
159	0xbe990f51	-0.29894498
160	0x3ec7ad5e	0.38999456
161	0xbf458c9c	-0.7716768
162	0x3d6278fc	0.05529116
163	0x3f9decbe	1.2337873
164	0x3fc9d20e	1.5767229
165	0xbff2390c	-1.8923659
166	0xbef49a15	-0.47773805
167	0xbf59a428	-0.8501611
168	0x3d28ea40	0.041239023
169	0xbfb46d65	-1.4095885
170	0xbdece6e0	-0.115674734
171	0x3f05108b	0.5197837
172	0x3f4e211c	0.8051927
173	0xc002e260	-2.0450668
174	0xbf963baf	-1.1736964
175	0xbf01f065	-0.5075744
176	0xbcd4dd5c	-0.025984459
177	0xbf58eb0e	-0.84733665
178	0x3f80e1ae	1.0068872
179	0x3eee2983	0.46516046
180	0xbdf5e403	-0.120063804
181	0xbfe7cd21	-1.8109475
182	0xbfd5e3fc	-1.67102
183	0x3f84fb00	1.0389099
184	0xbf3c5f2b	-0.73582715
185	0x3e4ec597	0.20192562
186	0xbef44367	-0.47707674
187	0xbf55eec4	-0.8356745
188	0x3f5a9779	0.8538738
189	0xc003266c	-2.04922
190	0xbf83d5e4	-1.0299649
191	0xbf2d5647	-0.67709774
192	0x3d0944fb	0.03351305
193	0xbd8486fc	-0.06471059
194	0x3de73aa9	0.112904854
195	0xbe8333f1	-0.25625566
196	0x3d946b84	0.072470695
197	0x3c69259f	0.014230161
198	0xbea55bf3	-0.32296714
199	0x3d031494	0.032002047
200	0xbd2ce2be	-0.042208426
201	0xbe858e50	-0.26085138
202	0xbd807e68	-0.0627411
203	0xbcf35a3a	-0.02970611
204	0x3e8b4ee6	0.27208632
205	0x3e1003a7	0.14063893
206	0x3d8db7f2	0.069198504
207	0xbdb95595	-0.090495266
208	0xbe8567f0	-0.2605586
209	0xbf26a5f4	-0.65096974
210	0xbd925d77	-0.07146733
211	0x3d3dc8a0	0.04633391
212	0x3e1fbab8	0.15598571
213	0xbff8139d	-1.9380985
214	0xbfc3d140	-1.5298233
215	0x3ea810fa	0.32825452
216	0xbe866e14	-0.26255858
217	0xbf7df682	-0.99204266
218	0x3f017b8a	0.5057913
219	0x3eaeae6e	0.34117454
220	0x3e12c307	0.1433221
221	0xbfeb484c	-1.8381438
222	0xbfe4a5a3	-1.7863048
223	0x3f6b4e4b	0.9191634
224	0x3ec98114	0.3935629
225	0xbf95889c	-1.1682315
226	0xbea3b536	-0.3197419
227	0x3f8229ec	1.0169044
228	0x3f9d30a3	1.2280468
229	0xbfdec0d6	-1.7402599
230	0xbfbfb812	-1.4978049
231	0xbedf95c9	-0.43668965
232	0xbe1b9f52	-0.15197495
233	0xbf68279a	-0.9068543
234	0xbe45880c	-0.19290179
235	0x3f04ee18	0.519258
236	0x3fb26b6f	1.3939036
237	0xc0113780	-2.2690125
238	0xbfb0a300	-1.3799744
239	0xbec42740	-0.38311195
240	0xbe7fc334	-0.24976808
241	0xbdaf8c1b	-0.08571645
242	0xbeadaa0c	-0.33918798
243	0xbe93e2e5	-0.28884044
244	0xbaa95fc9	-0.0012922223
245	0x3ea8b2eb	0.32949004
246	0x3e70543e	0.23469636
247	0x3d7151aa	0.05891577
248	0xbf066d41	-0.5251046
249	0x3f833d3e	1.0253065
250	0xbfa89375	-1.317
251	0xbfbadd10	-1.4598713
252	0x3eae472f	0.34038684
253	0xbe9eb134	-0.3099457
254	0xbfa0889e	-1.2541692
255	0xbf877fdf	-1.0585898

0.bias f4 [128]
0	0xbea37856	-0.31927747
1	0x3f00f4be	0.50373447
2	0x3eb979f4	0.36225855
3	0x3f972cda	1.1810563
4	0x3f1a83f8	0.6035762
5	0x3ed742d6	0.4204318
6	0x3e0a9235	0.13532336
7	0x3e12503a	0.14288417
8	0xbcfeeb97	-0.031118197
9	0x3f048138	0.5175967
10	0x3e9074df	0.28214166
11	0x3eb61715	0.35564485
12	0x3fcb2a00	1.5872192
13	0x3fd7fa9b	1.6873354
14	0xbe0c4827	-0.13699399
15	0xbe13ddcb	-0.14440076
16	0x3ec49ccd	0.3840088
17	0xbeb1d393	-0.3473173
18	0x3d6937bd	0.05693792
19	0xbe5818ee	-0.2110326
20	0xbd86d84c	-0.06584224
21	0x3e9075c0	0.28214836
22	0x3e810342	0.25197798
23	0x3fae8bbc	1.3636394
24	0xbdda09e3	-0.10646417
25	0xbeb27843	-0.34857377
26	0x3ed0298d	0.406567
27	0x3d286d2c	0.04111974
28	0x3eaf831c	0.34279716
29	0x3ec52ddc	0.3851155
30	0xbe8ea93e	-0.27863497
31	0x3f25b0d9	0.64722973
32	0xbe1efcb6	-0.15526089
33	0x3eea4b62	0.45760638
34	0x3e86eca7	0.26352426
35	0xbea38f77	-0.31945392
36	0x3f3ecc6f	0.7453069
37	0x3f34fbf8	0.70696974
38	0x3f99865b	1.1994127
39	0x3cf2f413	0.0296574
40	0x3ea290b4	0.31751025
41	0x3e3118fe	0.1729469
42	0xbe9e168c	-0.30876577
43	0x3e67f328	0.2265135
44	0xbeace3a3	-0.33767423
45	0xbc10e6c5	-0.008844082
46	0x3f462e5c	0.7741449
47	0x3d9a62f2	0.075384036
48	0xbe280203	-0.16407017
49	0x3e8ccab1	0.2749839
50	0x3e92aa88	0.2864573
51	0x3f203f8d	0.6259697
52	0xbe144d87	-0.144827
53	0x3ea80be0	0.3282156
54	0x3dfd7321	0.12375475
55	0x3f22f02f	0.6364774
56	0x3f84eebc	1.0385356
57	0x3edc8d24	0.43076432
58	0xbea5d2a7	-0.32387277
59	0xbe9d4fbc	-0.30724895
60	0x3efded78	0.49595237
61	0x3ea6e9ef	0.32600352
62	0x3eb5f2fb	0.35536942
63	0x3f2307a2	0.6368352
64	0x3fbf7cb0	1.4959927
65	0x3eedd1f1	0.46449235
66	0x3e8f971d	0.28044978
67	0x3ed7feb4	0.4218651
68	0xbe6acdfd	-0.22930141
69	0x3eb94138	0.3618257
70	0x3fa4223c	1.2822948
71	0x3e88abb5	0.26693502
72	0x3efea8ac	0.4973806
73	0x3ec17a1c	0.37788475
74	0x3f28918d	0.6584709
75	0x3f1139e7	0.56728977
76	0x3f1af742	0.60533535
77	0xbe26d2ee	-0.16291401
78	0x3f99ae7a	1.2006371
79	0x3e85e31f	0.26149842
80	0x3f9b91cb	1.2153867
81	0x3e30e8d0	0.17276311
82	0x3e1e04d9	0.15431537
83	0x3cdc73ee	0.026910748
84	0xbe3da60d	-0.18520375
85	0xbe7b1399	-0.24519195
86	0xbde7781f	-0.11302208
87	0x3eba0ab2	0.36336285
88	0x3eefd41d	0.46841517
89	0x3edf3c9c	0.4360093
90	0x3f50e801	0.8160401
91	0x3eb18223	0.346696
92	0x3e554fdb	0.20831244
93	0x3de0e4ce	0.10981141
94	0x3f8e46ef	1.1115397
95	0x3d2e356b	0.042531412
96	0x3df650c8	0.120271266
97	0xbe413f0f	-0.18871711
98	0x3e786189	0.24255957
99	0xbe7a2e10	-0.24431634
100	0x3f9aa78d	1.2082382
101	0xbe988ab7	-0.2979333
102	0xbe0d86ea	-0.13820997
103	0x3f05c1de	0.5224894
104	0x3e4277ee	0.18991062
105	0xbe5b5de1	-0.2142253
106	0x3f34d8a5	0.70643073
107	0x3ee4d8b1	0.44696572
108	0xbda5c887	-0.08094888
109	0x3e3b56de	0.18294856
110	0xbe15ed7e	-0.14641377
111	0x3ed87428	0.4227612
112	0x3f3a1949	0.7269483
113	0xbeae878f	-0.34087798
114	0xbea79192	-0.3272825
115	0x3fa29cc5	1.2704092
116	0x3f881f9f	1.063465
117	0x3e80b29d	0.2513627
118	0x3f15e196	0.5854734
119	0x3f86e799	1.0539428
120	0x3f2e5f55	0.68114215
121	0x3e214161	0.15747596
122	0x3f3acf78	0.7297282
123	0x3f88242a	1.0636036
124	0x3ee97031	0.45593408
125	0xbe687823	-0.22702079
126	0xbe8d0ab2	-0.27547222
127	0xbda9d257	-0.08292072

2.weight f4 [6, 128]
0	0xbd0171cc	-0.031602666
1	0x40002169	2.0020392
2	0x3f680b28	0.90642023
3	0xbd8be750	-0.06831229
4	0x3fcf40e7	1.6191682
5	0x3fb8acf3	1.442778
6	0x3dc9524d	0.09830151
7	0x40174a14	2.3638964
8	0xbd8f88a5	-0.07008485
9	0x401a6345	2.412309
10	0x3f07d9b5	0.5306657
11	0x3f44f487	0.7693562
12	0xbe1b6d48	-0.15178406
13	0xbf33578f	-0.7005548
14	0x3c682415	0.014168759
15	0xbd99b28d	-0.07504759
16	0x3fac5f45	1.3466574
17	0xbc57098b	-0.013124834
18	0x3f08e8b1	0.5348006
19	0xbd927522	-0.071512476
20	0x3ff80528	1.9376574
21	0x400ff11a	2.2490907
22	0x3eac2b0c	0.33626592
23	0xbe2f1ab8	-0.17100036
24	0x3d70c8c9	0.058785234
25	0x3d36dd3e	0.044644587
26	0x3e91bd89	0.28464916
27	0x3f799d2a	0.9750544
28	0x3ff7e252	1.9365942
29	0x40070c2c	2.110118
30	0xbcabe9a4	-0.020985432
31	0x3f96071c	1.172092
32	0xbbdba16b	-0.006702592
33	0xbda77060	-0.08175731
34	0x3f2899f0	0.6585989
35	0x3c3108af	0.010805293
36	0xbf1a7522	-0.6033498
37	0xbe709ba8	-0.23496878
38	0xbf0927dc	-0.53576446
39	0x3ff92825	1.9465376
40	0x4016c7dd	2.3559487
41	0x3fecbd34	1.849524
42	0x3c27b4f6	0.010236016
43	0x40078a04	2.1177988
44	0xbb3d429a	-0.002887881
45	0x4009dd5e	2.1541362
46	0x400f94ee	2.243465
47	0xbd9842c9	-0.07434613
48	0xbd7f41c2	-0.06231857
49	0x3f1740ec	0.5908344
50	0x400f217f	2.2364194
51	0xbefc7349	-0.49306706
52	0x3cf2d60b	0.02964308
53	0xbfbbdd47	-1.4676903
54	0x400eaa03	2.2291267
55	0xbee3eba3	-0.44515714
56	0x3f1c3735	0.6102174
57	0x3e99dc3d	0.3005084
58	0x3d2e1033	0.042495918
59	0xbd8ba349	-0.068182535
60	0x3d46896f	0.04847091
61	0x3ed6fc36	0.41989297
62	0x40117a71	2.2730982
63	0x3fede008	1.8583994
64	0xbe823e1e	-0.25438017
65	0xbe86568a	-0.262379
66	0x3fc49245	1.5357138
67	0x3fc801b2	1.5625517
68	0xbcb233d5	-0.021753231
69	0x4009fcc2	2.156052
70	0xbea7be60	-0.32762432
71	0x3fc4ea60	1.5384026
72	0x4017ccc6	2.3718734
73	0x3fef76e0	1.8708153
74	0x3fc30266	1.5235107
75	0x400783bd	2.1174157
76	0x3f822232	1.0166686
77	0xbd77124b	-0.06032018
78	0xbf5d573b	-0.8646123
79	0x3eaeaf23	0.34117994
80	0xbf5c6571	-0.8609229
81	0x4009e13c	2.1543722
82	0x3e86ae46	0.26304835
83	0x3ef9a936	0.4876191
84	0x3c6e5ffa	0.01454925
85	0x3d4312ff	0.047625538
86	0xbd0d2e12	-0.034467764
87	0x3e8d0777	0.27544758
88	0xbec5f8cb	-0.38666376
89	0x3fb4217b	1.4072717
90	0xbf1f54ff	-0.6223907
91	0x3fed1ff5	1.8525378
92	0x400b4d89	2.1766074
93	0x400f88a1	2.2427142
94	0x3d4987f0	0.049201906
95	0x3f05324b	0.52029866
96	0x3ef60877	0.48053333
97	0x3abbd39d	0.0014330033
98	0x3f897c71	1.0741102
99	0xbba19756	-0.0049313707
100	0xbf923cda	-1.142482
101	0x3d722114	0.059113577
102	0xbd5b87e5	-0.053596396
103	0x3fa9d9c7	1.3269585
104	0x3f30242e	0.68805206
105	0xbd3f9ad0	-0.0467785
106	0xbf03b381	-0.51445776
107	0xbd860593	-0.06544032
108	0xbdacd6b1	-0.08439387
109	0x3f6f14cc	0.9339111
110	0xbceba670	-0.028765887
111	0x4006354a	2.0970025
112	0x3fe5723f	1.792549
113	0x3d9b6d5f	0.0758922
114	0x3c0a0379	0.0084236795
115	0xbf91dba0	-1.1395149
116	0x3f079e2b	0.5297572
117	0x3da980d6	0.08276527
118	0x3f4b9639	0.79526097
119	0xbf34e9a7	-0.70669025
120	0x3fc20783	1.5158542
121	0x3eaffd1a	0.3437279
122	0x3fb17c7f	1.3866118
123	0xbf115e97	-0.5678496
124	0x3f785773	0.97008437
125	0xbd8857b2	-0.066573516
126	0xbd15ad90	-0.036542475
127	0x3d562c54	0.05228837
128	0x3c1fef13	0.00976159
129	0x3f2c8e7b	0.6740491
130	0x40057883	2.0854805
131	0x3fc27ead	1.5194908
132	0x3f609ea2	0.87742054
133	0x3faadf7f	1.3349456
134	0x3fa0362f	1.2516536
135	0x3f270f32	0.6525756
136	0x3d89ae4d	0.06722698
137	0x3fb114f1	1.3834516
138	0x3fda5923	1.7058452
139	0x3fcb7a4e	1.58967
140	0x3fba8321	1.4571267
141	0x3ff2ca06	1.8967903
142	0xbdab30cb	-0.08358916
143	0x3dd61065	0.10452346
144	0xbf52f2f6	-0.8240198
145	0xbdac1ecd	-0.08404312
146	0x3fe56031	1.791998
147	0xbd08fe35	-0.033445556
148	0xbf17b76b	-0.5926425
149	0x3f025088	0.5090413
150	0x3f85a510	1.0440998
151	0x3f9d2886	1.2277992
152	0x3ce4f586	0.027949106
153	0x3da7f59c	0.08201143
154	0x3fddf5c9	1.7340633
155	0x3fc410ab	1.5317587
156	0xbeba996d	-0.3644518
157	0x3f08bf5f	0.5341701
158	0x3cfd20f7	0.030899508
159	0xbf7c53cf	-0.9856538
160	0xbd3ea5fb	-0.04654501
161	0x3fd0fcc2	1.6327136
162	0x3f98af1a	1.1928437
163	0xbaa6077b	-0.0012667024
164	0x4021004c	2.5156431
165	0x40133306	2.2999892
166	0x3f8edbfb	1.1160883
167	0xbefeb886	-0.49750155
168	0x3f64ee5e	0.8942622
169	0xbfbec1f7	-1.4902943
170	0x3c854c44	0.016271718
171	0x3fa7a8e4	1.3098416
172	0xbd5aa958	-0.053384155
173	0x3f5391b5	0.82644206
174	0xbef76600	-0.48320007
175	0x3fd1cbce	1.6390321
176	0xbc2994b0	-0.010350391
177	0x3f0d1db7	0.55123466
178	0x3e548c2f	0.20756601
179	0x3fa63f8f	1.2988147
180	0x3ba19077	0.0049305516
181	0x400d37ac	2.206523
182	0x3f61141b	0.87921304
183	0x3f7c7f77	0.98631996
184	0xbf3dd3eb	-0.74151486
185	0x3fa14a49	1.2600795
186	0xbd49e800	-0.049293518
187	0xbc19f648	-0.009397097
188	0x3f2aa88a	0.6666342
189	0x3fd39370	1.6529369
190	0x3d67c06e	0.05658
191	0x3f9f2fe5	1.2436491
192	0x3fb27dee	1.3944681
193	0x3fc93d32	1.57218
194	0xbf367c41	-0.71283346
195	0x3fb7d7ec	1.4362769
196	0xbcde0b41	-0.027104976
197	0x3f2d587a	0.6771313
198	0x3fcf335e	1.6187551
199	0xbf9b1898	-1.211688
200	0x3f8a3b70	1.0799389
201	0x3e13990d	0.14413853
202	0xbf2f09b0	-0.68374157
203	0xbf3fc8b3	-0.7491562
204	0x3f9c9a5d	1.2234608
205	0xbd77151f	-0.060322877
206	0x4013aa36	2.3072639
207	0x3fc4b4f0	1.5367718
208	0x401b5158	2.4268398
209	0x3f3cf440	0.73810196
210	0x3fdf4df7	1.7445668
211	0x3e74cb95	0.23905785
212	0xbd7bb345	-0.06145026
213	0x3d14e6e1	0.036352996
214	0x3db03d7d	0.08605478
215	0x3fd02769	1.6262027
216	0x3fc8d013	1.5688499
217	0xbf77eaf1	-0.9684287
218	0xbf9a97e5	-1.2077605
219	0xbfaddba5	-1.3582655
220	0x3f4487cc	0.7676971
221	0x3f4449f3	0.7667534
222	0x3fc29003	1.5200199
223	0x3fc5f809	1.5466319
224	0x3f11ce0e	0.5695504
225	0x3d899b9d	0.06719134
226	0xbf97ffb9	-1.1874915
227	0x3c7a88cb	0.015291403
228	0x4009a383	2.150605
229	0x3db67d94	0.08910671
230	0xbc999c5a	-0.018751312
231	0xbf93ff31	-1.1562253
232	0x3f37e7f1	0.7183829
233	0x3d96f153	0.07370248
234	0x3f0f0ce9	0.55879074
235	0x3fd75aad	1.6824547
236	0xbd0bcebd	-0.034132708
237	0x3fe5bf2d	1.7948967
238	0xbb2813a0	-0.0025646463
239	0x3f3a0ae9	0.726729
240	0xbf4e1881	-0.8050614
241	0x3db3cc14	0.08779159
242	0x3d345990	0.044030726
243	0x401bd1da	2.4346833
244	0xbf8dad61	-1.1068536
245	0x3fcbac0d	1.5911881
246	0xbf9d078b	-1.2267927
247	0x3fd61be4	1.6727262
248	0xbf475558	-0.778646
249	0x3f9dea6b	1.2337164
250	0x3f9b610b	1.213899
251	0x4019f97a	2.4058518
252	0xbf7ba17f	-0.982933
253	0xbd870a36	-0.065937445
254	0xba89ab43	-0.001050331
255	0x3d65a75d	0.056067813

2.bias f4 [6]
0	0xbed5864c	-0.41704023
1	0xbed7d4e3	-0.42154607
2	0xbefe1be9	-0.4963067
3	0xbef12a33	-0.47102508
4	0x3f138302	0.5762178
5	0x3f17f391	0.5935603

4.weight f4 [2, 6]
0	0x400117e1	2.0170825
1	0xc009e5c2	-2.1546483
2	0xc0174807	-2.3637712
3	0x40042e59	2.0653288
4	0x400fa886	2.2446609
5	0xbe8af805	-0.2714235
6	0x3fc25749	1.5182887
7	0x3fd134b4	1.6344209
8	0x3ff855c4	1.9401174
9	0x3ff4e696	1.9132869
10	0xbf5fd8a0	-0.8743992
11	0xbf9fa287	-1.2471474

4.bias f4 [2]
0	0xbf49f4f9	-0.78889424
1	0xbf1541a8	-0.5830331
