data/models/model_demonstrator_24_10_2024_11-17-41.pth (torch, 77428 bytes, 8 tensors)

0.weight f4 [128, 8]
000000 19 a0 11 3f b4 e2 2a 3d 2d a7 8a bf 58 b1 8c 3d
       0.56884915 0.041720107 -1.0832268 0.06869763
000010 d4 02 3d 3f 8a b1 99 be d9 be ba be 82 fb 9f 3e
       0.7383244 -0.30018264 -0.3647373 0.31246573
000020 e1 e2 d2 3e d5 38 68 be 70 05 f3 be 95 29 80 3f
       0.4118872 -0.2267793 -0.47465086 1.001269
000030 c1 b9 77 3f 02 93 14 bf 2c ab 68 bf 03 47 79 3f
       0.9676781 -0.58036816 -0.9088619 0.9737398
000040 8b aa 35 bf d0 11 60 bd 35 d4 2a 3d f1 f3 33 3f
       -0.7096335 -0.054704487 0.041706283 0.702941
000050 cd 21 91 3f 27 8e 22 bf 01 23 9e 3e ff 90 e4 be
       1.133844 -0.6349816 0.3088608 -0.44641873
000060 8a 5f 48 3e 0e 28 1a 3e 1c 9e 36 3f 63 65 72 3f
       0.19567695 0.15054342 0.71335006 0.94685954
000070 30 9a 26 bf a0 5f b5 3e af 71 42 3e 3e a3 20 3f
       -0.6507902 0.3542452 0.1898868 0.6274909
000080 b5 78 9a 3f af 4c bb bd 36 58 5a 3f 2f d2 94 be
       1.2068087 -0.091454856 0.8529085 -0.29066607
000090 4a bc 97 bf a6 89 e9 be 5c cc 27 be 06 42 ee 3e
       -1.1854336 -0.4561283 -0.1638655 0.46534747
0000a0 f2 cd 2e bf 40 8b 03 bf ba f4 8b 3e 19 dd b1 3e
       -0.68283 -0.51384354 0.2733515 0.34738997
0000b0 ce e2 73 3f ab 66 d0 3e 2e c0 2c 3f 8d ba 8b bd
       0.9526795 0.4070333 0.6748074 -0.06822691
0000c0 45 55 58 bf cf 9c 9c be 7f 6c 4c 3f 01 79 39 3f
       -0.8450511 -0.30588385 0.7985305 0.7245026
0000d0 45 1f c9 3e 47 59 c5 bf bc 07 0e 40 29 2c fc be
       0.3928167 -1.541787 2.219222 -0.49252442
0000e0 5c 6b e1 3e 78 04 57 3e 06 2a 43 3f 54 79 6f 3f
       0.4402722 0.20997798 0.76236 0.9354451
0000f0 5c b1 34 be 14 36 dc 3e 52 1e c8 3e 3a 1a 16 3e
       -0.17645782 0.43010008 0.39085633 0.14658442
000100 87 ae 12 3e 06 bb 53 bd 1b d7 18 3f 8d 93 c0 3d
       0.1432439 -0.05169203 0.59703225 0.09403143
000110 53 a3 86 be b1 3d 77 bf 08 06 b5 3f 06 ef 40 bf
       -0.26296481 -0.9657851 1.4142466 -0.7536472
000120 f7 24 31 3e b5 20 97 3f 7f 34 86 3f 41 b0 7c be
       0.17299257 1.1806856 1.048477 -0.2467661
000130 0f 31 a7 be ed a0 16 bf 9e fd 6b bc 7e 75 d6 3d
       -0.32654616 -0.58839303 -0.014403729 0.104716286
000140 67 9b 9b bc 11 18 d6 3e 48 17 ad be e5 6d e9 be
       -0.018995 0.41815236 -0.33806825 -0.45591655
000150 68 9f 76 3f 57 c9 4b be 0e e3 2c 3f bf 74 8a 3d
       0.96336985 -0.19901024 0.6753396 0.06760549
000160 8e 0f 1b 3f 84 cf 8d 3f 32 a3 42 3f 8b 88 25 be
       0.6057061 1.1078954 0.76030266 -0.16165368
000170 e7 21 89 bf 54 ff 94 3e 3d d7 36 3f 4a 3d cc 3e
       -1.0713471 0.2910105 0.7142218 0.3989051
000180 c8 ab 09 3f 58 9c 3c bf 62 0f 73 be 0b dc 10 bf
       0.5377774 -0.7367606 -0.23736337 -0.5658576
000190 c3 37 95 3e 13 57 71 be a7 eb 14 bf a2 7b 44 3f
       0.29144105 -0.23568372 -0.58172077 0.7675115
0001a0 84 f6 86 3e 88 ca 39 3c 04 48 a8 bf 90 56 07 bf
       0.26359951 0.011339791 -1.3146977 -0.5286646
0001b0 13 ae cd be 12 70 b5 be 6a 99 64 3f 3b fc d2 3f
       -0.4017187 -0.35437065 0.8929659 1.6483225
0001c0 67 87 5d bf ae 41 5b 3f cf 13 98 3e 99 61 6f 3d
       -0.8653473 0.85647094 0.29702613 0.058442686
0001d0 24 bb 31 bf cf c3 6e 3f 07 f5 8f 3f 79 29 4c 3e
       -0.6942618 0.9326753 1.1246651 0.19937696
0001e0 33 81 85 3e 4b 38 a0 be 67 25 a8 bf d9 1a b4 3e
       0.26075134 -0.31292948 -1.3136414 0.35176733
0001f0 ce b4 75 3f a5 79 44 3e c2 5d c7 bd 6b 45 f7 3e
       0.9597901 0.19187029 -0.0973468 0.4829515
000200 86 11 03 be f8 d3 ca bf aa 15 5f 3e a9 63 b4 bd
       -0.12799653 -1.5845938 0.21785608 -0.08808071
000210 97 54 46 be 23 6c 0a 3e ad 51 b8 3f 47 7e 57 be
       -0.19368206 0.13517813 1.4399925 -0.21044265
000220 48 88 8f 3d c6 d3 71 bf cd b5 d5 bd d7 5d c3 3e
       0.070084155 -0.94463766 -0.10435066 0.38157532
000230 ae e7 5b 3f b8 59 5c 3e 99 56 b2 be 8a e5 23 3f
       0.8590039 0.215186 -0.34831694 0.64022124
000240 30 b1 53 bd ee cc 92 be 00 ed 1e 3c d0 88 b8 3d
       -0.05168265 -0.28671974 0.00970006 0.0901047
000250 90 8b 10 3d 9c dc d5 3d 50 c0 19 be 60 b5 19 3d
       0.035289347 0.104424685 -0.15014768 0.03752649
000260 9a 5a 02 3d be a2 73 3e 22 ff ae 3e ac 6b 2c bf
       0.031824686 0.2379255 0.34179026 -0.67351794
000270 be d4 4a bd 73 54 83 be 6c e2 9b 3f b2 42 4f 3f
       -0.049519293 -0.25650367 1.2178473 0.80961144
000280 f8 65 c3 3d e9 4b a4 3e a0 cd 52 bd 24 bf 05 3e
       0.09540933 0.32089165 -0.05146563 0.13061196
000290 91 ae 0d be f3 1a 13 be ec ba fb 3d e4 2c d8 bd
       -0.13836123 -0.14365749 0.12291512 -0.10555437
0002a0 40 a1 d4 be c7 d6 a9 3f 05 6f ce 3e 40 7c 51 bf
       -0.41529274 1.326867 0.40319076 -0.81830215
0002b0 cf a2 88 bc bc 40 df 3e 57 55 99 bf 61 4f 7b bf
       -0.016679196 0.43604076 -1.1979169 -0.98168
0002c0 ac 48 fc 3e 44 5f a3 3d 21 00 5e 3f 65 8f 60 3f
       0.49274194 0.07977155 0.86718947 0.877188
0002d0 a6 2a b6 be 57 ba 23 3f 74 fb 2e 3f 78 59 47 3e
       -0.35579413 0.6395621 0.68352437 0.19467723
0002e0 a9 e9 2a bd a1 9c a7 3f 75 90 3c be 9c 27 af be
       -0.041726742 1.3094674 -0.18414481 -0.34209907
0002f0 5a 0d 4b 3e a0 5f 89 bf bf 96 0c bf ac 4d 26 bf
       0.19829312 -1.0732307 -0.5491752 -0.6496227
000300 9b 10 98 3f 56 6b 49 bf a2 1e ec be 01 e9 9b 3f
       1.1880068 -0.78679407 -0.4611712 1.2180482
000310 fa c3 2b 3f b5 1a 29 bf fa 7a 34 bf 55 1e f3 3e
       0.6709591 -0.66056377 -0.7050015 0.4748408
000320 21 ec a5 bf cf e2 70 bf b5 28 7d be 96 3d 19 3f
       -1.2962686 -0.9409608 -0.2472256 0.598596
000330 ef 6e a2 be 25 94 2f 3f 52 42 3d 3f 54 77 c5 3e
       -0.3172526 0.68585426 0.7392932 0.38567603
000340 d3 10 21 bf 1e 3f 56 3f 29 bf 7d bf 3e 26 5b bc
       -0.62916297 0.8369006 -0.9911981 -0.013375817
000350 48 af 81 3f 43 c8 3c c0 66 e1 77 3f 45 a7 f9 be
       1.0131617 -2.949723 0.96828306 -0.4876043
000360 d0 d9 36 3e 22 99 13 3f fc 02 15 3f a5 5e 60 3e
       0.17856526 0.5765554 0.5820768 0.21911104
000370 b9 ad e8 bf 53 dd 56 3e 44 20 c0 3e ea 51 11 3f
       -1.8178016 0.20982866 0.37524617 0.56765616
000380 01 5d 40 bd 99 30 06 bf 24 53 bb 3e 2e 52 25 3f
       -0.046963695 -0.52417904 0.3658687 0.6457852
000390 c2 b6 89 be 8e d5 2d 3c 8d 10 64 3f 46 83 88 be
       -0.26897246 0.010609997 0.89087754 -0.26662654
0003a0 4c 0d 03 bf fc 2c f2 be 16 fa 08 3f ce e2 41 3f
       -0.51192164 -0.47299945 0.535066 0.757367
0003b0 21 f3 a2 bd 9d 08 94 bf 1e f2 ca 3f 45 06 9e bf
       -0.079565294 -1.1565129 1.5855138 -1.2345663
0003c0 c4 10 6a 3e 85 26 4e be 53 be bc bc dd d3 0c 3e
       0.22857958 -0.20131882 -0.023039972 0.13752694
0003d0 38 ea 9e 3e a2 30 5d bd c1 b4 24 be e6 66 9c be
       0.3103807 -0.054001458 -0.16084577 -0.30547255
0003e0 c4 ff c0 be 7a fb aa be 48 ba 5b 3e 81 7f 84 be
       -0.37695134 -0.33394986 0.2145778 -0.25878528
0003f0 c5 d9 1b 3f 14 3a 81 be 4c b9 91 3f 11 92 e9 be
       0.60879165 -0.25239623 1.1384673 -0.45619252

0.bias f4 [128]
000000 d1 3f 23 3f fb b1 fa 3d 53 96 56 3f b7 93 e7 3e
       0.6376925 0.12240978 0.83823127 0.45229885
000010 2e 35 88 3d b0 34 2f 3e a5 45 0f 3d ad 38 1a 3e
       0.06650768 0.17109942 0.034978528 0.15060683
000020 c2 7e 86 3f 43 5a bc bd e9 3a 4d 3e e5 26 25 bf
       1.0507433 -0.091969036 0.20042004 -0.64512473
000030 88 bf 1e 3f c1 db 9d 3e a2 fc 96 3d 3b ba 04 3e
       0.62011003 0.3083172 0.07372405 0.12961666
000040 05 c2 bb 3e 6a 01 22 3e 92 12 83 be dc 24 7e bc
       0.36671463 0.15820852 -0.25600106 -0.015511718
000050 d3 fa b2 be eb fa 64 3f 87 1b 82 3e 08 a1 70 3f
       -0.3495699 0.8944537 0.25411627 0.93995714
000060 e4 58 ef 3e 26 97 c3 3d e8 38 ef bd 29 b6 c1 be
       0.46747506 0.09550314 -0.11680776 -0.3783429
000070 79 03 4b 3f 2b 80 0f 3f 57 4b 9f be 1f 43 b0 3e
       0.79302174 0.56054944 -0.31112167 0.3442621
000080 84 14 6a be aa 67 e3 3d 88 f4 4a 3f b1 08 12 3f
       -0.22859389 0.11103757 0.79279375 0.5704451
000090 47 15 dc be 59 08 14 3f b4 c4 b9 3e 41 a5 13 be
       -0.42984983 0.5782524 0.36282885 -0.14418508
0000a0 62 0d fd 3e f0 b1 90 bd d7 d2 99 3e ee 95 a9 be
       0.49424273 -0.07065189 0.3004367 -0.331222
0000b0 ff d2 69 be 04 13 54 3c ae 89 f4 3e 46 ca 8e 3e
       -0.22834395 0.012943987 0.4776129 0.27888697
0000c0 0f 0a 03 3f f8 25 e4 3e 16 ba 21 3d 3f 1c 38 3f
       0.51187223 0.44560218 0.039484106 0.719181
0000d0 65 f0 35 3f 4f 19 96 3f 8f 97 71 3f 83 df c6 3e
       0.7106994 1.1726474 0.94371885 0.388424
0000e0 9c d8 66 3e 3b 1e 0b 3f 3d f8 a5 be 61 d3 3c be
       0.22543567 0.54343003 -0.32415953 -0.1844001
0000f0 ad ca 89 3e ac 64 42 3f 74 f8 c8 3e 97 72 5f 3f
       0.26912442 0.75934863 0.39252055 0.87284225
000100 06 30 d2 3d f9 78 65 3e 49 c7 70 3d 52 91 63 be
       0.10263066 0.22409429 0.058783803 -0.22223404
000110 88 71 2e 3f d0 80 77 be 55 eb 06 3f 50 43 d0 3e
       0.68141985 -0.24170232 0.5270284 0.40676355
000120 5e 64 0a 3f 62 07 3e 3f e6 a4 07 3f 64 5b 7e 3e
       0.540594 0.74230015 0.5298599 0.2483955
000130 a3 95 bc 3e 96 cf 65 3e 34 e7 fb 3d a5 e7 a1 be
       0.36832914 0.22442469 0.12299958 -0.31622043
000140 95 3f 8d be ab 7a 87 3f a9 d1 4c 3f cb bb 30 3d
       -0.27587572 1.058431 0.80007416 0.043147843
000150 90 9e 1c 3e 73 9f 29 3f 87 b8 18 3f 81 46 c7 3e
       0.15294862 0.66258925 0.59656566 0.38920978
000160 12 5c 07 3f e4 87 d4 3e 92 3e 93 3e 47 91 f5 3e
       0.52874863 0.41509926 0.28758675 0.479624
000170 ff f6 a3 3e 06 25 ba 3e 2a a6 4d 3f fe 6d eb 3e
       0.3202438 0.36356372 0.8033167 0.45982355
000180 76 c7 fb 3d c0 58 c6 3e 64 c0 89 bf 29 7c 87 bd
       0.122939035 0.38739586 -1.0761838 -0.066154785
000190 83 20 68 be 71 9b fd 3e 29 70 94 be 1f 61 91 3f
       -0.22668652 0.49532655 -0.2899182 1.1357764
0001a0 54 0c b2 be 50 2a de be 07 a7 a7 be e4 74 a8 be
       -0.3477503 -0.43391657 -0.3274462 -0.3290168
0001b0 ea 52 93 be af b7 85 3d bf 7f 56 be 41 c4 a8 3e
       -0.28774196 0.065291755 -0.20947169 0.3296223
0001c0 33 2e 43 3f 24 77 7a 3d 8a 57 48 3f 45 79 4e 3f
       0.7624237 0.061148778 0.78258574 0.8065379
0001d0 db 67 2b 3f 68 3c 25 3f d4 84 09 3f bc c1 81 3f
       0.66955346 0.645453 0.53718305 1.0137248
0001e0 fd 20 23 3f 60 e0 a5 3e be 23 b6 3e 16 5f 23 3f
       0.6372221 0.32397747 0.35574144 0.63816965
0001f0 57 60 9a bc c5 89 d9 3e 9c 7a d0 bd ca 73 94 3c
       -0.018844767 0.42487922 -0.10179636 0.018121619

2.weight f4 [128, 128]
000000 7e f6 36 bf 92 89 57 3f e0 d4 a9 be 6b bb 4d 3e
       -0.7146987 0.8419429 -0.33170223 0.20091026
000010 0f 17 58 be 7c e1 94 3e 80 96 3e 3f e6 02 95 3e
       -0.21102546 0.2907828 0.74448395 0.29103774
000020 9a 12 bb 3e bd 4f d8 3e 2b 7e 04 bf af 8b 48 3f
       0.3653763 0.42248335 -0.5175502 0.7833814
000030 93 17 ee be 7b 3c e1 bf 96 12 42 be 56 69 9c bd
       -0.4650236 -1.7596582 -0.18952402 -0.07637279
000040 d6 61 b4 3f ec a6 3f bf 32 8a 5f 3d 3e 01 60 be
       1.4092357 -0.7486408 0.054575153 -0.21875474
000050 40 24 af ba 87 8f a5 c0 88 e8 80 3e 50 93 ec 3f
       -0.0013362244 -5.1737704 0.25177407 1.8482456
000060 a3 57 65 bf 10 87 62 3f 9f e1 17 c0 89 92 88 be
       -0.8958685 0.8848734 -2.3731458 -0.26674297
000070 f1 94 ff 3e 6f 23 31 3f 63 d0 0a bd 03 6c 56 3e
       0.4991832 0.6919469 -0.03389014 0.2093964
000080 33 d2 97 3d 8f dc c9 be ed 97 9d 3f 77 bb 11 c0
       0.07413139 -0.39426085 1.2311989 -2.277067
000090 5b bd 99 3e da d8 a5 bd 8a fb ac 3d f2 46 02 bf
       0.3002728 -0.08098002 0.08446415 -0.50889504
0000a0 0a ef ab be 11 3f 1c 3e 76 f7 49 be a8 7d ab bc
       -0.3358081 0.15258433 -0.19723305 -0.020933941
0000b0 93 dd 93 bf 99 ce f2 be 07 31 f7 3d c6 c9 85 c0
       -1.1551994 -0.47423247 0.12069898 -4.1808805
0000c0 a1 d9 0d bf 8b b2 94 3f e7 17 5f 3e 6a b1 0a 40
       -0.554102 1.1616987 0.21786462 2.1670785
0000d0 27 97 99 3e 39 ff d4 3e 07 9a 8a 3e 68 62 42 3f
       0.29998133 0.4160097 0.2707064 0.75931406
0000e0 1f 7e d9 3e 79 96 9e 3f c0 8f e5 ba 6c 96 ad 3f
       0.42479035 1.2389671 -0.0017514154 1.356153
0000f0 10 7b b0 bf d2 6f a5 3e 99 6c bf 3e 2d 64 d0 3e
       -1.3787556 0.32311875 0.3738754 0.40701428
000100 5e 00 6c 3f 2b e9 28 bf b7 83 4a 3f 96 af 34 bf
       0.9218806 -0.65980786 0.7910723 -0.7058042
000110 ff 2b 8e 3e 88 4c 76 bd 50 99 01 3f 98 51 25 bf
       0.2776794 -0.06013158 0.5062456 -0.6457763
000120 e6 93 8e 3e a0 5b 50 3c 7b 14 5d be 32 7f 8e be
       0.27847213 0.012717158 -0.21589844 -0.27831417
000130 98 74 07 3f 3e 00 97 3f c7 00 bd 3e af 32 f9 bd
       0.5291228 1.1796949 0.36914656 -0.1216787
000140 6f 62 48 bf 68 b4 b7 bf e0 34 60 3f 88 f7 df 3c
       -0.782752 -1.4351931 0.8758068 0.027339712
000150 08 45 09 bf 98 7d b3 c0 bb fd 1b 3d bb 33 07 bf
       -0.5362096 -5.6090813 0.038083773 -0.5281331
000160 a3 42 8f bf 30 f2 99 bd 89 ef f8 3e d9 5a 73 3f
       -1.1192211 -0.07516897 0.4862025 0.950605
000170 97 df 3f 3f 09 35 e9 be 97 54 18 3e 22 c9 8c be
       0.74950546 -0.45548275 0.14876018 -0.27497202
000180 ba 3d 9e 3e 4e eb 9f be 30 5c 20 3f ae 4d 63 be
       0.3090647 -0.3123421 0.62640667 -0.22197601
000190 89 c6 c7 be c2 2b 0a 3f 29 48 58 bd 91 65 80 3e
       -0.39018658 0.5397302 -0.052803192 0.2507749
0001a0 e4 c5 3b bd 7f b5 f0 3d 98 09 19 3c 85 cb a8 3d
       -0.04584302 0.11753368 0.009340666 0.08241943
0001b0 e8 f0 18 3c 79 59 54 be 38 bd f8 3c 2d 12 be 3e
       0.00933478 -0.20737256 0.030363664 0.37123242
0001c0 4d 66 04 40 95 19 05 3f d1 36 ba 3e fc 95 bf bf
       2.068744 0.5199216 0.36369947 -1.4967647
0001d0 99 ff b2 3e 25 25 cc 3e 48 f0 54 3f 03 a3 34 c0
       0.3496063 0.3987209 0.8317914 -2.8224494
0001e0 f4 b7 0e bf a1 68 57 3f 00 b7 9c 3e e3 03 6f 40
       -0.5574944 0.84144026 0.30608368 3.7346122
0001f0 4f e4 f7 bf f1 57 89 3e ae 1e 51 bd 7c 3f 2d be
       -1.9366549 0.26824906 -0.05105465 -0.16918749
000200 18 0a ad be a7 97 79 bd 05 c1 df be b2 8a 44 3f
       -0.33796763 -0.060935643 -0.4370195 0.7677413
000210 be 19 2d bf 6c fa a9 be af 59 9d bf ef 0a bf 3e
       -0.67617404 -0.3319887 -1.2292994 0.3731303
000220 a7 08 1f 3d 0f 02 1d bf d8 92 61 3e e9 f3 8e be
       0.03882661 -0.61331266 0.22028673 -0.27920464
000230 e9 1e b5 3e 80 57 86 3f 51 0f 4f 3e b3 b4 0b be
       0.35375145 1.0495453 0.20220686 -0.1364315
000240 8c ec 75 bf e4 81 ae be 1f f9 93 3d 5e 65 03 3f
       -0.96064067 -0.34083474 0.072252505 0.5132655
000250 80 72 74 bc 71 0f 8a 3f 52 df 87 3e d4 6a 99 3f
       -0.014919877 1.0785962 0.26537567 1.1985726
000260 e7 28 84 3f da 7e c5 bf e2 b8 99 3c 40 50 38 3f
       1.0324982 -1.5429337 0.018764917 0.7199745
000270 68 10 4f be a0 c7 4f c0 d4 29 84 bc d8 dc 8e 3e
       -0.20221102 -3.2465591 -0.016133226 0.27902865
000280 62 03 44 3d a8 95 d2 3e e7 72 09 40 f9 b3 03 40
       0.04785479 0.41129804 2.147638 2.0578597
000290 a1 2e dd 3d 56 04 79 be 1d 8e ae be 85 fa 3a 3f
       0.107999094 -0.2431806 -0.340928 0.7303851
0002a0 a3 3f 0b bd 65 d9 8b be b4 57 b1 be 20 e7 18 bb
       -0.033996236 -0.27314296 -0.34637225 -0.002333112
0002b0 9e bd ba 3f 37 f7 16 40 95 35 bc be 22 1a 83 3f
       1.4589117 2.3588388 -0.3675963 1.024235
0002c0 c9 fa 01 bf b2 99 a0 3d 68 d8 01 3b c6 af 4a bf
       -0.5077329 0.07841815 0.0019812826 -0.7917446
0002d0 4f d0 ce 3e fb f2 94 bf 84 76 35 c0 75 7e c7 be
       0.40393302 -1.1636652 -2.8353586 -0.38963667
0002e0 fc d5 b3 3c 5f 72 62 bd 7e 43 ae bd 34 69 45 c0
       0.021952622 -0.055284854 -0.08508967 -3.084546
0002f0 eb 60 25 3f d1 fa 65 be 37 c2 c0 bd 4c 21 fd be
       0.6460101 -0.2245896 -0.094120435 -0.49439466
000300 c4 64 f6 be ed de ef 3d 84 9c 51 c0 df 49 03 3f
       -0.48123753 0.117124416 -3.275178 0.51284593
000310 2b 8a 0d 3f c2 ec b4 bd cf 45 85 bf 1f 62 ca be
       0.5528895 -0.088342205 -1.0411929 -0.39527985
000320 42 10 0d 40 35 ec d6 be 6c 91 8e be 88 0c c0 3f
       2.2041173 -0.41977087 -0.27845323 1.5003824
000330 22 d3 96 bf 6b 54 73 3e 2d 6e c3 3d 4f 16 71 3e
       -1.1783183 0.23762672 0.09542499 0.23543666
000340 63 73 46 3f 98 59 64 3f f2 89 71 bf 24 d5 ae bd
       0.77519816 0.8919921 -0.9435111 -0.08536747
000350 76 e4 e7 3e 2d 33 c0 3e 39 c6 6f 3d 9e df 22 3f
       0.4529149 0.37539044 0.05853865 0.6362246
000360 c1 6f 47 3f fa dc c3 3f 17 5a 57 bf 95 64 c1 bf
       0.779049 1.5301812 -0.8412184 -1.510882
000370 6b 9a 66 bf 30 16 60 3f 50 5e c6 3e 56 f6 93 3e
       -0.90079373 0.87533855 0.3874383 0.28898877
000380 52 79 54 3e 87 cf 09 3e ff 11 21 bf 61 e0 0f 3f
       0.20749405 0.13458072 -0.62918085 0.5620175
000390 7d d2 1f 3f 83 c2 9f bd 06 4c 45 3d 12 eb 7c 3e
       0.62430555 -0.07800772 0.048168205 0.24699047
0003a0 3a 27 f3 bc 39 8b 02 be 78 dc 5b 3c 90 b2 a7 3b
       -0.02968179 -0.12748422 0.013419263 0.005117722
0003b0 9a 35 e0 bc 5a 90 05 3f d0 a2 98 bc 49 1a 7d bf
       -0.02736931 0.5217339 -0.018632323 -0.9886823
0003c0 aa ef 65 3f ce 29 07 40 de af f7 bd 42 5b 8d bf
       0.89818823 2.1119266 -0.12094091 -1.1043475
0003d0 c5 a8 05 3f f7 2e 5f bf 24 36 b1 bd b4 0f ec 3d
       0.52210647 -0.8718104 -0.08652905 0.11526433
0003e0 50 53 2c 3f ac 50 02 c1 aa 27 32 be 24 08 be be
       0.67314625 -8.144695 -0.17397943 -0.37115586
0003f0 32 5e 15 be 33 c9 b2 3e c0 e6 53 3c e6 c0 0c 3f
       -0.14586714 0.34919128 0.012933433 0.5498184

2.bias f4 [128]
000000 a7 e7 0c 3e 09 71 82 3d f9 f2 72 3e 7e 3e bb bd
       0.13760243 0.06369216 0.23725499 -0.09142779
000010 9f 12 e3 3e 91 9e c6 3e ee 2e 7e 3e d9 a0 2e 3f
       0.44350144 0.38792852 0.2482259 0.68214184
000020 14 d4 01 3d 23 88 00 3e a5 7f c1 3e 30 8e 95 bb
       0.031696394 0.12551932 0.37792698 -0.004564069
000030 9e 44 c0 3d b0 4f 66 bd 00 9d 75 3d 97 c1 49 3f
       0.09388088 -0.05622834 0.05996418 0.7881102
000040 56 f2 08 3e cd 10 da 3e fc 25 ae 3e 8d 55 51 3e
       0.13373694 0.42590943 0.34013355 0.20442791
000050 f7 7f a8 bd 44 55 b0 bd c7 f9 a6 3e b3 d6 b8 bc
       -0.08227532 -0.08610013 0.3261244 -0.022563314
000060 6c f4 c6 3e cd af 8a 3e 6f ba 1d 3e 20 5e 07 bd
       0.38858354 0.2708725 0.1540315 -0.03304875
000070 72 28 5d 3f 92 0d 1f 3f 25 b4 6e bd 11 cb 1f 3f
       0.8638984 0.6213008 -0.058277268 0.6241923
000080 94 04 b6 3c 37 52 1a 3e 67 90 ed 3d 4c a8 6a 3e
       0.02221898 0.15070425 0.11599808 0.22915763
000090 3d ed 86 3e ed 9f ae bd 80 9c e3 3a 22 fc 4f 3e
       0.26352873 -0.08526597 0.0017365366 0.20311025
0000a0 45 58 a6 3d 05 1d a2 3e da 2f 3c bd 10 39 8d 3e
       0.08122305 0.31662765 -0.045944072 0.27582598
0000b0 90 0d 6f 3d 14 40 92 3e 5a eb 09 3f 40 1f a1 3e
       0.058362544 0.28564513 0.53874743 0.31469154
0000c0 0c 01 b1 3e 4e 8f 7a 3e 50 04 bc 3e c0 a0 8d bd
       0.3457111 0.24468729 0.3672204 -0.06915426
0000d0 f5 e3 5c 3e bf 38 ba 3e 87 5e 83 3c 18 7c 0d 3e
       0.21571334 0.3637142 0.016036285 0.1381687
0000e0 ec 06 ab 3e 8a 24 f3 3e 7e 46 04 3e 8d 7b af bd
       0.33403718 0.47488815 0.12917516 -0.08568487
0000f0 fd 8e 3d 3e 13 f0 81 3e 65 b6 74 3c 9d 41 0d 3e
       0.18511577 0.25378475 0.014936064 0.1379456
000100 3b bd 17 3f e0 94 aa 3e ba e6 e1 bd 0c e0 12 3d
       0.5927312 0.33316708 -0.11030336 0.0358582
000110 05 70 04 3d 0d 29 5d be 5f 30 9c 3e f1 89 53 bd
       0.032333393 -0.21597691 0.30505654 -0.051645223
000120 57 18 96 3d 57 cf 71 3e 1a 9d 2d 3d f6 da 07 3d
       0.07328861 0.2361425 0.04238615 0.0331678
000130 55 be dc be a8 08 2b 3d 4c ac 12 3e 54 92 b7 bc
       -0.43113962 0.041756302 0.14323539 -0.022408642
000140 aa f5 9c 3d 74 08 e5 3e 4a f8 d1 3e 96 d3 50 3e
       0.07664044 0.44733012 0.41009742 0.20393214
000150 3b 4f 9a 3d d2 9f 65 3e 34 23 b8 3e 5d 13 1c bd
       0.07534643 0.22424248 0.35964358 -0.038104404
000160 ee 42 a5 3e 50 db cc bc d6 c3 92 3e 56 32 c9 3e
       0.32277626 -0.02500692 0.28665036 0.39296216
000170 7a 61 27 3f ea a7 78 3e 41 08 ac bb 1c 71 93 3e
       0.6538311 0.24282804 -0.0052500074 0.28797233
000180 45 5f b9 3c 1f 78 53 3e c4 df 23 3f 3e be dc 3b
       0.022628436 0.20651291 0.64013314 0.006736546
000190 a2 7a 2d 3e da 72 92 3e 0e 82 0f 3e 43 4a 68 3e
       0.16941312 0.2860325 0.14014456 0.22684579
0001a0 3a 11 08 3f 02 73 54 3f 81 ac 62 3d c1 c8 cc 3e
       0.53151286 0.8298799 0.055340294 0.39996913
0001b0 60 42 f0 3e 65 89 ae 3e 14 36 5a 3e a5 f2 32 bc
       0.4692564 0.340892 0.21309692 -0.010922109
0001c0 77 05 8e 3d e6 06 fc 3d 17 0b 1c bd bb 5c ea 3e
       0.06934636 0.12306003 -0.038096514 0.45773873
0001d0 06 c8 90 3e 12 a4 2e 3e a8 87 44 3e 05 78 bf 3e
       0.28277606 0.17054775 0.19192374 0.37396255
0001e0 35 b2 a6 bc ed 96 96 3d 50 7b d4 bb 4e 78 b2 3e
       -0.020348648 0.073530056 -0.0064844266 0.3485741
0001f0 d3 09 21 3f ef 8f 4c 3f 0d de b7 3d 29 2b 34 3d
       0.62905616 0.79907125 0.089779 0.043986473

4.weight f4 [6, 128]
000000 89 25 91 bf e9 2f 99 3f 7d 50 27 3f db fc e2 b5
       -1.133958 1.1967746 0.6535719 -1.6911903e-06
000010 6a 21 20 3f 75 05 74 3f 67 e7 6d bf da 03 c2 bf
       0.62550986 0.95320827 -0.92931217 -1.5157425
000020 e9 24 fe 3e bf 1c 8c bf 0e dc 58 bf b7 a5 8b bd
       0.49637535 -1.0946273 -0.84710777 -0.06818717
000030 a1 60 9c be cf 91 51 3c 41 c2 78 3f 56 04 be be
       -0.30542472 0.012791111 0.9717141 -0.37112683
000040 e2 4b 9d 40 52 02 57 3f 02 c0 96 bf 06 74 85 3f
       4.915513 0.83987916 -1.1777346 1.0426033
000050 3d ee 84 3c 2d 5a 68 bd 8e 08 b1 3d 70 5e fe bb
       0.016226882 -0.056726623 0.0864421 -0.0077627227
000060 fc a0 61 3f 91 c9 69 3f 59 3b 95 bf 3e bd 10 3f
       0.8813627 0.9132319 -1.1658736 0.5653876
000070 ae 6e c8 bd 4e 81 1a 3e 0e 0c 30 3d 05 98 1f 3f
       -0.097867355 0.15088388 0.042980246 0.6234134
000080 a0 40 78 3b 27 c4 8f bf 1d 83 0f 3f b8 f9 1a 3f
       0.0037880316 -1.1231736 0.5605944 0.6053729
000090 6a 39 76 3f a1 6a 89 3d 10 c5 ea 3b e2 b5 de 3e
       0.96181357 0.06709791 0.007164605 0.4349814
0000a0 ff bb 9f 3f e9 e6 2d bf 4e 0a 39 3d 58 a1 5a 3f
       1.2479247 -0.67930466 0.045175843 0.8540244
0000b0 f9 36 39 3c 37 f2 11 3f 2e a9 1a 3f 4d ce 3e 3e
       0.01130461 0.57010216 0.604144 0.18633385
0000c0 5a 34 28 bf f9 6e 02 3f 80 97 25 3f 10 68 51 bc
       -0.6570488 0.5095058 0.64684296 -0.012781158
0000d0 76 03 37 bf a6 bf 51 3f a4 fc ef 3e 98 78 78 bf
       -0.71489656 0.8193306 0.46872437 -0.9705901
0000e0 3b d9 68 3f f0 e1 2b 3f a4 78 89 bf 2f 6c 9e 3d
       0.9095647 0.6714163 -1.0739942 0.07735478
0000f0 af f2 85 3f f6 8e 35 3f 4c e5 98 bf be e5 6d bf
       1.0464686 0.70921266 -1.1944976 -0.92928684
000100 c7 c2 8a bf 7d 9b 00 3e 00 15 ae bf b4 dc bb bc
       -1.0840691 0.12559314 -1.3600159 -0.022932388
000110 fb 1a 53 bf dc 00 c1 3f 3c f5 3f 3f 61 76 ca 3e
       -0.82463044 1.5078387 0.7498357 0.3954344
000120 99 71 03 bf af 23 23 bf 56 e4 5f 3d 73 7a 8f bf
       -0.5134521 -0.63726324 0.054661117 -1.1209244
000130 31 69 44 3e 99 85 a7 bf bb 59 e2 3e 4c c1 bc bc
       0.19180752 -1.3087646 0.44209084 -0.02304139
000140 20 ae 48 bf be 26 6a 3f 0c 35 b4 3e 2f 52 52 bf
       -0.78390694 0.91465366 0.35196722 -0.8215665
000150 80 43 7c bd 09 93 8b 3f 43 d1 49 bf b5 69 fd 3e
       -0.06158781 1.0904247 -0.78834933 0.4949471
000160 bb d9 22 3f 1b bc a5 3e f2 ff 40 bf 64 95 53 bf
       0.6361348 0.32370076 -0.7539054 -0.82649827
000170 d0 8b b6 bf 37 fc 49 bf 79 1e b0 3e c2 dd 09 3f
       -1.4261417 -0.78900474 0.3439825 0.53854
000180 03 91 8c bf 8f 68 bb bf 92 6b be bf 15 ec 96 3c
       -1.0981754 -1.4641284 -1.4876578 0.01842312
000190 ba 57 42 3f 30 c9 87 3f 2b 0f 30 3f d8 db 05 be
       0.7591511 1.0608273 0.68773144 -0.13072145
0001a0 7d 9a 2a 3f 14 cf a6 be 12 96 59 3f 53 b2 4d 3e
       0.6664198 -0.32579863 0.84994614 0.20087557
0001b0 2a ac 0e 3f c0 45 25 3f 9b 27 35 be dd 6f 37 3f
       0.5573145 0.64559555 -0.1769089 0.71655065
0001c0 d1 70 9c 3e 40 9f 8c bf ce cb 1e 3d 84 32 2a 3f
       0.30554822 -1.0986099 0.038768582 0.6648333
0001d0 32 11 34 3f af 4f 89 3e 81 ea 10 3f 65 9d 95 3e
       0.7033874 0.26818606 0.56607825 0.29221645
0001e0 a9 2e dc 3e c7 68 85 bf c5 df a4 3d 99 d2 34 3f
       0.4300435 -1.04226 0.08050493 0.70633847
0001f0 c8 48 58 bf 15 ac 79 3f e5 99 86 bf 6a 15 6a bf
       -0.84486055 0.975282 -1.0515715 -0.91438925
000200 74 25 ad bf 3a fd ac 3f 2d 42 26 3f 0a 85 41 bd
       -1.3527055 1.3514779 0.64944726 -0.047246017
000210 8e 2a 5b bf d0 54 5a 3f 52 d9 2a c0 32 77 09 c0
       -0.8561181 0.85285664 -2.6695142 -2.1479
000220 2a 9b a1 3f 21 94 26 3f 8d 8a 29 3f 46 d5 5c bd
       1.2625477 0.65069777 0.66227037 -0.05391433
000230 56 b5 81 3f ad e3 58 3d 81 ef d1 bf 7d 09 ac bf
       1.0133464 0.052951504 -1.6401216 -1.3440396
000240 3f e7 c0 bd dc 51 7d 3f d4 d9 1f 3f 0f 15 7d bf
       -0.09419107 0.9895303 0.62441754 -0.9886026
000250 6e 16 08 bd 7c 80 00 3d 2a 1c 6a 3f cb 0f 36 bc
       -0.033224516 0.031372532 0.91449225 -0.011112164
000260 fc e9 27 3f 8c 47 4a 3f 71 cf 2b 3f 39 82 a3 3f
       0.65591407 0.7901542 0.67113405 1.2774116
000270 70 87 a6 bf 19 63 86 bf 80 e1 3e 3c 71 bc 59 bf
       -1.3010082 -1.0498992 0.011650443 -0.85053164
000280 0d ea 79 bd 9b 7d 8f bf 18 da b4 3f 48 53 80 3f
       -0.061014224 -1.1210207 1.4129057 1.0025415
000290 44 34 f0 bf 78 21 0d bd bd 77 ac 3d de 56 92 3f
       -1.876595 -0.034455746 0.08421276 1.143276
0002a0 cb 4a 6a 3f ba f2 1c 3f 96 55 73 bd bc 16 d0 3e
       0.91520375 0.6130787 -0.059407793 0.40642345
0002b0 1f 08 1a 3d 2d 42 cc 3e b1 f9 62 bf b7 30 4d 3f
       0.0376054 0.39894238 -0.8866225 0.8015246
0002c0 3e e2 23 3f b9 50 c6 3e dc f3 85 3f e0 03 51 3b
       0.64017093 0.38733461 1.0465045 0.0031893179
0002d0 55 2c 22 3f 60 ab 3b 3f 1e e4 9b 3f 60 63 ca bf
       0.63348895 0.7330837 1.2178991 -1.5811577
0002e0 b3 5d 67 3f 36 7c 5e bf d0 2c 0c 3f e5 6f 15 bd
       0.9037735 -0.8690828 0.5475588 -0.036483664
0002f0 d3 81 52 bf 6e 7c 02 c0 2d c5 50 bf e0 0f 02 c0
       -0.82229346 -2.0388446 -0.81550866 -2.032219
000300 4c 37 11 c0 ac 7f 95 3f 12 1d 34 bf 66 d9 44 bd
       -2.269 1.1679587 -0.7035686 -0.04805889
000310 89 df 1e 40 a4 3d 09 c0 60 43 f0 3e 1f 44 9a 3f
       2.4823935 -2.1443872 0.46926403 1.2052039
000320 6c 89 d5 bf 69 6b 47 3f 48 4a 39 bb f2 15 2e 3f
       -1.6682563 0.7789827 -0.0028273035 0.68002236
000330 43 89 5f 3f 57 57 6d 3f 1d 3f fe bf 0a 63 6e bd
       0.8731882 0.92711395 -1.9863011 -0.05819992
000340 09 ba 53 3f 54 70 4a 3f 66 c8 4c 3f 6a 3e 24 3f
       0.8270574 0.7907765 0.79993284 0.64157736
000350 70 a1 08 3d 77 a3 0f c0 46 d6 29 3f f6 70 97 3f
       0.033357084 -2.244352 0.6634258 1.1831348
000360 22 d2 df 3e 65 52 94 3f a0 08 a2 bf 33 64 14 3f
       0.43715006 1.1587645 -1.2658882 0.5796539
000370 62 c1 95 bf 92 53 29 3f e6 0f a1 3f 90 53 e3 3e
       -1.1699641 0.66143143 1.2582977 0.4439969
000380 b3 5a 43 3f 4a a5 a4 3e d4 fa d2 bf 76 51 a7 bd
       0.7631027 0.32157356 -1.6482797 -0.08169834
000390 db fe 9f bf 36 77 c5 bf 0f 1a 52 3f b5 b8 c5 3f
       -1.2499651 -1.5427005 0.8207101 1.5446993
0003a0 43 5f 6c bf e0 61 a8 bf 36 3c f3 bf 5e 81 9b 3f
       -0.9233286 -1.3154869 -1.900275 1.2148855
0003b0 af 02 66 bf 59 06 84 3f 8b d6 65 3f 5c 4e 81 3f
       -0.89847845 1.0314437 0.8978049 1.0102038
0003c0 b7 9c 03 c0 ef 41 1b 3f 22 aa 39 3d ca 27 61 bf
       -2.05644 0.6064748 0.045328267 -0.8795134
0003d0 8a de ab 3e 23 85 96 3f 80 c8 eb 3e 89 60 8b 3f
       0.3356822 1.175938 0.46051407 1.0888835
0003e0 a3 3d 9c 3f dc 06 1e 3f 9e 7c 54 bd 48 5f 96 3f
       1.220631 0.61729217 -0.051876657 1.1747828
0003f0 c2 34 1e c0 0e a4 e3 be 5a d2 4f 3f 23 d8 84 bf
       -2.47197 -0.444611 0.81180346 -1.037846

4.bias f4 [6]
000000 54 d5 00 3e 1f d3 3a 3e 93 6e 7f 3e ab d1 6d 3e
       0.12581378 0.18244599 0.24944524 0.23224513
000010 e8 b9 1e 3e d4 e4 92 bd
       0.15500605 -0.07172552

6.weight f4 [2, 6]
000000 1d 6a c3 bf 44 ff 8f 3e 4d f5 ee 3f 38 bf d3 3f
       -1.5266758 0.2812444 1.866861 1.654273
000010 06 80 d6 bf ec 50 dd bd ff e7 d7 be 4f 63 cf 3f
       -1.675782 -0.1080645 -0.42169186 1.6202182
000020 33 a5 20 40 f4 e5 92 bf 52 e3 d3 be 00 51 eb bd
       2.510083 -1.1476426 -0.4138437 -0.11490059

6.bias f4 [2]
000000 58 b7 16 3e 5f ba b4 3e
       0.14718378 0.3529844
