data/models/model_demonstrator_normalized_13_12_2024_16-26-12.pth (torch, 30252 bytes, 6 tensors)

0.weight f4 [76, 8]
0.4982485 -0.60627437 0.32768562 -0.2703415 -0.37878117 -0.28580037 -0.81979877 -0.6079685
-0.13536115 -8.507876 -11.499353 6.929797 0.6853609 7.545881 3.0657635 -0.37900686
-0.25384882 -0.5783221 -0.56637156 -0.2874976 -0.20853135 -0.42172927 -0.30719194 -0.69327974
0.12254235 -0.3272219 -0.0811449 -0.14443947 -0.31454757 0.12423858 -0.33705232 -0.29763776
-0.044386953 -0.7234519 -0.67672604 -1.1453576 -0.83102673 -0.06360266 0.24940382 0.21516027
-0.77039057 -0.26013085 -0.4982987 -0.50601083 -0.35199684 -0.6106203 -0.72748876 -0.37210733
-2.119046 0.7094334 -6.292622 16.838526 -5.7875795 -4.248901 -2.4045534 -3.3103614
-9.629552 0.82699406 3.192107 -6.5960426 9.501237 -0.41351894 -7.031464 2.6012106
-0.57438475 -0.21706173 0.436011 0.1986856 0.5232408 0.32081515 -0.9922512 -0.06833904
-0.68304855 -0.27849188 -0.7691474 -0.18879218 -0.10823023 -0.6973285 -0.5989404 -0.3501008
-0.3070293 -0.20185192 -0.25951985 0.04511699 0.099291235 -0.21784501 -0.02469039 -0.036464244
0.73276466 -0.35530758 -0.48092234 -0.16547781 -0.23783119 -0.5800814 0.5771442 -0.63494843
-0.49604243 -0.40261105 -0.62805146 -0.8290375 -0.54254025 -0.52721524 0.26933435 -0.3522271
-0.57534915 -0.71748465 -0.7879862 -0.7723528 -0.48778504 -0.25724563 -0.18084842 -0.3649595
-0.4533286 -0.5762063 -0.63156223 -0.7852226 -0.6870914 -0.2396673 -0.2333547 -0.23351099
-0.679564 0.17992622 -0.3020797 -0.2702533 0.05892702 -0.71236295 -1.0459248 -0.95180196
-0.055782508 0.16729757 -0.8067417 -0.33832416 -1.042355 -0.25769296 0.24582295 0.30522275
0.31213835 -0.3548409 0.33190745 -0.262922 -0.369457 -0.47038558 -0.58602154 -0.25047427
-0.49982852 -0.54953164 -0.16498871 -0.76089644 -0.2668911 -0.4566713 -0.80851036 -0.40911946
-0.28883684 -0.15966597 0.13430275 -0.7496537 -0.743035 -0.026090592 -0.15096268 0.15173529
0.27048138 -0.21011958 -0.33362567 -0.033009708 -0.043354273 -0.14018796 -0.28388932 -0.32203466
-0.39575505 -0.52152956 -0.7336675 -0.2725402 0.5923722 -0.41559142 -0.8173523 -0.34614426
0.06888291 -0.89382786 -0.9256321 -1.0775557 -0.734265 -1.1807194 0.23778069 0.29138187
-0.12309982 -0.021444201 0.08003083 -0.09116316 -0.20737585 0.14826444 0.13855177 0.037987918
4.3045216 6.8248487 10.828501 -8.986907 -7.4904566 -1.3381426 -12.205959 -1.665078
-1.9703543 0.18684605 -0.5739356 -0.5428892 0.039447352 0.15693508 -1.1198809 -0.18702061
0.30875382 -0.8892978 -0.01926414 -0.817338 -0.945964 -1.030692 0.16764633 0.32303897
0.28321418 0.0032455623 -0.1834198 0.06515762 -0.3042211 0.15019593 -0.13617651 -0.34271953
-0.21525739 0.21398634 0.18179691 -0.22855085 0.24525586 -0.16584548 -1.4231998 -0.3886163
0.10095309 0.14653 -0.04423013 0.11885577 -1.8570827 -0.30479988 -0.14022364 -0.38536134
0.308425 -0.34251234 -0.45347977 -0.5409333 -0.17702088 -0.7424602 -0.6213686 -0.2688233
0.42526886 0.0030922857 0.5446455 -0.09012128 -0.31796655 -0.19810349 -0.24824907 -0.35674685
00000000: 6d1a ff3e cc34 1bbf 69c6 a73e 336a 8abe
00000010: 9bef c1be 6d54 92be 55de 51bf d3a3 1bbf
00000020: 1d9c 0abe 4320 08c1 5afd 37c1 e6c0 dd40
00000030: d073 2f3f db77 f140 7835 4440 300d c2be
00000040: 79f8 81be eb0c 14bf bafd 10bf e332 93be
00000050: 3e89 55be e6ec d7be 4348 9dbe c87a 31bf
00000060: 7cf7 fa3d a189 a7be 4c2f a6bd f1e7 13be
00000070: 610c a1be cc70 fe3d 1f92 acbe fa63 98be
00000080: 18cf 35bd 2534 39bf eb3d 2dbf 149b 92bf
00000090: 2bbe 54bf 1d42 82bd b763 7f3e f952 5c3e
000000a0: 5138 45bf df2f 85be 0221 ffbe ed89 01bf
000000b0: ee38 b4be 9d51 1cbf b43c 3abf da84 bebe
000000c0: 739e 07c0 6d9d 353f 295d c9c0 4db5 8641
000000d0: da33 b9c0 fff6 87c0 34e4 19c0 f6dc 53c0
000000e0: a512 1ac1 e2b5 533f 7b4b 4c40 c812 d3c0
000000f0: 1105 1841 c1b8 d3be c101 e1c0 3c7a 2640
00000100: e10a 13bf 6e45 5ebe d53c df3e 3d74 4b3e
00000110: 1cf3 053f e241 a43e 2d04 7ebf 57f5 8bbd
00000120: 45dc 2ebf 7d96 8ebe d8e6 44bf bd52 41be
00000130: d0a7 ddbd 1f84 32bf 2854 19bf 6940 b3be
00000140: f232 9dbe 45b2 4ebe c9df 84be 98cc 383d
00000150: 3459 cb3d c312 5fbe 8043 cabc 885b 15bd
00000160: 7796 3b3f e0ea b5be 743b f6be 0473 29be
00000170: 058a 73be 3780 14bf b9bf 133f fb8b 22bf
00000180: 46f9 fdbe 0923 cebe fbc7 20bf cd3b 54bf
00000190: ebe3 0abf 94f7 06bf 31e6 893e 1c57 b4be
000001a0: 154a 13bf 13ad 37bf 77b9 49bf eab8 45bf
000001b0: f6be f9be b3b5 83be 5430 39be f9db babe
000001c0: b01a e8be 4282 13bf 10ae 21bf 5904 49bf
000001d0: 39e5 2fbf 586b 75be 89f4 6ebe 811d 6fbe
000001e0: e8f7 2dbf 943e 383e 31aa 9abe a45e 8abe
000001f0: 755d 713d 6b5d 36bf dde0 85bf 4ba9 73bf
00000200: 337c 64bd 0e50 2b3e a086 4ebf d338 adbe
00000210: e36b 85bf 55f0 83be 03b9 7b3e 2846 9c3e
00000220: 99d0 9f3e b5ad b5be c6ef a93e b69d 86be
00000230: 7829 bdbe 61d6 f0be 8205 16bf 2a3e 80be
00000240: 86e9 ffbe 1bae 0cbf cdf2 28be 1cca 42bf
00000250: f3a5 88be d2d0 e9be 89fa 4ebf 1b78 d1be
00000260: 6ce2 93be 7a7f 23be a986 093e 4ee9 3fbf
00000270: 8b37 3ebf f0bb d5bc f695 1abe 7f60 1b3e
00000280: 897c 8a3e 9629 57be fcd0 aabe 3035 07bd
00000290: 4094 31bd 6f8d 0fbe f159 91be bae1 a4be
000002a0: 68a0 cabe f682 05bf a2d1 3bbf 648a 8bbe
000002b0: b4a5 173f 66c8 d4be 003e 51bf d239 b1be
000002c0: 7c12 8d3d e7d1 64bf 3af6 6cbf 58ed 89bf
000002d0: cbf8 3bbf d021 97bf c87c 733e 0130 953e
000002e0: c21b fcbd c0ab afbc 34e7 a33d c0b3 babd
000002f0: 565a 54be a2d2 173e 84e0 0d3e 3899 1b3d
00000300: a4be 8940 2965 da40 8a41 2d41 5fca 0fc1
00000310: d2b1 efc0 4248 abbf 9c4b 43c1 4721 d5bf
00000320: 9234 fcbf 9254 3f3e 72ed 12bf c9fa 0abf
00000330: 8c93 213d 97b3 203e 4258 8fbf 5582 3fbe
00000340: fb14 9e3e 05a9 63bf d4cf 9dbc 103d 51bf
00000350: b22a 72bf b7ed 83bf 7bab 2b3e 5d65 a53e
00000360: 7301 913e 80b3 543b 66d2 3bbe 5c71 853d
00000370: dec2 9bbe f6cc 193e db71 0bbe ef78 afbe
00000380: 6f6c 5cbe 3c1f 5b3e f828 3a3e 3c09 6abe
00000390: 5a24 7b3e 66d3 29be 692b b6bf b7f8 c6be
000003a0: 7ec0 ce3d f60b 163e a72a 35bd a76a f33d
000003b0: e3b4 edbf bb0e 9cbe c996 0fbe 154e c5be
000003c0: e2e9 9d3e c75d afbe 802e e8be 9b7a 0abf
000003d0: f644 35be df11 3ebf 0312 1fbf 35a3 89be
000003e0: d7bc d93e f2a7 4a3b e36d 0b3f 8191 b8bd
000003f0: 83cc a2be a4db 4abe 0135 7ebe 86a7 b6be

0.bias f4 [76]
-0.17069235 1.2514668 -0.73358583 0.03479767 -0.6787792 -0.5185354 7.446429 -1.0081201
-0.7948826 -0.5476142 -0.122839004 -0.28023514 -0.41715035 -0.6120207 -0.45189095 0.14060612
-0.77191526 -0.66918343 -0.54770195 0.22074135 0.2472128 -0.3783815 -1.1661801 -0.2701587
0.6548447 0.15141992 -0.6908815 -0.04411018 -0.21559098 -0.07603829 -0.73611265 -0.25778857
-2.6333237 -0.44677928 -0.4209501 -0.3269084 -0.17522563 -0.2790644 -0.43360513 0.22845548
1.3514134 -0.22519174 -0.015101734 -0.2025103 -0.96667176 -0.18695195 -0.603742 -0.36512166
-0.09122604 0.25805184 4.272381 1.6798347 -0.3282275 -0.102161676 0.12829283 -0.41272977
3.467108 -2.0761433 -0.5866423 -0.59988135 1.1205028 -0.3208233 -1.6809798 -3.9658406
-0.09055668 -0.783841 -0.6246149 -0.20302276 -0.28210413 -0.4807634 0.09937856 -0.17921372
-0.29538062 0.105564885 -0.018645993 0.036071014
00000000: fac9 2ebe 1030 a03f 48cc 3bbf 0088 0e3d
00000010: 79c4 2dbf bcbe 04bf 2549 ee40 140a 81bf
00000020: 6d7d 4bbf 7230 0cbf 0493 fbbd fb7a 8fbe
00000030: bb94 d5be 63ad 1cbf 405e e7be 0dfb 0f3e
00000040: 3d9c 45bf 9b4f 2bbf 3236 0cbf 050a 623e
00000050: 5a25 7d3e 38bb c1be 6445 95bf 3e52 8abe
00000060: e7a3 273f d30d 1b3e 9cdd 30bf e0ac 34bd
00000070: e2c3 5cbe f7b9 9bbd e171 3cbf ddfc 83be
00000080: 6088 28c0 41c0 e4be c686 d7be 8a60 a7be
00000090: 596e 33be 87e1 8ebe 7e01 debe 3cf0 693e
000000a0: 1dfb ac3f aa98 66be 436d 77bc dc5e 4fbe
000000b0: cd77 77bf 5570 3fbe d68e 1abf 3af1 babe
000000c0: b8d4 babd 5f1f 843e 58b7 8840 d304 d73f
000000d0: 6f0d a8be 243a d1bd 325f 033e 5151 d3be
000000e0: 19e5 5d40 88df 04c0 312e 16bf d391 19bf
000000f0: a36c 8f3f f442 a4be 592a d7bf 55d0 7dc0
00000100: c875 b9bd cea9 48bf c3e6 1fbf 33e5 4fbe
00000110: f46f 90be 9f26 f6be fd86 cb3d cd83 37be
00000120: 213c 97be 6732 d83d 7bbf 98bc 33bf 133d

2.weight f4 [76, 76]
-0.3887336 -28.935127 0.0814972 -0.07018836 -0.44407985 -0.55326957 -1.8323221 -1.4641448
-0.43277332 0.013451822 0.06613205 -0.5892669 -0.59561664 0.5894535 0.39893827 -0.49074155
-0.40046728 -0.40179417 -0.39000183 -0.5513535 -0.078112066 -0.39934132 -0.54477406 0.027022652
2.7679644 -0.5229332 -0.5095452 0.10820507 -0.5806508 1.0828688 -0.46263325 -1.0789744
-1.578297 -0.97675496 -0.4666898 -0.520358 -1.0111538 0.006307654 -0.5631404 0.51545763
0.038274955 -0.3778451 -0.46641043 -0.0843118 0.4012028 0.06712494 0.44870228 2.424497
0.11377289 -0.5614552 -0.7432572 -29.17614 -0.57071185 -0.00030724704 -0.40359515 -0.5759563
3.78178 -35.023956 -0.5105093 0.50083995 -1.4722846 0.043449618 -1.2452677 -5.3314495
-0.087838896 0.48609516 -0.4101219 0.07870055 -0.005277671 0.56604606 -0.5291917 0.4464401
-0.50735784 -0.41899058 -0.44033366 -12.473017 0.4550453 -15.514224 -0.5001989 0.107278205
-1.0717208 0.49677166 -23.879232 -23.860603 -0.07195837 -0.41534534 0.095740296 -0.46475947
0.43393227 0.54104656 -0.4958246 -0.08226313 -1.044152 0.40588576 0.4030129 0.024277963
-0.03713409 0.43376806 -0.045137588 -0.025646552 4.221942 -0.085855484 -0.8985989 0.024309136
-0.09875942 -0.9473432 -0.42817885 -1.0691525 -7.411779 -0.08444172 0.49930444 0.39747205
-0.9538416 0.028112717 -0.5316409 -0.98338854 1.4523765 0.57216156 0.07367224 0.37999853
-26.837587 -0.042166125 0.50596046 -1.0029049 0.08247524 0.07194472 -0.3547632 -31.567677
0.49520358 -0.0062003285 -0.90936536 -0.44945282 -1.7129425 -5.2565236 -0.9586977 -0.59528446
-1.5744013 -0.5301043 -7.4705815 -19.635595 -0.077056885 -0.47802764 0.61822903 0.06691853
0.0005471483 0.44058314 -0.8743613 -0.5985601 0.52228945 -0.65014803 0.08987817 -19.265757
0.47063813 0.01992949 -0.42145833 -0.09650047 -0.54483396 0.37571558 -0.5117324 -0.93151265
-0.08261388 -0.49246705 -0.08263765 -0.44051993 -0.52665615 0.5191488 -0.50126654 -0.8798682
-0.5681134 0.43582472 -0.5878337 0.13132022 0.001639694 0.5609448 -0.49077436 -0.1077469
-0.9541305 -0.053439494 -0.5689423 -0.050654426 -0.008926472 -0.875302 -0.4817292 -0.9216805
-0.06155011 -0.09818391 0.5624063 -0.55444366 -0.9102509 -0.081130624 -0.38740468 -0.6680297
-0.06830358 0.4251762 0.025723547 0.42424285 0.14199774 0.115948856 0.4588167 -1.0077641
0.062156565 -0.9189341 -0.9187317 -0.951166 0.39390066 -0.061758447 -0.8694473 -0.51943904
-0.9552461 0.025776675 -0.5688722 -0.47204122 -0.0068325694 -0.39647302 -0.9009515 -0.091180354
0.09805224 -0.3773537 -0.44232398 0.034452073 0.048390068 0.47433335 -0.9843676 -0.59023046
0.5128605 -0.56571984 -0.9757083 -0.93011284 -0.027541399 0.033654325 0.108804725 -0.030385852
0.09295183 -0.029553227 3.4519756 0.5125387 0.44130033 0.031214364 -0.08978449 -0.09599036
-0.10222669 -0.015951008 -0.06745961 -0.029839918 0.048311286 -0.09884782 -0.0142156035 -0.48832938
0.09143146 0.057945482 -0.09362802 -0.029463403 -4.884924 -0.48392487 0.0735781 0.057870664
00000000: 1708 c7be 247b e7c1 01e8 a63d eabe 8fbd
00000010: 6f5e e3be 13a3 0dbf 8889 eabf 1969 bbbf
00000020: 7794 ddbe 0865 5c3c 3d70 873d 32da 16bf
00000030: 557a 18bf 6de6 163f a341 cc3e 7a42 fbbe
00000040: 0c0a cdbe f7b7 cdbe 52ae c7be 8125 0dbf
00000050: 38f9 9fbd 7776 ccbe 5076 0bbf 9c5e dd3c
00000060: 5426 3140 f3de 05bf 8e71 02bf 9f9a dd3d
00000070: 88a5 14bf 729b 8a3f 44de ecbe d51b 8abf
00000080: a305 cabf 9d0c 7abf f7f1 eebe 2f36 05bf
00000090: 7d6d 81bf 70b0 ce3b f829 10bf 08f5 033f
000000a0: 33c6 1c3d ea74 c1be 59cd eebe aaab acbd
000000b0: 746a cd3e cd78 893d 4ebc e53e f52a 1b40
000000c0: c301 e93d 87bb 0fbf 1b46 3ebf bc68 e9c1
000000d0: 2c1a 12bf 0016 a1b9 06a4 cebe df71 13bf
000000e0: af08 7240 8818 0cc2 bdb0 02bf 0c37 003f
000000f0: d273 bcbf 3af8 313d ef64 9fbf 3c9b aac0
00000100: e1e4 b3bd 77e1 f83e 7ffb d1be c12d a13d
00000110: 50f0 acbb 65e8 103f 1b79 07bf cc93 e43e
00000120: 34e2 01bf ef85 d6be 6a73 e1be 7a91 47c1
00000130: b3fb e83e 433a 78c1 090d 00bf adb4 db3d
00000140: 262e 89bf db58 fe3e ab08 bfc1 84e2 bec1
00000150: e95e 93bd 25a8 d4be 7d13 c43d f4f4 edbe
00000160: 5f2c de3e 0782 0a3f b9dc fdbe 9279 a8bd
00000170: c6a6 85bf 42d0 cf3e b557 ce3e 94e2 c63c
00000180: ea19 18bd d916 de3e 31e2 38bd b818 d2bc
00000190: 261a 8740 00d5 afbd 940a 66bf f423 c73c
000001a0: 6142 cabd 1585 72bf 423a dbbe fdd9 88bf
000001b0: 4b2d edc0 c8ef acbd d5a4 ff3e 7581 cb3e
000001c0: f72e 74bf a44c e63c 9e19 08bf 5abf 7bbf
000001d0: 79e7 b93f 2e79 123f 79e1 963d 2b8f c23e
000001e0: 61b3 d6c1 63b6 2cbd a086 013f 305f 80bf
000001f0: c7e8 a83d c157 933d 86a3 b5be 9a8a fcc1
00000200: 538b fd3e 202c cbbb 2bcc 68bf ae1e e6be
00000210: b341 dbbf 7135 a8c0 366d 75bf 9064 18bf
00000220: fb85 c9bf eab4 07bf 010f efc0 b315 9dc1
00000230: 00d0 9dbd 0ac0 f4be 4244 1e3f 950c 893d
00000240: 806e 0f3a 1d94 e13e 24d6 5fbf 3c3b 19bf
00000250: c3b4 053f 1a70 26bf 0c12 b83d 4520 9ac1
00000260: 7bf7 f03e 2b43 a33c 63c9 d7be 0aa2 c5bd
00000270: 3d7a 0bbf cb5d c03e e500 03bf 9d77 6ebf
00000280: 7731 a9bd a424 fcbe ee3d a9bd d48b e1be
00000290: f0d2 06bf f0e6 043f 0153 00bf 0b3f 61bf
000002a0: e16f 11bf 6b24 df3e 457c 16bf cf78 063e
000002b0: 00eb d63a 149a 0f3f c746 fbbe 68aa dcbd
000002c0: e541 74bf 5fe3 5abd 34a6 11bf 047b 4fbd
000002d0: 5640 12bc cb13 60bf 36a5 f6be 41f3 6bbf
000002e0: f81b 7cbd a514 c9bd dcf9 0f3f 05f0 0dbf
000002f0: 3406 69bf d027 a6bd e859 c6be ff03 2bbf
00000300: bfe2 8bbd b2b0 d93e 30ba d23c 5c36 d93e
00000310: db67 113e 9876 ed3d 06ea ea3e 6afe 80bf
00000320: e297 7e3d 443f 6bbf 0032 6bbf 9d7f 73bf
00000330: 59ad c93e 6df6 7cbd 1994 5ebf f5f9 04bf
00000340: 028b 74bf 9b29 d33c 9ca1 11bf 63af f1be
00000350: bfe3 dfbb 83fe cabe c2a4 66bf c4bc babd
00000360: 9dcf c83d 8134 c1be 4a78 e2be 9e1d 0d3d
00000370: aa34 463d d2db f23e 84ff 7bbf 5819 17bf
00000380: d34a 033f 04d3 10bf 05c8 79bf e01b 6ebf
00000390: 809e e1bc 1ed9 093d 03d5 de3d c0eb f8bc
000003a0: 875d be3d 9c19 f2bc 2bed 5c40 bc35 033f
000003b0: 1ef2 e13e 44b5 ff3c eee0 b7bd 9896 c4bd
000003c0: 3a5c d1bd b0ab 82bc 4428 8abd d872 f4bc
000003d0: 0ee2 453d ba70 cabd 90e8 68bc 4f06 fabe
000003e0: 6b40 bb3d 3e58 6d3d 0cc0 bfbd 3c5d f1bc
000003f0: 4c51 9cc0 00c5 f7be 1db0 963d ca09 6d3d

2.bias f4 [76]
14.802486 9.972216 -1.0026417 10.804015 2.1605098 -2.063283 -0.87011254 12.3074
-0.53800523 0.9403396 -1.510133 4.5753083 -9.744837 4.081826 3.9759562 7.2125154
-0.2891613 4.0325823 3.5049014 -5.099781 15.730566 6.3210216 0.31403366 -6.4420896
6.703688 -0.59322804 2.8800123 10.641386 -0.64866614 -1.3755358 18.002506 -0.9188785
0.20472775 10.446969 -7.881781 -4.336078 6.5796533 3.2733326 -1.4614052 -0.1505261
-0.610856 9.392506 6.8502407 6.492737 4.1240106 -2.9576082 15.218405 15.156823
-0.022164071 -0.96822804 -1.5427177 -6.0213923 -26.71809 -0.035922028 -1.8252463 -1.3786116
9.728157 -1.2577591 3.9191139 15.967488 -10.449576 -1.0247416 -0.5125329 -1.2109401
-3.671767 8.166857 -1.5218219 -0.5679792 -1.5683876 -0.83065796 -1.6336248 8.812908
12.716613 7.890344 -0.5403538 5.829432
00000000: fcd6 6c41 328e 1f41 9056 80bf 3fdd 2c41
00000010: cb45 0a40 d40c 04c0 b2bf 5ebf 1ceb 4441
00000020: b6ba 09bf 19ba 703f 0a4c c1bf ed68 9240
00000030: daea 1bc1 529e 8240 1176 7e40 edcc e640
00000040: f30c 94be ea0a 8140 4e50 6040 6831 a3c0
00000050: 66b0 7b41 cf45 ca40 05c9 a03e 9925 cec0
00000060: 9d84 d640 cbdd 17bf 1f52 3840 1e43 2a41
00000070: fc0e 26bf 8f11 b0bf 2205 9041 9f3b 6bbf
00000080: 27a4 513e c926 2741 8d37 fcc0 27c1 8ac0
00000090: 858c d240 487e 5140 530f bbbf 8423 1abe
000000a0: 0f61 1cbf b447 1641 2c35 db40 80c4 cf40
000000b0: e5f7 8340 7449 3dc0 967e 7341 5982 7241
000000c0: 6d91 b5bc cbdd 77bf c677 c5bf 3faf c0c0
000000d0: a6be d5c1 fa22 13bd aca1 e9bf 5876 b0bf
000000e0: 88a6 1b41 40fe a0bf c3d2 7a40 d57a 7f41
000000f0: 7731 27c1 bc2a 83bf 5b35 03bf 1600 9bbf
00000100: 3bfe 6ac0 72ab 0241 0fcb c2bf 1667 11bf
00000110: edc0 c8bf 00a6 54bf 9e1a d1bf ac01 0d41
00000120: 3f77 4b41 b37d fc40 a054 0abf b58a ba40

4.weight f4 [3, 76]
1.9293439 -2.2188447 0.38606817 1.4510304 -1.9212819 -0.03990348 -0.02838583 -2.0049222
0.43649405 -1.4121197 -2.0216851 6.1610446 0.8315324 0.267815 0.7003399 1.116444
0.8782796 -0.9288455 0.13526179 0.86819476 -1.1590561 -1.6518227 -0.4996036 0.6638111
-0.34966177 0.48161477 -0.73837775 3.428863 0.45553803 0.54964924 -1.4876574 -1.0665337
3.4304929 5.419714 -0.34563437 -0.8475123 -1.8310783 1.6890078 -0.55274355 -0.062331714
-0.44806108 0.9853745 -0.07436634 -1.42983 0.7299444 -0.77702695 0.31917924 -2.679368
1.3199898 -1.0204706 0.5429514 -1.2484899 1.4019821 0.062193178 1.7372278 0.453477
-3.728397 -0.030347062 2.7419167 2.011898 -0.8629198 0.0055546276 -0.38054797 -0.68883026
-0.1860172 1.2830094 0.6418374 -0.40580162 1.1463743 -0.0879456 -0.33023798 1.6849031
1.2222463 -0.76627225 -0.46497235 1.2274467 -3.5114577 -5.4611344 0.4605878 -0.48081708
-1.0315218 -0.17055884 0.040619157 -0.6957355 -0.73803777 2.2567465 0.7133819 -4.798462
-1.3193825 -4.109949 -3.0293467 -2.4811952 4.0513053 -1.429629 1.3949342 2.3363469
7.7528944 -0.7967674 -4.0895605 1.210042 -2.4561837 -0.47651675 4.321179 -0.2404483
0.40830716 0.5527343 2.1100173 0.11467022 -1.4916102 -4.6561904 -4.2889037 1.056968
1.0253885 0.36141294 0.5187545 0.20653673 -0.39244756 -2.241586 -4.0909657 -1.6503016
2.4129143 -1.9502381 4.0683665 2.141608 1.0585191 0.07889832 -0.11241135 -0.01120568
-1.7182981 0.021928605 -0.37946692 0.50962365 -0.95892745 0.7319749 2.3926606 -0.9407661
1.4444358 -0.086335175 -0.44716713 0.5634187 1.2049025 0.46288306 0.11673777 0.433979
-1.6358373 -0.14690346 -0.09608735 0.74482816 -5.943442 1.1100545 0.41578794 0.010323294
0.14217101 0.116631106 0.39562353 -0.2801684 0.09096589 -0.73918325 1.0807787 0.0056766565
0.77306867 0.096925594 0.25118536 -0.44042858 0.20499669 -0.09825549 0.28717718 0.03243242
-1.4366033 0.28605026 0.087046266 -0.06456933 0.00094263337 0.07002649 0.8125274 -0.0063919006
0.039714012 0.43657368 0.14938077 0.057381265 -0.3911987 -0.49939728 -0.08197812 -0.040686864
1.0324129 -0.6314537 0.5906012 0.24326602 -0.06678957 -0.036974825 -0.5060098 0.07403923
0.5719863 0.018813755 0.057025313 -0.09314517 -0.076954395 -0.047310222 0.06583384 0.08939915
0.45465422 -0.037649203 0.08436737 -0.47248602 0.08200755 0.030540187 -0.17584604 -0.56261545
0.10049358 -0.16365097 0.4538095 -0.11231593 -0.025811477 0.06503647 -0.058720905 0.10251011
0.3552306 0.14187449 0.39511037 0.4889155 0.55131215 -0.41166618 0.99758595 0.02381367
0.8998595 0.78467536 0.3900214 -0.0011496069
00000000: bef4 f63f 8d01 0ec0 baaa c53e 5dbb b93f
00000010: 91ec f5bf d571 23bd 6689 e8bc a550 00c0
00000020: 267c df3e 57c0 b4bf 4a63 01c0 4727 c540
00000030: 4fdf 543f 0c1f 893e 7a49 333f a3e7 8e3f
00000040: efd6 603f d2c8 6dbf 1182 0a3e 0342 5e3f
00000050: f35b 94bf ed6e d3bf 0bcc ffbe 86ef 293f
00000060: de06 b3be 3696 f63e 5306 3dbf 7e72 5b40
00000070: 483c e93e d0b5 0c3f 8f6b bebf 2d84 88bf
00000080: 328d 5b40 4c6e ad40 fdf6 b0be 91f6 58bf
00000090: c660 eabf 6831 d83f 9a80 0dbf 8a4f 7fbd
000000a0: 4368 e5be 8141 7c3f 614d 98bd ab04 b7bf
000000b0: a3dd 3a3f 3deb 46bf 766b a33e c47a 2bc0
000000c0: 6df5 a83f c89e 82bf ddfe 0a3f 84ce 9fbf
000000d0: 2674 b33f 46be 7e3d 7b5d de3f 232e e83e
000000e0: 0e9e 6ec0 679a f8bc 907b 2f40 f0c2 0040
000000f0: 50e8 5cbf 9803 b63b 2fd7 c2be 2e57 30bf
00000100: 4b7b 3ebe a739 a43f 754f 243f 3bc5 cfbe
00000110: 65bc 923f d31c b4bd f414 a9be e8aa d73f
00000120: 9172 9c3f 6b2a 44bf db10 eebe f91c 9d3f
00000130: b9bb 60c0 9dc1 aec0 2ad2 eb3e a82d f6be
00000140: e808 84bf faa6 2ebe 4660 263d b91b 32bf
00000150: 0bf0 3cbf 896e 1040 32a0 363f 008d 99c0
00000160: 87e1 a8bf b484 83c0 d1e0 41c0 e7cb 1ec0
00000170: 4ba4 8140 15fe b6bf 348d b23f b586 1540
00000180: b617 f840 f3f8 4bbf aedd 82c0 a8e2 9a3f
00000190: 1d32 1dc0 01fa f3be 1947 8a40 1438 76be
000001a0: a30d d13e ff7f 0d3f 860a 0740 38d8 ea3d
000001b0: 15ed bebf 83ff 94c0 b33e 89c0 ba4a 873f
000001c0: ee3f 833f 1e0b b93e 18cd 043f 5d7e 533e
000001d0: e3ee c8be 2576 0fc0 31e9 82c0 153d d3bf
000001e0: 306d 1a40 67a1 f9bf 0f30 8240 1b10 0940
000001f0: 8e7d 873f 7195 a13d ec37 e6bd 0798 37bc
00000200: 31f1 dbbf 9ea3 b33c 7d49 c2be b276 023f
00000210: 457c 75bf b562 3b3f 5a21 1940 0cd6 70bf
00000220: 46e3 b83f 7fd0 b0bd 17f3 e4be 353c 103f
00000230: 3f3a 9a3f 02ff ec3e 3614 ef3d 7f32 de3e
00000240: 1e63 d1bf dc6d 16be 72c9 c4bd 0fad 3e3f
00000250: ad30 bec0 4416 8e3f 28e2 d43e 0923 293c
00000260: 4795 113e 4adc ee3d 2b8f ca3e 3c72 8fbe
00000270: 534c ba3d 1d3b 3dbf f556 8a3f 3f03 ba3b
00000280: d4e7 453f ed80 c63d 5e9b 803e db7f e1be
00000290: a7ea 513e 2d3a c9bd e308 933e dbd7 043d
000002a0: 9ee2 b7bf 2e75 923e 5045 b23d ed3c 84bd
000002b0: 0e1b 773a 0c6a 8f3d cc01 503f 2673 d1bb
000002c0: 29ab 223d 9686 df3e 46f7 183e 9e08 6b3d
000002d0: 324b c8be 00b1 ffbe 25e4 a7bd 45a7 26bd
000002e0: 1b26 843f f3a6 21bf a431 173f ba1a 793e
000002f0: f8c8 88bd ea72 17bd dc89 01bf e1a1 973d
00000300: b26d 123f 4e1f 9a3c 6093 693d e5c2 bebd
00000310: 449a 9dbd 5dc8 41bd e4d3 863d e716 b73d
00000320: 70c8 e83e 0d36 1abd cdc8 ac3d b0e9 f1be
00000330: 93f3 a73d 6a2f fa3c fc10 34be 9107 10bf
00000340: 94cf cd3d 1f94 27be b859 e83e e505 e6bd
00000350: 9772 d3bc d731 853d 5585 70bd d2f0 d13d
00000360: c9e0 b53e 8c47 113e e84b ca3e 2253 fa3e
00000370: cb22 0d3f e9c5 d2be cb61 7f3f e314 c33c
00000380: 315d 663f 7ce0 483f e3b0 c73e 68ae 96ba

4.bias f4 [3]
-4.9646897 4.259208 8.115196
00000000: bdde 9ec0 6f4b 8840 d8d7 0141
