data/models/model_demonstrator_24_10_2024_11-25-06.pth (torch, 77428 bytes, 8 tensors)

0.weight f4 [128, 8]
0	0x3f5c41d7	0.86037964
1	0x3e19eb28	0.15031111
2	0xbf87c30e	-1.0606401
3	0x3f2bff09	0.6718603
4	0x3f7116ef	0.9417562
5	0x3f3c063b	0.73447007
6	0xbe41f53e	-0.18941209
7	0x3ed67392	0.41885048
8	0xbe8b925b	-0.27260098
9	0x3f57c02b	0.842776
10	0x3f9f4816	1.2443874
11	0xbee120c9	-0.43970326
12	0xbf97812c	-1.1836295
13	0x3ee1a7fc	0.44073474
14	0x3dc3f22e	0.095676765
15	0x3f393d05	0.72358733
16	0x3ac8ed38	0.0015329486
17	0x3f9b23e7	1.2120332
18	0xbdcaef2d	-0.099089004
19	0xbd40fdab	-0.047116917
20	0xbd273e84	-0.040831104
21	0xbf7cd253	-0.9875843
22	0xbfb91105	-1.4458319
23	0x3dc5e67d	0.09663103
24	0xbeba7f64	-0.36425316
25	0x3f441715	0.7659772
26	0xbf0f763c	-0.56039786
27	0xbf66e36a	-0.90190756
28	0x3f45d98b	0.7728507
29	0x3f4b4de1	0.7941571
30	0xbf2540b6	-0.64551866
31	0xba4a5339	-0.00077180896
32	0x3dbd8c92	0.09255327
33	0x3f91bfbe	1.138664
34	0xbfd1e47a	-1.639785
35	0xbe91f526	-0.28507346
36	0xbf5fe0b2	-0.8745223
37	0xbd098c3b	-0.033581
38	0xbfb488a8	-1.4104204
39	0x401a0b2f	2.4069326
40	0xbb1ca5bd	-0.0023902499
41	0x3f67d250	0.90555286
42	0xbfe42ae8	-1.7825594
43	0xbea358ef	-0.31903788
44	0x3f046b12	0.51725876
45	0xbed5135b	-0.4161633
46	0x3de4d572	0.11173524
47	0x3f2354dd	0.63801366
48	0x3f340bae	0.7033032
49	0x3f1c87ba	0.611446
50	0xbf19871c	-0.59971786
51	0xbf6ca457	-0.9243826
52	0xbf0646b6	-0.52451646
53	0x3eb35e1f	0.35032746
54	0xb9860b5b	-0.00025566932
55	0x3e8d02dc	0.27541244
56	0x3f0d5bf9	0.55218464
57	0x3f8976f0	1.0739422
58	0x3f4d0290	0.80082035
59	0x3d065853	0.032799076
60	0xbed3f3ec	-0.41397035
61	0x3ed9de52	0.4255243
62	0xbe346714	-0.17617446
63	0x3dbe4412	0.09290327
64	0x3e1483a6	0.14503345
65	0xbee53ada	-0.44771463
66	0x3f535afc	0.82560706
67	0x3e81007a	0.25195676
68	0xbf96366d	-1.173536
69	0x3dcf709f	0.10128903
70	0x3f9d21bb	1.2275919
71	0x3dac33dd	0.0840833
72	0xbf4324ad	-0.7622784
73	0x3e16a876	0.147127
74	0xbeb41199	-0.35169676
75	0x3e86c6e7	0.26323625
76	0x3f985e2c	1.1903739
77	0xbe4d0e7e	-0.2002506
78	0xbf4c97a1	-0.7991887
79	0xbe9b4ae8	-0.30330586
80	0xbf2ae079	-0.6674877
81	0x3fe06c1e	1.7532995
82	0xbf115d15	-0.56782657
83	0x3f883380	1.0640717
84	0xbe97fe63	-0.2968627
85	0x3edaa509	0.42704037
86	0xbf12169a	-0.5706574
87	0xbf1271e6	-0.57205045
88	0xbd8d3170	-0.06894195
89	0x3e974903	0.2954789
90	0xbeaa1341	-0.33217815
91	0xbe944c11	-0.28964284
92	0xbe224f4e	-0.15850565
93	0xbe72a86f	-0.23697065
94	0x3eb030d3	0.3441225
95	0x3db0826c	0.08618626
96	0xbe856b1c	-0.2605828
97	0x3fb75542	1.4322894
98	0x3e4ee2bf	0.20203684
99	0xbf18e95c	-0.5973108
100	0xbeae5a7c	-0.3405341
101	0x3eebb238	0.46034408
102	0x3e4cc2cb	0.19996183
103	0x3f367b9e	0.71282375
104	0xbf2ffe85	-0.6874774
105	0xbe50b246	-0.20380506
106	0x3e865ef8	0.2624433
107	0x3efc5f85	0.49291626
108	0x3f7e3b1e	0.99308956
109	0x3e349ede	0.17638728
110	0x3dc443b3	0.09583225
111	0x3f7674ff	0.9627227
112	0x3eed0bb4	0.4629799
113	0xbead1a7a	-0.33809263
114	0x3f276527	0.6538872
115	0xbf6b6a9d	-0.91959554
116	0xbf993e30	-1.1972103
117	0xbe402e84	-0.18767744
118	0x3f91f934	1.1404176
119	0x3f7a9d95	0.978967
120	0xbec33226	-0.38124198
121	0xbf65634a	-0.8960463
122	0xbc9ed5b1	-0.019389005
123	0xbe0353ef	-0.12824987
124	0x3fae5d44	1.3622212
125	0xbea38a1e	-0.31941313
126	0xbf76f536	-0.9646791
127	0x3dcf5298	0.101231754
128	0xbe79ecdb	-0.2440676
129	0x3e1c8f36	0.15289006
130	0x3cbae600	0.02281475
131	0x3e3b034a	0.18262973
132	0xbea7c8f4	-0.32770503
133	0x3dae1a50	0.085011125
134	0x3d105060	0.0352329
135	0x3d108378	0.03528163
136	0xbc1526be	-0.009103475
137	0x3bdd8347	0.0067600342
138	0xbe916a6b	-0.28401503
139	0x3f053cff	0.520462
140	0x3f4bd8e2	0.7962781
141	0xbeca19b1	-0.39472726
142	0x3f1535ee	0.58285415
143	0x3e994256	0.29933423
144	0xbe65aab6	-0.22428402
145	0x39cc2400	0.00038936734
146	0xbda4145c	-0.08011696
147	0xbe93177b	-0.28728852
148	0xbe6bef4b	-0.23040502
149	0xbe58fc13	-0.21189909
150	0xbe8e0ed2	-0.27745682
151	0x3e219e56	0.15783057
152	0xbcad83c4	-0.021180995
153	0x3f402710	0.75059605
154	0x3f4e79e5	0.80654746
155	0x3ed1230e	0.40847057
156	0xbf0e2643	-0.5552713
157	0xbaab306d	-0.0013060697
158	0x3f1b1588	0.6057973
159	0x3ef6b7e5	0.48187175
160	0x3eeb2759	0.45928457
161	0xbed501d2	-0.4160295
162	0xbe90a411	-0.28250173
163	0xbe593ffc	-0.21215814
164	0x3f7933c0	0.9734459
165	0xbd6c3f69	-0.05767766
166	0xbf6e1969	-0.9300752
167	0xbdef29b8	-0.11677879
168	0x3eda82e2	0.4267798
169	0x3f4ca3a3	0.7993719
170	0xbf255ccb	-0.64594716
171	0xbf16cede	-0.58909404
172	0x3f8859c2	1.0652392
173	0xbeea591c	-0.4577111
174	0x3e0ae257	0.13562904
175	0xbedb1271	-0.42787507
176	0x3ed55df6	0.4167325
177	0x3f04bc7c	0.51850104
178	0xbe7e3ae3	-0.24827151
179	0xbf37ca4f	-0.71793073
180	0x3e160636	0.14650807
181	0x3ddffc19	0.10936756
182	0x3e9c1de3	0.30491552
183	0xbd0e3aa8	-0.034723908
184	0x3f3e7194	0.74392056
185	0x3e8d3172	0.27576786
186	0x3ed78101	0.4209061
187	0x3f500c86	0.8126911
188	0xbed9f740	-0.4257145
189	0x3dabe911	0.08394063
190	0x3ed2db90	0.41183138
191	0x3ea40238	0.32032943
192	0xbdfa0bb1	-0.12209261
193	0x3f0dcddd	0.5539225
194	0x3e435184	0.19074064
195	0xbda4b249	-0.08041818
196	0x3f334249	0.7002302
197	0x3ee231d2	0.44178635
198	0x3e3ae9c3	0.18253236
199	0x3f5ef0ec	0.8708637
200	0x3f139161	0.57643706
201	0x3ee67809	0.45013455
202	0x3f6f7368	0.9353547
203	0xbd8c45b3	-0.068492316
204	0xbf3b1d03	-0.73091143
205	0x3f0498f7	0.51795906
206	0xbec3d376	-0.3824727
207	0x3f31d9c5	0.69472915
208	0x3ea88005	0.3291017
209	0x3e0b5abc	0.13608831
210	0x3ece8cb5	0.40341726
211	0x3f459635	0.7718232
212	0xbeec9608	-0.46208215
213	0x3f3e16b1	0.74253374
214	0xbe48e36e	-0.19618008
215	0x3f149feb	0.58056515
216	0xbee7a134	-0.45240176
217	0xbd34aa0f	-0.044107493
218	0xbe8453c2	-0.25845152
219	0x3e3b07a3	0.18264632
220	0x3e96caca	0.2945159
221	0x3d40a9df	0.047037
222	0xbf2dcbe3	-0.6788923
223	0x3d8a8163	0.0676296
224	0xbe9f2111	-0.31079915
225	0x3f8805eb	1.0626806
226	0x3ea3dfdf	0.32006738
227	0x3f4da590	0.80330753
228	0xbf0d16ab	-0.55112714
229	0xbe3f58a3	-0.18686156
230	0x3e75ca68	0.24002993
231	0xbf7f2aa5	-0.99674445
232	0x3eddc472	0.43313938
233	0x3f329c18	0.6976943
234	0xbe3c12fd	-0.18366618
235	0xbf91b613	-1.138369
236	0xbe9ef039	-0.3104265
237	0x3f3b5b89	0.73186547
238	0x3f81286d	1.0090462
239	0x3eb7c769	0.35894325
240	0x3e8466f7	0.25859806
241	0xbe7bda12	-0.24594906
242	0xbfaccabf	-1.3499373
243	0x3f2f3adc	0.6844919
244	0x3f6139b1	0.87978655
245	0x3d3297ae	0.043601684
246	0x40064d9c	2.098487
247	0x3ef0c06d	0.4702181
248	0xbed3b936	-0.41352242
249	0xbde43f66	-0.11144905
250	0x3f8d993c	1.1062388
251	0xbda2505e	-0.07925485
252	0xbf9e6828	-1.2375536
253	0x3ee24eb9	0.44200686
254	0x3f72da1d	0.94864064
255	0x3e70344e	0.23457453

0.bias f4 [128]
0	0x3e4711c4	0.19440371
1	0x3e9829ef	0.29719493
2	0x3fa93ee3	1.3222317
3	0x3f459008	0.771729
4	0x3f553271	0.8328009
5	0x3f6dc00a	0.92871153
6	0x3f448e8e	0.7678002
7	0x3f09c1f2	0.5381156
8	0x3ef416d3	0.47673663
9	0x3f5f5cb1	0.8725081
10	0x3eebdcd6	0.46066922
11	0xbeb1e408	-0.34744287
12	0x3f028546	0.5098461
13	0x3f98dbe5	1.1942106
14	0x3f0956f7	0.5364832
15	0x3f59c09c	0.85059524
16	0xbea59c9f	-0.32346055
17	0x3f00a3b4	0.5024979
18	0xbe9b6ac0	-0.3035488
19	0xbe9ab590	-0.30216646
20	0x3f5a900f	0.85376066
21	0x3f63df47	0.8901257
22	0x3f4666bd	0.77500516
23	0x3f19ef04	0.60130334
24	0x3f859bf2	1.0438216
25	0xbd2fa169	-0.042878542
26	0xbd0d342b	-0.03447358
27	0x3f8662c3	1.049889
28	0x3eecaea9	0.46227005
29	0x3e8e7dd5	0.27830377
30	0x3edb1d8d	0.42795983
31	0x3ed716a3	0.42009458
32	0x3f67c2c5	0.9053157
33	0xbe2a5ddf	-0.16637371
34	0x3f96572e	1.1745355
35	0x3f8e13b3	1.1099762
36	0x3ed04e63	0.40684804
37	0x3f2ac922	0.66713154
38	0x3e3ba59d	0.18324895
39	0xbe5208bb	-0.20511143
40	0x3fc39e56	1.5282695
41	0x3f312103	0.69190997
42	0x3d20b799	0.039237592
43	0x3ba87180	0.0051404834
44	0x3f59f7f5	0.8514398
45	0x3e904475	0.2817723
46	0xbe2f562a	-0.17122713
47	0x3f086fb8	0.5329547
48	0x3f483274	0.78201985
49	0x3f4bd9e2	0.7962934
50	0x3f0b2a67	0.54361576
51	0x3de1b7ce	0.11021386
52	0x3f142889	0.5787435
53	0x3f74d712	0.9564067
54	0xbe18bd64	-0.14915997
55	0x3f56afa7	0.83861774
56	0xbef71b18	-0.48262858
57	0x3f5149eb	0.81753415
58	0x3facd7af	1.3503321
59	0x3f01c19c	0.5068605
60	0x3f1a795a	0.6034142
61	0x3f5afe39	0.85544163
62	0x3e7b0ddb	0.24517004
63	0x3f1def61	0.6169339
64	0x3f59accb	0.85029286
65	0xbea1c0b0	-0.3159232
66	0x3eb9f805	0.36322036
67	0xbe4c788e	-0.19967863
68	0x3fa3bcb3	1.2791961
69	0x3f50ff2c	0.8163936
70	0x3e1b5b0f	0.15171455
71	0x3f3246ef	0.69639486
72	0x3f00137a	0.5002972
73	0x3eb0c0f0	0.345222
74	0xbe021988	-0.12705052
75	0xbe201eba	-0.15636721
76	0xbe30031c	-0.17188686
77	0x3f6bd3c3	0.9212
78	0x3e9b0926	0.30280417
79	0xbe2bc97a	-0.16776076
80	0x3f748a04	0.95523095
81	0x3f853603	1.0407108
82	0x3eb0d159	0.3453472
83	0x3f433483	0.76252
84	0x3efa35d9	0.48869208
85	0x3e615784	0.22006041
86	0x3f48a2fe	0.78373706
87	0xbd9b8ab4	-0.07594815
88	0x3e77ff2d	0.24218436
89	0xbd91f288	-0.07126337
90	0x3db024b1	0.08600748
91	0x3f5311e9	0.82449204
92	0x3f280499	0.65632015
93	0xbe88d924	-0.26728165
94	0x3eb20149	0.34766605
95	0x3f07206a	0.52783835
96	0x3ea030f6	0.31287354
97	0x3e47e74a	0.19521824
98	0xbe292f2a	-0.16521898
99	0x3ea5713d	0.32312956
100	0x3f0e1294	0.554971
101	0x3ed5f77d	0.4179038
102	0x3e5c9b30	0.21543574
103	0xbe0e3217	-0.13886295
104	0x3e88f9bd	0.26753035
105	0x3f9097a5	1.1296278
106	0x3f9d18d7	1.2273206
107	0x3f33a355	0.701711
108	0x3f3f48d1	0.74720484
109	0x3f49afa0	0.7878361
110	0x3c8bb0c7	0.017052067
111	0xbe4a3fb2	-0.1975086
112	0x3f37ee43	0.71847934
113	0x3eb164be	0.34647173
114	0x3eb802bc	0.35939586
115	0xbe48f35e	-0.19624087
116	0xbe83b5df	-0.25724694
117	0xbeaad199	-0.33363035
118	0x3f0469f2	0.5172416
119	0xbf16b2ed	-0.5886677
120	0x3f852480	1.0401764
121	0x3f571354	0.8401387
122	0x3f05fb2d	0.5233639
123	0x3e72feab	0.2372996
124	0x3f37d310	0.7180643
125	0xbea6bc69	-0.3256562
126	0x3f010f2c	0.50413775
127	0x3eeb5a5e	0.45967382

2.weight f4 [128, 128]
0	0xbf302edf	-0.6882152
1	0x3e539617	0.20662723
2	0x3f978311	1.1836873
3	0x3f261354	0.6487324
4	0x4021451c	2.519843
5	0x40054347	2.0822313
6	0x3f7748b0	0.9659529
7	0x3ee6f499	0.45108488
8	0x3eab0439	0.3340166
9	0xbef3939e	-0.4757356
10	0x3ef80e1b	0.48448262
11	0xbd3ed903	-0.046593677
12	0x3fb47068	1.4096804
13	0xbf803006	-1.0014656
14	0x3f701ffa	0.9379879
15	0xbeaa0606	-0.3320772
16	0x3d3e630a	0.04648117
17	0xbeb1cb73	-0.34725532
18	0xbd6c117a	-0.057633854
19	0x3f79c7df	0.97570604
20	0xbf6133e5	-0.8796981
21	0x3ec0e7dc	0.37676895
22	0x3f2bf217	0.67166275
23	0x3c28dd98	0.010306738
24	0x3e7473c3	0.23872285
25	0x3e0448f4	0.12918454
26	0xbcd7fddb	-0.026366165
27	0x3eec8b2c	0.4619993
28	0x3f5a9b55	0.8539327
29	0x3f289f15	0.6586774
30	0xbf1bf37f	-0.6091842
31	0x3d2cfeba	0.042235114
32	0x3dc277c1	0.094954975
33	0xbde0347b	-0.1094751
34	0x4003b743	2.0580604
35	0xbec0ad94	-0.3763243
36	0xbd4ef22f	-0.050523933
37	0x3f3f37eb	0.746947
38	0x3eb46941	0.35236552
39	0x3bdd5a60	0.0067551583
40	0x3eb47390	0.35244417
41	0x3e7b34a2	0.24531797
42	0x3f03f676	0.51547945
43	0x3db29a0d	0.08720789
44	0x40054aad	2.0826828
45	0x3eeec646	0.46635646
46	0xbd8a7d8b	-0.06762227
47	0x3f143a68	0.5790162
48	0xbe150553	-0.14552812
49	0x3f5f7ace	0.8729676
50	0xbe91415e	-0.28370184
51	0xbed42541	-0.41434672
52	0xbed40f3b	-0.4141787
53	0x3f28ed8e	0.6598748
54	0xbf0fe3e2	-0.56207097
55	0xbf663609	-0.899262
56	0x3f649577	0.89290565
57	0x3e71d5a8	0.2361666
58	0x3f065848	0.52478456
59	0x3ef9bdfb	0.48777756
60	0x3e29f4be	0.16597268
61	0xc01337e9	-2.3002875
62	0x3e882ff8	0.26599097
63	0x3d2ab7b8	0.041679114
64	0x400132c7	2.0187242
65	0x3ce3a784	0.027789839
66	0x3ecb57c4	0.39715397
67	0xbc92550d	-0.017862821
68	0x3f4066e5	0.75157005
69	0x3c18ccdd	0.009326187
70	0xbf8ab405	-1.0836188
71	0x3facf64c	1.3512664
72	0xbeace9ba	-0.3377207
73	0x3e465531	0.19368435
74	0xbea1b3a7	-0.31582376
75	0x3da1be1b	0.07897588
76	0x3f5c55ad	0.8606823
77	0xbecabf5e	-0.39599127
78	0xbeb382c6	-0.3506071
79	0xbd1a6679	-0.03769538
80	0x3e9597be	0.29217333
81	0x3df5e9bd	0.12007473
82	0x3e88886b	0.2666658
83	0x3def17a0	0.11674428
84	0xbf352830	-0.70764446
85	0x3fb20bd0	1.3909855
86	0x3fd37106	1.6518867
87	0x3db07cdd	0.08617566
88	0x3e60ebc7	0.21964942
89	0xbd2af876	-0.041740857
90	0x3eb68e1e	0.35655302
91	0x3e5f3834	0.21798784
92	0x3ed0c012	0.40771538
93	0x3d910ccb	0.07082518
94	0x3d17f0d0	0.03709489
95	0xbd0a7140	-0.03379941
96	0xbecde93c	-0.40217006
97	0x3cb19664	0.021678157
98	0x3d7c775d	0.06163727
99	0x3f577e43	0.84177035
100	0xbff9ab56	-1.9505413
101	0x3f383123	0.71949977
102	0xbf8aceb4	-1.0844331
103	0xbafcd140	-0.0019288436
104	0x3e48a38a	0.19593635
105	0xc02435bd	-2.56578
106	0x3f4c16c6	0.7972225
107	0xbe3552f0	-0.1770742
108	0xbe918325	-0.28420368
109	0x3f0d97c3	0.55309695
110	0x3f82bc98	1.0213804
111	0x3f2d81f0	0.67776394
112	0x3f10d42b	0.5657374
113	0x3f1fb356	0.6238302
114	0x3e958cb8	0.29208922
115	0xbda6ca16	-0.081440136
116	0xbd17139d	-0.03688394
117	0xbc8de8e8	-0.017322972
118	0xbef93af7	-0.486778
119	0xbe8f0015	-0.2792975
120	0xbf36cc07	-0.7140507
121	0xbce014d1	-0.027353676
122	0xbf226adb	-0.634443
123	0xbedffbba	-0.4374674
124	0x3eed7a7f	0.4638252
125	0x3c860b00	0.016362667
126	0x3da85769	0.08219797
127	0x3f03cc29	0.514834
128	0x3f39f666	0.726416
129	0xbc2bfb6a	-0.0104969535
130	0x3dd59eff	0.10430717
131	0x3efc5e0b	0.492905
132	0xbf0e3ca6	-0.5556129
133	0x3ec55b72	0.3854633
134	0x3e8d8ee8	0.2764809
135	0x3e1a3ae2	0.15061525
136	0x3f7ec677	0.99521583
137	0x3f6e1db2	0.9301406
138	0x3f95a86b	1.1692022
139	0xbd08775c	-0.033316955
140	0xbf7ff089	-0.999764
141	0xbf3deeeb	-0.74192685
142	0x3f9b8d1e	1.215244
143	0x3ef17aae	0.4716391
144	0x3d741882	0.059593685
145	0xbbe433a8	-0.0069641657
146	0xbd8011e8	-0.06253415
147	0x3ea79adb	0.32735333
148	0x3f72b12c	0.9480159
149	0x3e6f9e6b	0.23400275
150	0x3e0de3b5	0.13856395
151	0x3dc3293f	0.095293514
152	0xbf0d0be9	-0.550963
153	0x3d585c49	0.052822385
154	0xbe03e6c7	-0.12881003
155	0x3caedbf8	0.021345124
156	0x3ef92cee	0.4866709
157	0xbdff9488	-0.12479502
158	0x3e817300	0.2528305
159	0xbdb68888	-0.0891276
160	0x3ca63ae4	0.020291753
161	0xbf0bc043	-0.54590243
162	0xbf9bc3ad	-1.216909
163	0xbf515778	-0.8177409
164	0xbf423feb	-0.7587878
165	0x3f2f85f2	0.6856376
166	0x3e9c78e6	0.30560988
167	0x3db4cf7b	0.08828636
168	0xbf27ee55	-0.6559804
169	0x3ef505f8	0.47856116
170	0x3f185658	0.5950675
171	0x3d609056	0.05482515
172	0x3f257541	0.6463204
173	0xbeb2b15e	-0.34900945
174	0x3b780d00	0.0037849545
175	0x3f73a27f	0.95169824
176	0x3d93fb78	0.07225698
177	0x3ecef7e0	0.4042349
178	0x3ec987a0	0.39361286
179	0x3f06af49	0.52611214
180	0x3f2237f8	0.6336665
181	0x3f311dff	0.69186395
182	0xbf0486d2	-0.5176822
183	0xbeca7b29	-0.3954709
184	0xbec9e360	-0.39431286
185	0xbc0c4c51	-0.008563117
186	0xbf2b4772	-0.6690589
187	0xbeaffb36	-0.34371346
188	0x3ee3f2fe	0.44521326
189	0xbedfed73	-0.43735847
190	0xbcacba87	-0.021085037
191	0x3f7b0ece	0.98069465
192	0x3f801962	1.0007746
193	0x3c8201b8	0.01586996
194	0x3f909a65	1.1297117
195	0xbd3ef0ca	-0.046616353
196	0xbf068266	-0.5254272
197	0xbf52d431	-0.8235503
198	0x3ec49690	0.3839612
199	0x3f0da969	0.55336624
200	0x3ea9394c	0.33051527
201	0x3ea61b0a	0.32442504
202	0xbd4a21df	-0.04934871
203	0xbbf148b0	-0.0073634014
204	0x3e75e23a	0.2401208
205	0xbf0465cb	-0.51717824
206	0x3f285a6c	0.6576297
207	0x3d683e0a	0.05669979
208	0x3e7d78e0	0.24753141
209	0x3f74bea5	0.956034
210	0x3fa021d4	1.2510324
211	0xbe684520	-0.22682619
212	0xbdd86650	-0.105663896
213	0xbf430e71	-0.7619391
214	0x3f43afcb	0.76440114
215	0xbd39fa2c	-0.045404598
216	0x3ebceebe	0.36900896
217	0xbbf772b0	-0.0075515136
218	0x3e819df4	0.2531582
219	0x3dac4762	0.08412053
220	0xbf078b10	-0.5294657
221	0xbd1df8a1	-0.03856719
222	0x3edbc8bd	0.4292659
223	0x3f2f99cf	0.6859407
224	0x3eefc122	0.46827036
225	0xbd91f0c7	-0.07126003
226	0x3aa8e13b	0.0012884507
227	0x3ee32380	0.44363022
228	0xbf640e43	-0.8908426
229	0xbf4aaae6	-0.7916702
230	0xbed4e1dd	-0.4157857
231	0xbd846486	-0.06464486
232	0xbedc4998	-0.43024898
233	0xbf1438dd	-0.57899266
234	0x3f870298	1.0547667
235	0x3f062014	0.523927
236	0x3ef09fca	0.4699691
237	0x3e2d0796	0.16897425
238	0x3e2b64bd	0.16737647
239	0x3f554699	0.8331085
240	0x3e4c0dfd	0.19927211
241	0x3f52346f	0.8211126
242	0x3d5565dd	0.052099098
243	0xbdb0f348	-0.08640152
244	0xbd3a71f3	-0.045518827
245	0xbd009419	-0.031391237
246	0xbd9744b7	-0.07386153
247	0xbeb71fe6	-0.35766524
248	0xbe2af66b	-0.16695563
249	0x3dce834a	0.10083635
250	0x3f12fab8	0.57413816
251	0xbed9de2c	-0.42552316
252	0xbecda2eb	-0.4016336
253	0x3d4ee2a2	0.050509103
254	0x3ef38770	0.47564268
255	0x3f3e7315	0.7439435

2.bias f4 [128]
0	0xbc111faa	-0.008857647
1	0xbe08e348	-0.13367951
2	0x3ea9e8e7	0.33185503
3	0x3e032d00	0.12810135
4	0x3e0190f6	0.12652954
5	0x3ef2fafe	0.47457117
6	0x3ee6fa67	0.45112917
7	0xbdcb97e7	-0.099410824
8	0x3ddf5de0	0.10906577
9	0x3eeed935	0.4665009
10	0x3f20a7b8	0.6275592
11	0x3eb5ed3c	0.35532558
12	0x3b6ac8c4	0.0035825232
13	0x3db4d2ad	0.08829246
14	0x3e6aeddf	0.22942303
15	0x3f35146a	0.70734274
16	0xbda063e4	-0.078315526
17	0x3e7f7701	0.2494774
18	0xbdd03a54	-0.10167375
19	0xbcde8ce0	-0.027166784
20	0x3e07b806	0.13253793
21	0x3e111254	0.14167148
22	0x3d80b63f	0.06284761
23	0x3e8e97fc	0.2785033
24	0xbd5f9100	-0.054581642
25	0xbdafc204	-0.085819274
26	0x3aaacdd4	0.0013031312
27	0x3e937f44	0.28808033
28	0x3ed5c404	0.4175111
29	0x3f04d3c7	0.51885647
30	0x3f15902b	0.5842311
31	0x3d9ef269	0.0776108
32	0x3e8cf516	0.27530736
33	0xbdae01e3	-0.084964536
34	0x3d1883ce	0.037235074
35	0x3f190c79	0.59784657
36	0xbdb787ec	-0.08961472
37	0x3c9f844d	0.019472266
38	0x3f0ca13d	0.5493353
39	0x3e3e265b	0.18569319
40	0xbe7e270d	-0.24819584
41	0xbf525bcb	-0.82171315
42	0xbde0c25d	-0.10974572
43	0xbd39c454	-0.04535325
44	0xbd57d389	-0.05269197
45	0x3e1da87b	0.15396301
46	0x3d88f504	0.06687358
47	0xbc1fd837	-0.0097561395
48	0x3b960f8d	0.0045794905
49	0xbd6a8466	-0.05725517
50	0x3e9548a2	0.29156977
51	0x3ed4436c	0.4145769
52	0xbc822728	-0.015887812
53	0x3eee21bc	0.46510112
54	0xbd83adf8	-0.06429666
55	0x3dae85fe	0.08521651
56	0x3f0f2869	0.55921036
57	0x3e2d6e4b	0.16936605
58	0x3f03ae77	0.5143809
59	0x3e39fb9f	0.18162392
60	0x3ebcccb6	0.36874932
61	0x3f056287	0.52103466
62	0x3e93d9bc	0.28877056
63	0x3cf8b1bd	0.03035819
64	0x3ca6a6be	0.02034318
65	0x3f399b4c	0.7250259
66	0x3d37e9e1	0.04490078
67	0x3f06afb7	0.5261187
68	0x3ea1d5e7	0.31608507
69	0xbca10c5e	-0.019659217
70	0x3f57e675	0.84336025
71	0xbdc49a2c	-0.095997185
72	0x3e8c1a12	0.2736364
73	0x3ef9ee8a	0.48814803
74	0xbd49f097	-0.04930171
75	0x3e329c22	0.17442372
76	0xbd2a5e2d	-0.04159372
77	0x3edcfa7a	0.43159848
78	0xbed7aefb	-0.42125687
79	0x3e22bb7e	0.15891835
80	0xbe5c43e4	-0.21510273
81	0x3de2a041	0.11065722
82	0x3fa2338a	1.2671978
83	0x3f72f3b2	0.949031
84	0x3deb31c2	0.114841
85	0x3dabe25d	0.08392785
86	0x3ed96ba1	0.42464927
87	0x3dd649a4	0.104632646
88	0x3f0bb82c	0.545779
89	0x3eba3912	0.36371666
90	0xbd472f18	-0.048628896
91	0xbd0aff29	-0.033934746
92	0x3f66e7a7	0.90197223
93	0x3e3d6e85	0.18499191
94	0x3f2ae775	0.66759425
95	0x3e40e107	0.18835841
96	0x3f795e99	0.9740997
97	0xbe2ec000	-0.1706543
98	0x3ecce982	0.40021902
99	0x3ece2b0a	0.4026721
100	0xbcd3d144	-0.025856622
101	0x3f143050	0.5788622
102	0x3e47e453	0.19520693
103	0x3ee44005	0.44580093
104	0x3e496841	0.19668676
105	0xbdc1d759	-0.094649024
106	0x3f59297f	0.84828943
107	0x3be200a0	0.006897047
108	0x3b39a7a0	0.0028328672
109	0x3f0db9b2	0.55361474
110	0x3e14a369	0.14515461
111	0xbd494805	-0.04914095
112	0xbe2117a0	-0.15731668
113	0x3e7f43fe	0.2492828
114	0x3eb52f7f	0.353878
115	0x3ec8f992	0.39252907
116	0x3e8ab131	0.2708831
117	0x3eba5874	0.3639561
118	0xb9978da8	-0.00028906506
119	0xbdb0a480	-0.08625126
120	0x3ed6de89	0.41966656
121	0x3d30144a	0.0429881
122	0x3ef73ac5	0.48287025
123	0x3e4eb38b	0.20185678
124	0x3f00c8bc	0.50306296
125	0x3ea2b29a	0.31776887
126	0x3efbe3b9	0.49197176
127	0x3daa3e3f	0.08312654

4.weight f4 [6, 128]
0	0x3ee86424	0.453889
1	0xbf96edfc	-1.1791377
2	0x3f6dfa9c	0.92960525
3	0xbf472b48	-0.77800417
4	0xbf1b2945	-0.6060985
5	0x3f876b76	1.057967
6	0xbf0e2180	-0.55519867
7	0xbf10ffdb	-0.56640404
8	0x3e06d12d	0.13165732
9	0x3f295bc8	0.6615567
10	0xbee79638	-0.45231795
11	0x3f3129ac	0.6920421
12	0xbd966009	-0.07342536
13	0xbf4ad647	-0.7923321
14	0xbf45b07e	-0.7722243
15	0x3fb5649b	1.4171327
16	0x3bb13f20	0.0054091364
17	0xbf3777e5	-0.7166732
18	0xbf6e1f58	-0.93016577
19	0x3d9d32c5	0.07675699
20	0xbf635c3e	-0.88812625
21	0x3f67ae22	0.9050008
22	0x3d62e622	0.055395253
23	0xc06417c6	-3.563951
24	0x3d302bde	0.043010585
25	0x3bd155b0	0.0063883886
26	0xbf08ce2d	-0.534396
27	0xbf26cf3b	-0.6515996
28	0x3f414492	0.75495255
29	0x3f59cd8b	0.8507926
30	0xbf10d069	-0.5656801
31	0xbf1f48d7	-0.6222052
32	0x3f48cd88	0.78438616
33	0xb94e4169	-0.00019670058
34	0xbdb3635f	-0.08759188
35	0x3e88fa50	0.26753473
36	0xbcffcf52	-0.031226788
37	0x40ceeab5	6.4661508
38	0x3f500dbe	0.8127097
39	0xbf33701a	-0.7009293
40	0x3fa28545	1.2696921
41	0xc062d12a	-3.5440164
42	0x3f6f516d	0.9348362
43	0x3f1f3c86	0.62201726
44	0x3d5f066e	0.05444949
45	0xbec4c49e	-0.38431257
46	0xbd3bfc98	-0.04589519
47	0xbca9c20f	-0.020722417
48	0xbd9ff9f3	-0.07811346
49	0xbf24df6e	-0.64403427
50	0x3e838a54	0.25691473
51	0x407f31b2	3.9874082
52	0x3da1a38f	0.078925245
53	0x3fbb8649	1.4650356
54	0x3c81f5b0	0.015864223
55	0xbf4df0d4	-0.804456
56	0xbf0638f2	-0.5243064
57	0xbf146335	-0.5796388
58	0x3f4a17a5	0.7894233
59	0x3f88787b	1.0661768
60	0x3f4e23dd	0.80523473
61	0x3f2ac153	0.6670124
62	0x3f678fac	0.904536
63	0x3f9b6c2a	1.2142384
64	0xbf47915f	-0.77956194
65	0x3fe8111d	1.8130223
66	0x3cf08a28	0.029362753
67	0x3dff3535	0.1246132
68	0x3f5da500	0.86579895
69	0xc0478db0	-3.118023
70	0xc076f5f0	-3.8587608
71	0xc00568f3	-2.0845306
72	0x3f98f956	1.1951091
73	0x3efd253c	0.4944247
74	0x3c11ca40	0.008898318
75	0xbf85f504	-1.0465398
76	0x3a1f3bc5	0.0006074275
77	0x3f5e88fe	0.86927783
78	0x3f4d9b17	0.80314773
79	0xbf094d38	-0.5363345
80	0x3f0a6990	0.54067326
81	0xbf954f4a	-1.1664822
82	0xc04e670c	-3.2250395
83	0xbef0b8ac	-0.47015893
84	0xbf6c41c6	-0.9228786
85	0x3d012728	0.031531483
86	0x3f784012	0.96972764
87	0xbf99f5dd	-1.2028157
88	0x3f5be15e	0.8589076
89	0xbf1ed290	-0.6204004
90	0xbd543498	-0.05180797
91	0xbd903c89	-0.07042796
92	0xc030a774	-2.7602205
93	0x3f755eca	0.9584776
94	0x3eadd54f	0.33951804
95	0xbf4f496b	-0.809714
96	0x3f5492fb	0.83036774
97	0xbf79dcf3	-0.97602767
98	0x3f5193e2	0.81866276
99	0x3f6c1508	0.9221959
100	0xbf10fab4	-0.5663254
101	0x3f62d3f9	0.88604695
102	0xbef89d56	-0.48557538
103	0x3f8146e4	1.0099759
104	0x3f434dca	0.7629057
105	0x3d6edace	0.058314137
106	0x3ef45e85	0.47728363
107	0x3d6e1eb7	0.05813476
108	0xbca35158	-0.019936249
109	0x40833bdc	4.101057
110	0xbf768b5e	-0.9630641
111	0xbd408979	-0.047006104
112	0x3f838147	1.0273827
113	0x3f221cc4	0.6332514
114	0xbf6e8ef6	-0.9318689
115	0x3f63fbb3	0.8905594
116	0xbf05d86e	-0.5228337
117	0x3f90b806	1.130616
118	0xbf1740d0	-0.5908327
119	0xbf9a0326	-1.2032211
120	0x3f85c695	1.0451227
121	0xbb193380	-0.0023376644
122	0x3f45910b	0.77174443
123	0xbe299777	-0.16561686
124	0x3f312052	0.6918994
125	0xbf50ccb8	-0.81562376
126	0x3f31196d	0.6917942
127	0xc04980da	-3.1484895
128	0xbd870d0c	-0.06594285
129	0x3d347572	0.044057317
130	0xbd153117	-0.03642377
131	0x3d4dc7a2	0.050239213
132	0x3d917069	0.07101519
133	0x3db2261f	0.08698677
134	0xbcfbf352	-0.030755673
135	0xbcc3d1ac	-0.02390369
136	0xbbb9b7d0	-0.005667664
137	0x3da4c4bb	0.08045336
138	0xbd7c7f37	-0.06164476
139	0x3d892719	0.066969104
140	0xbdb23fd6	-0.08703582
141	0x3d2b1db2	0.041776367
142	0xbdae3dbd	-0.085078694
143	0x3d8cdd5d	0.06878159
144	0x3d9629ef	0.07332217
145	0xbd7b9894	-0.061424807
146	0xbd88be56	-0.06676929
147	0xbdae19cf	-0.08501016
148	0xbcb90a9c	-0.022588067
149	0x3d93916b	0.07205471
150	0x3d825b7f	0.06365108
151	0x3d74e482	0.059788235
152	0x3d4ca02a	0.04995743
153	0xba802040	-0.0009775236
154	0xbc5e1518	-0.013554834
155	0xbd21ce83	-0.039503586
156	0x3d9e409b	0.07727166
157	0x3bd872f0	0.0066054985
158	0xbcde75fc	-0.027155869
159	0x3d3536ce	0.04424172
160	0xbdab5d8d	-0.08367453
161	0xbd0f0937	-0.034920897
162	0x3c2b8c28	0.010470428
163	0xbd9608d6	-0.07325904
164	0x3db39499	0.08768577
165	0x3d56e0ae	0.052460365
166	0xbda76b44	-0.08174756
167	0x3b3fea80	0.002928406
168	0xbc065dc8	-0.00820107
169	0x3c287dc8	0.010283895
170	0xbdaf1c69	-0.08550341
171	0x3da495e1	0.080364
172	0x3c811ea8	0.015761688
173	0x3d88450b	0.06653794
174	0x3d30597a	0.04305408
175	0xbdb36720	-0.08759904
176	0x3c265e98	0.010154389
177	0xbcea960c	-0.028636001
178	0xbd59f577	-0.05321261
179	0x3d7c2c72	0.061565824
180	0x3d22c7fe	0.03974151
181	0xbcd02e80	-0.025412798
182	0xbc8a3b6c	-0.016874038
183	0x3d31a276	0.043367825
184	0xbd9a70c4	-0.075410396
185	0xbd2e1a4a	-0.04250554
186	0xbd5b809d	-0.053589452
187	0x3d00d422	0.031452306
188	0x3c0a9708	0.00845886
189	0x3d0bbcb6	0.034115516
190	0xbbe57b90	-0.007003255
191	0xbd3f3613	-0.04668243
192	0xbd907667	-0.070538335
193	0x3daf9109	0.08572585
194	0xbd809198	-0.0627777
195	0xbd326f21	-0.043563012
196	0xbbbba220	-0.005726114
197	0xbd18e506	-0.03732779
198	0x3b32c360	0.0027277097
199	0xbc96f9d0	-0.018429667
200	0xbbe82c80	-0.007085383
201	0x3d9cda41	0.07658816
202	0xbd95eca1	-0.07320524
203	0xbd67b5b5	-0.056569774
204	0xbd247548	-0.04015091
205	0xbd91866f	-0.07105719
206	0xbd994825	-0.074844636
207	0xbbd75bd0	-0.006572224
208	0xbd2b6451	-0.041843716
209	0xbc711560	-0.014714569
210	0x39fdc800	0.00048404932
211	0xbc8037a8	-0.015651539
212	0xbda409f0	-0.08009708
213	0xbda93bd7	-0.08263367
214	0x3d121366	0.03566303
215	0xbca04f60	-0.019569099
216	0xbd12c092	-0.03582818
217	0x3c620318	0.013794683
218	0x3d6b8802	0.057502754
219	0x3d860e7d	0.06545732
220	0xbc32c518	-0.010911249
221	0xbd274827	-0.040840294
222	0x3d720aaa	0.0590922
223	0xbd9fb1a6	-0.077975556
224	0x3d812eb5	0.06307737
225	0x3db354db	0.08756419
226	0xbd3bb7d4	-0.04582961
227	0x3d07cffc	0.033157334
228	0xbd469d00	-0.04848957
229	0xbd2803e1	-0.041019324
230	0xbd5ca1ef	-0.05386537
231	0xbc8b3fc0	-0.016998172
232	0xbce6a594	-0.028155126
233	0x3cbcb8d4	0.023037352
234	0xbd530f99	-0.051528547
235	0xbd9cf8b3	-0.07664623
236	0xbdb344dd	-0.08753369
237	0x3c56a650	0.013101175
238	0x3c45ae30	0.012065455
239	0x3c43c160	0.01194796
240	0x3c3cf190	0.011532202
241	0x3c80cb70	0.015722007
242	0x3d77ddb2	0.06051416
243	0xbb19a480	-0.0023443997
244	0x3da3caeb	0.07997688
245	0x3d6d7fa2	0.05798305
246	0x3cf592dc	0.029977255
247	0xbca1a620	-0.019732535
248	0xbd0c9400	-0.03432083
249	0x3daf9303	0.08572962
250	0x3d1f0776	0.038825475
251	0xbd093094	-0.033493593
252	0x3cac2798	0.021014974
253	0x3db038e9	0.08604605
254	0xbd5bba5e	-0.05364453
255	0x3c901634	0.017588712

4.bias f4 [6]
0	0xbdc47cc7	-0.09594112
1	0x3b8dc430	0.004326366
2	0x3e0949d8	0.13407075
3	0x3a00f6e4	0.0004919602
4	0x3e6669cd	0.22501297
5	0xbebc2f19	-0.36754683

6.weight f4 [2, 6]
0	0x3fe13aee	1.7596109
1	0xbe07f458	-0.13276803
2	0x3e0f11b4	0.13971597
3	0x3ed39bb6	0.41329736
4	0x402e4989	2.7232382
5	0xc017d048	-2.3720875
6	0xbf06990d	-0.52577287
7	0xbe279525	-0.16365488
8	0x3ff7a2f0	1.93466
9	0x4029e316	2.6544852
10	0xbfca0d09	-1.5785228
11	0xbf726987	-0.9469227

6.bias f4 [2]
0	0x3f97d43b	1.1861643
1	0xbf1bab0c	-0.6080787
