data/models/model_demonstrator_27_08_2024_16-49-24.pth (torch, 77428 bytes, 8 tensors)

0.weight f4 [128, 8]
00000000: 7de7 233f f77f 9e3f 38ad 0dbf bd36 49bf
00000010: 593e c93e 65f9 8e3f a354 c8bf 80f2 49be
00000020: fc20 183f 912b 59bf 2e7f 1abf 29d0 7d3d
00000030: eb56 0b3f 2320 b43f f03e da3e 98cf 9b3e
00000040: b730 043f 6534 533f a430 3bbe cf42 173f
00000050: 549c 95be fda9 12bd 9f3a 55be 6896 013f
00000060: 2163 c0be 9fd2 ce3d 0115 d33e b929 8fbe
00000070: 97d9 58bd bd28 fc3e f669 f93f b9e8 08bf
00000080: 12f2 91bf fbdf 0640 9c8a 8abf 2734 2abf
00000090: 717f 883f 5ae0 ea3e 8ba6 343e b8bd bbbf
000000a0: f2de 0bbf 8377 373d f7be 563f 222b ea3f
000000b0: 41a3 8abf d6fa 9d3e b94f 903f 5841 b53e
000000c0: a66b 5a3f db6c 37c0 5d28 f1bc 02fd 303d
000000d0: 01a2 9abd ad44 043f 9d74 793f 2e28 413e
000000e0: fbe1 c83e 8073 b13f e1f2 553e e0c9 89bf
000000f0: a35e 8d3d 18c2 823f 141a 383f bb7e 1fbf
00000100: 1685 b4be c253 9e3f dcf3 b63f e177 553e
00000110: a42a 1c3f 2e4a 2f3f 5062 76be 0a2f 85bf
00000120: dffd 143c 7d30 6a3d 2b31 e73d 4099 90be
00000130: f2b8 87be c875 45be d24f a8be 9fdb 313e
00000140: 9948 d9bd d613 5cbe f2be 253e fae8 36be
00000150: 91ec 92be 2004 45be f8b7 b4be 7024 4cbe
00000160: 9f85 663f 1c67 813e 088b fabe 3013 4fbf
00000170: fef5 a3bd 0536 1d3f 3356 2e3f a0f2 d03e
00000180: b502 e2be bb67 13bf 7666 023e 7eed 8abe
00000190: 86a1 9cbf d6d7 733f 8908 ae3f f434 67be
000001a0: 6357 3e3f 34f8 8c3e 1b2f 20be 9567 af3e
000001b0: 2e21 61bd 5374 973e 6c8c b73d a46c 74bd
000001c0: 4d05 0a3f b866 673f 8258 4cbf c772 c93e
000001d0: d46a 273e 2bde 703f 287f 20bf 7d0c 363e
000001e0: 8449 0fbd bb99 26be 63f0 e93d cc97 e13c
000001f0: 6485 b7bd 9020 30be 57de adbd 8ef7 2cbe
00000200: 1ac5 663f 24c9 8b3f 792b 15bd afaf 68be
00000210: b84b 11bd 21c8 f33e 3704 053f b680 853e
00000220: 63dc 74be a6c8 99be f18e 83be 6578 85be
00000230: faee c2bd 041f f6bc ffe7 03be 74a2 98be
00000240: 4314 76be 991e ad3e a5d8 173c 9a20 c5be
00000250: d05f d1be 2cb8 dc3f fa35 e7bd a1da 43be
00000260: 0a05 7b3e 988c 033f 1e68 c2be 0a08 1d3f
00000270: 1202 243f 8881 a43e 64ca e03e 1e7e 733e
00000280: 4fdd 723e 96b0 7a3e c0c9 933e 068c 783f
00000290: 3dac cf3e e9b4 f93e fede 5d3f 6a11 c03e
000002a0: 845f 99be 776c 52be 9d9d a0be 7c74 223b
000002b0: c05f e73d dcee 3d3e 5f5c 27be d63b 143e
000002c0: 5010 d13e fe69 4a3f 826c b8be 227b fe3e
000002d0: 8606 00bf 9c90 303f 8340 bf3e f338 37be
000002e0: 8b2b f63e 88f2 7d3d b2d1 64be dd10 9fbf
000002f0: 8c69 ff3b 029f c73f 76b3 433f fb1d 383f
00000300: beb8 b7be b664 d13f 2869 6dbf 0b4d a0bf
00000310: bc65 843f 5fb4 943f 58a9 e53e ce83 093d
00000320: 27f9 e83e f98c 113d 625b 6ebe dd3e de3a
00000330: 6cd6 613f 8846 423e abd4 743e 0fb3 25bf
00000340: 49b5 153f 393b e93e 7503 bcbf 3de2 12be
00000350: b6c5 a0be 4f8f 2e3e 7a54 ac3f f9e2 a93f
00000360: 90af 2c3e f522 793f a08f 82bf 14a5 8e3e
00000370: 50fa 1a3f fb19 5d3f 1f46 3d3e 5423 9bbf
00000380: 25ca 75bf ca3d 5e3f 7f8a 71bf f76d 3abe
00000390: 0ccf 35bf 03eb 39be 1943 0040 9627 8dbe
000003a0: 4332 e13e 8ac3 35bf af9d 29bf 9afd 563f
000003b0: 011c 04bd 986d 443f 9e72 56be b33f abbd
000003c0: 7426 eb3e 62c8 99be 8035 933e 05ff 1f3f
000003d0: 9210 403e 481d 71be 183d 1d3f dc3c b13e
000003e0: d43a 7c3f dc37 d13f be30 9f3e 090a 93bf
000003f0: 3794 aebe af66 fc3e 85f3 09be 5a90 7abf
0.640251 1.2382802 -0.55342436 -0.7859915 0.3930538 1.1169859 -1.5650829 -0.19721413
0.5942533 -0.848321 -0.6035031 0.061966095 0.544295 1.4072307 0.42626143 0.3043182
0.5163683 0.8250182 -0.18280274 0.59086317 -0.2922083 -0.035806645 -0.20823143 0.50620127
-0.3757563 0.100987665 0.41226962 -0.2796152 -0.052941885 0.4924983 1.9485462 -0.53480107
-1.1401999 2.1074207 -1.082355 -0.6648583 1.0663892 0.45874292 0.17641656 -1.4667273
-0.5463706 0.04479171 0.8388514 1.8294413 -1.0831071 0.30855435 1.127433 0.35401416
0.8532051 -2.866019 -0.029438192 0.043210037 -0.07550431 0.5166729 0.9744356 0.18862984
0.3923491 1.3863373 0.20893432 -1.0764732 0.06902816 1.0215483 0.7191479 -0.6230275
-0.35257787 1.2369311 1.429317 0.20846511 0.61002564 0.68472564 -0.2406094 -1.040498
0.009093731 0.05717515 0.11288675 -0.2824192 -0.2650829 -0.19283211 -0.32873398 0.17368935
-0.1060955 -0.21491942 0.16186121 -0.17862311 -0.2869611 -0.19239855 -0.35296607 -0.19935775
0.9004764 0.2527398 -0.48934197 -0.8088865 -0.08005904 0.6141055 0.6810028 0.40810108
-0.4414269 -0.57580155 0.12734398 -0.27134317 -1.2236793 0.95251215 1.3596355 -0.22578794
0.7435209 0.27533114 -0.1564297 0.34258714 -0.054963283 0.29580936 0.0896233 -0.05967392
0.5391434 0.9039111 -0.7982255 0.3934538 0.16349345 0.94089 -0.62694025 0.17778201
-0.03498222 -0.16269581 0.11422803 0.027538203 -0.08960989 -0.17199922 -0.084896736 -0.1689131
0.90144503 1.0920758 -0.036418412 -0.22723268 -0.0354726 0.47613624 0.51959556 0.2607476
-0.23912196 -0.30035895 -0.25694993 -0.26068416 -0.095182374 -0.030044086 -0.12881468 -0.29811442
-0.24031167 0.33812407 0.009267961 -0.38501436 -0.40893412 1.7243705 -0.11289592 -0.19126369
0.24513641 0.51386404 -0.3797006 0.6134039 0.6406566 0.32130075 0.43904412 0.23778579
0.23717235 0.24481425 0.2886486 0.9708866 0.40561095 0.48770836 0.86668384 0.37513286
-0.29955685 -0.20549189 -0.3137025 0.0024788668 0.1129756 0.18548149 -0.1634383 0.1447595
0.40832758 0.7906798 -0.36020285 0.49703318 -0.50009954 0.68970656 0.37353906 -0.17892818
0.48080096 0.061998874 -0.22345617 -1.2427021 0.0077945646 1.55954 0.7644571 0.71920747
-0.35883135 1.635886 -0.9273858 -1.2523512 1.0343547 1.1617545 0.44855762 0.033572964
0.45502588 0.035534833 -0.23277047 0.001695599 0.88217807 0.18972218 0.23909251 -0.64726347
0.58479744 0.45552996 -1.4688555 -0.14344116 -0.3140084 0.17046855 1.346328 1.3272392
0.16863847 0.97318965 -1.0200081 0.2786032 0.60538197 0.8636777 0.1848378 -1.2120156
-0.96011573 0.8681303 -0.94351953 -0.18206011 -0.71019053 -0.18156056 2.0040953 -0.27569264
0.4398366 -0.71001494 -0.6625623 0.83980715 -0.03225327 0.76729727 -0.2094216 -0.08361759
0.45927775 -0.30035692 0.28751755 0.62498504 0.18756321 -0.23546326 0.61421347 0.34616745
0.98527265 1.6345172 0.31091875 -1.1487437 -0.34097454 0.4929709 -0.13471802 -0.97876513

0.bias f4 [128]
00000000: d70f 043f cba8 cc3d fbe3 0a3f fe4f 943e
00000010: 730e 8a3f 2ac0 d0bd b721 f93d 3c4f 0dbe
00000020: eeff 1c3f bcba 32be 9599 9bbe b906 363f
00000030: caff 783f a22c 133f 22aa c23e 0cd3 64be
00000040: f52d 733e 2bc6 28be 6077 163f a13a 5c3f
00000050: b32f de3e 8154 86be db2e 313f b266 f2be
00000060: a4cb 75be 3515 303f 4b06 58be 9f33 083f
00000070: 5fe9 103f 51b1 693f 6c24 803f a48e e33e
00000080: e6b7 553e fc32 db3e 028c d33e a72a 5b3f
00000090: 3d5c 983f 9f47 cbbe aa5f 973f 91cb 0f3f
000000a0: 3c31 273f 5679 04bf 1d48 913f 8022 9b3e
000000b0: 0a76 2c3f 9649 533d 1840 893e 184a 663d
000000c0: b421 e53e 3c50 34bf 65e7 803f 50ee 3c3f
000000d0: 561e 12be 257f a83f 052e 693f 439c 263f
000000e0: 37e8 4f3f 8734 8e3e 638b 5c3f eda6 efbc
000000f0: 031e 1b3e 5405 4d3f 45ab 8cbe dfee 8a3f
00000100: 8d0d 31be e607 253f d862 fd3e b27c 923e
00000110: 0e9a 083e 1725 af3e ffcd d23e 0419 5e3e
00000120: 8c19 6f3f 5dab 533f 9a84 4e3f 9e44 8e3f
00000130: ffd4 17bd 3cc9 cc3e 0076 9b3e 71e4 1cbf
00000140: 8ec6 383e 5377 423e 79d5 923e d1b7 4d3d
00000150: 4f0f 5a3f 7a86 22bd d3d4 92be 25de 183f
00000160: 47f4 93bf 673c 94be c33d 1b3f 9744 403f
00000170: 01f0 633f 82ec 3e3f 783a 24be debb 753f
00000180: 4943 023f ce0a 6d3f e513 95be 6914 81be
00000190: 040c dbbe bef9 823e 5168 0cbf 194a 13be
000001a0: 572a 283f 4dbd 77be ddea 7f3f 1d69 993e
000001b0: 355e 38be e804 5a3f eaa9 eabd 2008 383f
000001c0: 1ce3 223f 2215 d6be 89bf 033f 859a 963f
000001d0: fa4c 933e 5bd8 063f 7978 133f 06cc 6a3e
000001e0: 7a64 263f 3cdb 123e 7742 a13e 3577 8b3f
000001f0: 334a 363f a3db 663f a8ec bd3e c6f3 1d3f
0.5158667 0.09993132 0.5425412 0.2896728 1.078566 -0.101929024 0.12164634 -0.13799757
0.6132802 -0.17454046 -0.3039061 0.7110401 0.97265303 0.5748998 0.38020426 -0.22346133
0.23748 -0.16481845 0.587759 0.8602696 0.43395767 -0.26236346 0.6921212 -0.47343975
-0.24003464 0.6878236 -0.2109615 0.5320377 0.56606096 0.9128619 1.0011115 0.44444764
0.20870933 0.42812335 0.41317755 0.8561196 1.1903149 -0.3970308 1.1826069 0.5616999
0.653095 -0.51747644 1.1350132 0.3029976 0.67367613 0.05158385 0.26806712 0.056223005
0.44752276 -0.7043493 1.0070616 0.73801136 -0.14269385 1.3163801 0.91085845 0.65082186
0.81213707 0.2777445 0.8615019 -0.029254401 0.15148167 0.80086255 -0.27474418 1.0854148
-0.17290325 0.6446518 0.49489474 0.2861076 0.13340017 0.34207985 0.41172788 0.2168923
0.93398356 0.82683355 0.80671084 1.111469 -0.037068363 0.3999728 0.30363464 -0.61286074
0.18044493 0.18990831 0.28678492 0.05022413 0.8517961 -0.039679028 -0.28677997 0.59713966
-1.1558923 -0.28952333 0.60641116 0.7510466 0.8903809 0.7457963 -0.16037929 0.9598979
0.5088392 0.9259461 -0.2911674 -0.25210884 -0.42782605 0.25581163 -0.54846674 -0.14383735
0.65689605 -0.24193306 0.9996775 0.29963008 -0.18004687 0.85163736 -0.1145819 0.718874
0.6362779 -0.41812998 0.51464134 1.1765906 0.28769666 0.5267388 0.576057 0.22929391
0.64997065 0.14341444 0.3149602 1.0895754 0.7120697 0.9017889 0.37094617 0.61700094

2.weight f4 [128, 128]
00000000: d2b4 94be 846c 633f 00d8 f3be c9fd 5f3e
00000010: 56f8 0440 0f38 92bd 01e2 ba3f 3db0 aa3e
00000020: b902 62bc 047e adbc 2f31 f5bc 880c 1d3f
00000030: 9bc6 1e3f 7536 06be 7613 f23e 0076 7cbc
00000040: 4436 053d a16d dabc c4d1 be3e c2b0 673e
00000050: c02a 9d3e 92f9 9fbd 92f5 793e 3b1e 713f
00000060: 3c0b 77bf d0c6 db3e 7b70 983f e707 afbe
00000070: fa3b 89bf 60b6 80be 5331 ee3b 8531 d83f
00000080: 1093 073f 0f60 a43d f614 febf cbc5 bf3d
00000090: 9a9e b6be f56d 54bf 560b 393f 6575 3fbf
000000a0: 2704 0fbf b552 293f a756 4f3f 86a4 a0bd
000000b0: 2692 723e 6055 c63d 2e12 4d3f 5b30 e2bf
000000c0: 1880 f23f 8dc3 58bf 2ca3 b53f 9cd1 003e
000000d0: 433b b6be dd69 5f3f b7b3 353e 173f 17bf
000000e0: 110b 05bf c8ec 223f d0ec b33e 1d4b 09bf
000000f0: b429 d23e cdfd 0440 116a b93c 58c9 153f
00000100: 9a4a 213d 21eb bf3e 8c11 0c3f d1be 033f
00000110: 1a14 3d3d 020f dcbf c5d9 1d3e 5cac a4be
00000120: 171e 493e d69f db3e facc 8f3e f9ff a7be
00000130: efa4 b53c 4fab 8ebe cfd5 d1bd 69de f03f
00000140: 8a1c 7cbe aff8 863e 0fc0 06bf e2eb bc3f
00000150: 8b1c 99c0 520c 81be cb5c 4dbd 975c adbf
00000160: b9ef 7e3f 9873 ac3b 8d55 a03e 2c0b 2c3f
00000170: 5605 0d40 e03b dabd af2b ffbe 8c68 e4be
00000180: 4bf9 623d 3b04 dc3e 4d20 5cbd ebac 1e40
00000190: b6b6 33bf 1e0c dcbd 82d6 e03f 40ce c6be
000001a0: 3967 8ebf c3cb 753d b173 01bf cc12 da3f
000001b0: 402a 3fbd 6bd3 623e 9ba5 33bd 1f30 cb3e
000001c0: 7bf6 223f d0f1 b33e 0b78 f6be 1209 183f
000001d0: 4fb2 69be 268b 683e 1fc2 163d 22fc 093e
000001e0: bece aebe 257a 29bf 5c8a 2cbc 3eae ffbd
000001f0: 2e20 c73e 0ab0 033e af7e 583e f3ef 5ebe
00000200: 2f49 003d f417 3fbc 0717 46bc 503f 1fbd
00000210: af36 a43c acad 3bbd dca8 f43c 8c0e 99bd
00000220: 0755 903c 2c37 16bd 6fb9 253c b1b9 c3bc
00000230: 72a7 78bd 4b71 7ebd 2dde 66bd 1126 73bd
00000240: 0a4a 87bd 9d0c 18bd e141 c33c 2c78 3f3d
00000250: 4514 083d a012 933d 463f 9abd 82da a03d
00000260: 068e 633b deeb de3c cc21 a23c 62d1 83ba
00000270: 1808 60bd 03e2 893d 16d2 34bd 4068 0ebd
00000280: 3af9 fe3c 1e57 48bd 665b 1d3d 7894 5d3c
00000290: 7605 dbbc b045 98bd db9f 793c 0192 9a3d
000002a0: 3a68 493d 3e69 d13a c7a8 8bbd db71 293b
000002b0: fc28 8e3d e246 60bd bf22 06bd 9ea6 7b3d
000002c0: 13d2 a1bd 8614 7a3d 5442 8abd f546 58bd
000002d0: 398a 7dbd 8f5b 5ebb 2c1c 453d f271 03bd
000002e0: b325 2d3b a5ec 4a3d 4e3d ac3c ac22 22bd
000002f0: 8077 6c3d 1fc6 4aba 6b51 e5ba ac39 acbd
00000300: 876f a0bd e49d 6dbd 401f b3bc 8056 a53d
00000310: b989 533b e7d2 e2bc c988 c7bb 66c9 ea3c
00000320: 1fed 13bd fc8a bebd 2e08 2abb ba2d a03d
00000330: db28 ae3d 3502 b53d 2fbf adbd e764 96bc
00000340: f560 983d 6623 f1bb 64d7 23bd 08ad 5f3b
00000350: 42f7 21bd 6c23 8a3d 1ed4 91bd b734 94bd
00000360: 3b2c 7d3d b419 103d 2e32 97bd 1cf3 d73c
00000370: 8c5f 8bbd c50c 193c b6a9 b63c 557b 15bd
00000380: 0fa0 1cbd 78b5 afbd 589a adbd 1598 efbc
00000390: e073 86ba 50b6 de3c e422 dabc 29d3 69bd
000003a0: 45c1 07bd c147 41bc 4f02 4c3d 818e ecbc
000003b0: de87 1f3d 6d57 343c 4120 94bd d8e6 5a3d
000003c0: e4a9 363d b0b3 c0bb e755 b7bc 95ef b2bd
000003d0: 524b 043d eaac f63c e984 3fbc fff7 5abd
000003e0: c232 f0bc bd5b f6bc ca8f 783c 397c aabc
000003f0: 6bd1 2e3c d43d e5bc 792a abbd 2659 bdbd
-0.29044205 0.88837457 -0.47625732 0.21874155 2.0776572 -0.071395986 1.4600221 0.33337584
-0.013794594 -0.021178253 -0.02993068 0.61347246 0.620218 -0.13106711 0.47280473 -0.015408993
0.032522455 -0.026663603 0.37269413 0.22626022 0.30696678 -0.07811274 0.24410084 0.94186753
-0.9650152 0.4292512 1.1909326 -0.34185717 -1.0721428 -0.2513914 0.0072690635 1.6890112
0.52958775 0.08026134 -1.9850147 0.09363898 -0.35667878 -0.8298028 0.7228292 -0.74788505
-0.5586571 0.66141826 0.80991596 -0.0784388 0.23688564 0.09684253 0.80105865 -1.7671007
1.8945341 -0.84673387 1.4190421 0.1257996 -0.35592088 0.8727091 0.17744337 -0.5908064
-0.5197001 0.6364255 0.3514161 -0.5363024 0.41047442 2.0779908 0.022633584 0.5851035
0.039377786 0.37484077 0.54714274 0.5146304 0.04616175 -1.719208 0.15415104 -0.3216275
0.19640385 0.42895383 0.28086072 -0.3281248 0.022173373 -0.27865073 -0.10245859 1.8817874
-0.24620262 0.26361606 -0.5263681 1.4759486 -4.7847342 -0.25204712 -0.050137322 -1.3543881
0.9958454 0.0052628033 0.3131527 0.67204547 2.2034507 -0.106559515 -0.49838015 -0.44611013
0.055413526 0.42971978 -0.053741742 2.479304 -0.7020067 -0.10744499 1.7565463 -0.3882923
-1.1125251 0.060008775 -0.50567156 1.7036986 -0.046671152 0.22150962 -0.043859106 0.3968515
0.6365735 0.35145426 -0.4813846 0.5938884 -0.22821926 0.22709331 0.036806222 0.13475087
-0.34142107 -0.66202 -0.010531034 -0.12484406 0.3889174 0.12860122 0.21142076 -0.21771221
0.031319793 -0.011663426 -0.012090451 -0.03887874 0.020045606 -0.045819923 0.029865675 -0.07473478
0.01761867 -0.03667371 0.010115012 -0.023892255 -0.060706563 -0.062119763 -0.056364227 -0.059362475
-0.06605919 -0.037121404 0.023835124 0.046745464 0.033222456 0.07181287 -0.075316 0.07854177
0.0034722104 0.02721208 0.019791506 -0.0010056908 -0.05469522 0.067325614 -0.044145666 -0.03476739
0.0311247 -0.048911206 0.038417242 0.013524167 -0.026736002 -0.07435167 0.015235866 0.07547379
0.049171664 0.0015976799 -0.06819301 0.0025855217 0.06941411 -0.0547551 -0.03274798 0.061438195
-0.079013966 0.06105473 -0.06750932 -0.052802045 -0.061899398 -0.0033929085 0.04812257 -0.03209109
0.0026420176 0.049542088 0.021025326 -0.039583847 0.05773115 -0.0007735211 -0.0017495578 -0.084094375
-0.07833772 -0.058011904 -0.021865487 0.08073139 0.0032278134 -0.027688457 -0.006089304 0.028660487
-0.03611481 -0.09303853 -0.0025944817 0.07821222 0.08503886 0.088383116 -0.08483731 -0.01835866
0.07440368 -0.007358956 -0.040000334 0.0034130234 -0.039542444 0.067450374 -0.07120536 -0.07236617
0.06180976 0.035180762 -0.07382618 0.02636104 -0.068053335 0.009341423 0.022297721 -0.03649457
-0.03823858 -0.08579534 -0.08476704 -0.029247323 -0.0010257922 0.027186543 -0.026627965 -0.057086144
-0.0331433 -0.011796893 0.04980689 -0.028876545 0.038947932 0.011007172 -0.072327144 0.053442806
0.044595614 -0.0058807954 -0.022379829 -0.08737103 0.032298394 0.030111749 -0.011689403 -0.053459164
-0.029321078 -0.030073041 0.015171001 -0.020811187 0.010670046 -0.027983584 -0.083577104 -0.09245519

2.bias f4 [128]
00000000: 24f3 633e c96f c53c a6c7 163f 86dc 0bbe
00000010: 4c4f 1a3f d8ad a4bc 1a66 573f bab0 8a3e
00000020: 41e5 e03c d297 1c3f b798 c73e d543 ec3e
00000030: 304e 823e dd24 693d 39ca 36bd 3742 ef3e
00000040: 5be6 ba3e 99d3 b23e 6752 3ebd e90e ee3e
00000050: 1207 623e b657 3d3e 140f 003e b1b0 c03e
00000060: 219d fc3d d08a 0a3f c1f5 af3e aee3 a33e
00000070: 623a 873e ee79 2c3d 9c4d 0bbd 7b35 573e
00000080: 1c39 0d3f e80f 2f3f c983 b53b 1040 c93e
00000090: 0e93 073f e0d7 b83b 5c8e 693c d93b fd3e
000000a0: ba0d 093f b5b8 1b3f 7d1b e1bc 268f 23bd
000000b0: ea77 533c 1528 423e 4264 1ebd 16bf 403f
000000c0: f315 613e 6c55 bdbd a366 99bd 3153 e13e
000000d0: 0322 3bbe 2d9a 943f f992 2b3f 92e2 193f
000000e0: c5c8 bbbd 74ab 6abd e2a2 8c3e a2b8 fb3e
000000f0: ae39 753e a597 f83e 7671 bf3d d675 51bf
00000100: 5c9b 553f 045e b33d 0a14 8abc b0ea 833d
00000110: a824 513e c2a7 8c3e 5711 a43e a445 933e
00000120: 9479 ef3d 8e7e 893e 4d8f a13d 2830 573f
00000130: a291 f93e 8e0c 333f 9c4c 46be 677b 9bbd
00000140: 0436 f83e cd4d dd3e 5056 ea3e cdaf e03e
00000150: fa10 b03e 24ae 20bd 08e6 b23e 6db0 ed3e
00000160: 2127 8fbd dc94 a83e f5a1 fdbe 7016 67bd
00000170: e1d4 b3be a5d2 2b3d 15a5 793f 1da5 9d3e
00000180: 24fe 013f d997 8c3c 1538 bbbd 8768 8c3e
00000190: fcd6 97bd 42b7 523e f176 363f 93c2 81bd
000001a0: b62f 443f 96a7 803e bc0e 8d3e 587d 173f
000001b0: bc00 93bd 9a0f d33e 4de1 aa3e 7b34 b73e
000001c0: e5d8 e63d c253 183f a2c6 6e3e c9eb 91bd
000001d0: a27f 1e3f 3995 8e3e 825e f33e cf9d 893e
000001e0: 7d47 033e bbcd b33e 6221 3e3f 0ab1 103e
000001f0: 6640 223f 1061 c63e fc73 d63e 5451 b53e
0.2226072 0.024101155 0.5889839 -0.13658342 0.6027725 -0.020102426 0.8414017 0.27087957
0.027453067 0.6116916 0.389837 0.46145502 0.25450277 0.05691992 -0.04462645 0.46730205
0.36503872 0.3492706 -0.046465304 0.4649575 0.2207301 0.1849049 0.12505752 0.37634805
0.123346575 0.5411806 0.34367183 0.32009643 0.2641173 0.04210847 -0.03400956 0.21016495
0.55165267 0.68383646 0.0055393917 0.39306688 0.5295876 0.0056409687 0.0142551325 0.49459723
0.5353657 0.60828716 -0.027478928 -0.03993144 0.012907008 0.18960603 -0.038669832 0.75291574
0.21981029 -0.092448086 -0.074902795 0.44008783 -0.18274693 1.1609551 0.6702114 0.60111344
-0.09169153 -0.057292417 0.2746802 0.491643 0.23947784 0.48553196 0.09347813 -0.8182043
0.83440185 0.087581664 -0.016855258 0.064412475 0.2042414 0.2747174 0.3204448 0.2876407
0.11693111 0.26854366 0.078886606 0.84057856 0.48743922 0.6994103 -0.19365162 -0.075918965
0.4847871 0.4322342 0.45768976 0.43884125 0.34387952 -0.039228573 0.34941125 0.46423665
-0.06989885 0.3292607 -0.49537626 -0.056417882 -0.3512335 0.041948933 0.9751752 0.30790034
0.5077841 0.01716225 -0.09141556 0.27423498 -0.07414052 0.2057772 0.7127524 -0.0633594
0.766353 0.25127858 0.27550304 0.59175634 -0.071778744 0.4122284 0.33375016 0.35782227
0.11271838 0.59502804 0.2331796 -0.071250506 0.619135 0.27848223 0.4753304 0.2687821
0.1282024 0.35117897 0.7426969 0.14130035 0.63379514 0.38745928 0.41885364 0.3541361

4.weight f4 [6, 128]
00000000: 5c2f fd3e bb20 983d dc8f 2d3f ff55 efbf
00000010: f0e2 13bf 24a6 5cbc fe14 8b3f e5ff 97bf
00000020: 25fc b33e 0722 dabe ba09 5dbf a294 a2bf
00000030: 12bb 93c0 fbe3 be3c f345 6a3d 0124 ea3e
00000040: fa25 3b3f 7017 f23e 1a0c a1bd 2a00 353f
00000050: 5426 473e 6df2 473e a262 933e dc3d ce3f
00000060: 7080 663f c028 a4c0 41f8 da3f 74a2 90c0
00000070: 061d 9f3e 164d c83e 19ad 7dbd 3669 f73e
00000080: 255d 7e3e 6db4 a53e adfd 72bd b02e b1be
00000090: a474 6cbf afc1 6d3d a28a 96bd 5890 973f
000000a0: 0605 af3f 6fdf 41bf fe73 873d ce6a 6d3c
000000b0: cfba 12bd 8b8a aa3e ea9e a0bd 2b23 8bbe
000000c0: 0405 c73e ec22 053d 85b0 a0bd bb2c 723f
000000d0: 09d5 0a40 9f36 0240 187a 3cbf f26f 463f
000000e0: 3039 35bc e25f 0d3d fcf5 5ec0 6578 8ebf
000000f0: b612 2bc0 a56c 983f c6c9 673f 035e d43e
00000100: 2e8b e23e 37b1 133e fc4e 64b7 93a1 b43e
00000110: 0114 143f 055b 00bf b29f 82bf 6510 0440
00000120: 159b 823e df15 1e3f f0e4 9cbf d5d9 6cbd
00000130: aaa6 b0be 7b32 eabf ec6e 273f e549 3c3d
00000140: ac4f 8c3f 2482 623e 2e35 0d3f 620f 823f
00000150: 2138 23bf 361e 63bd 27bf 3b3f b72d 65bf
00000160: f09a 3fbb 9196 353f c0b2 833f fdbe 88bd
00000170: 303e 08be ccec a33d 2a50 f83d ff8f 643f
00000180: d7be 0a3f 84b1 913d 88cc 8b3d 8d05 cc3e
00000190: 4a45 6bbd 26ff 083f 99b2 4c3f 347b c43c
000001a0: 5d73 933e 627a 233f 376a 3e3f ea33 49bf
000001b0: ffc0 1ebd 2332 7a3f fa3c c3be a62f 0a3f
000001c0: b616 6d3e 5bd6 13bf 6a76 65c0 77cc 8b3d
000001d0: 1faf 3b3f 2ccd 78bf d78e 91bf 2f84 903f
000001e0: 2281 423e cf78 8a3e b232 483e a2ed 9a3e
000001f0: a281 12bf 3667 363f 5de1 d9bf c2ee 683f
00000200: 9be3 c1be 4a14 003d 02ad 523f c2e0 a0c0
00000210: 972d 45be 4809 573b 3e94 a4bf 6e9e 303e
00000220: cc14 853f a41d a1be 3223 afbd 5e02 d0be
00000230: 6999 6cbf 3da9 e9bc 15ba 3c3d 3455 7f3e
00000240: 9d3f 02be 0a0f 5d3f 16cc a5bd 5d58 ffbf
00000250: b412 0c3f f525 0ebe 1851 3a3f 5da6 1fc0
00000260: 9552 153d 4025 37bf cf06 0cc0 bc7b d2bf
00000270: 2953 843f 763a 863f f299 3c3c 9ad1 7b3f
00000280: 75c9 ef3e f6c0 0cc0 f11a 0ebd 7bad 8fbc
00000290: ef2c 513e 8aa5 4ebd 91ba 06bc f150 8ebf
000002a0: de04 07bf 1d71 41bd 466a 503d 3775 e7bc
000002b0: 0515 663d f3b2 8a3f e1e1 d838 6721 e6be
000002c0: e5f8 863f c680 a83d 9495 90bd 1cb6 b43e
000002d0: 1f64 b93b d526 f33f fc68 893d b4dc aa3e
000002e0: 8d8d 07bd 1900 c4bc a200 63be e9c9 933e
000002f0: 6fcf dbbf d9a3 2a3f 5b87 853d 6b1f 3dc0
00000300: cb4b 56bf f0b7 873f 77e7 df3c 0431 833f
00000310: 8163 683f b330 ecbe 2a20 02bc 9d00 0dc0
00000320: 23d0 6d3f ac0c ebbe d81a 9f3e 9670 dbbe
00000330: e26b d8be f233 97bf 9061 283f de78 97bc
00000340: e991 6dbd d7c6 a3bf 945c 823f 596f af3e
00000350: f54b 6bbe 0f0f 86bd 821c 3bbf e425 99be
00000360: c054 eabc 444b 82be 2ec3 26c0 2412 d8bc
00000370: 78eb c43e 9923 08bd f640 82bf 849e 07c0
00000380: d5de 463f 72f9 eabb cb6a 19bd bb66 763f
00000390: 1870 77bd 7db4 083f 7ed3 533f 87d4 183c
000003a0: 59e2 3ebf aecc 653f 547a 90be c6e9 93be
000003b0: 49ae f3bc f93c 83bf c205 ce3f 6d10 0bbe
000003c0: 0fab 833f 47cf 6bbe d6be cfbf 4d44 7cbd
000003d0: 5d31 aa3d 4d84 73bf 4a94 913e 536d 98bf
000003e0: a695 8a3f de9b 873f 28a0 2ebf 42e0 683f
000003f0: 2847 0cbf acd3 323f dcf9 f7be 1194 803e
0.49450195 0.07428118 0.67797637 -1.8698119 -0.57768154 -0.013467345 1.0865781 -1.1874968
0.3515331 -0.42604086 -0.86342967 -1.2701609 -4.6165857 0.023302069 0.057195615 0.45730594
0.7310482 0.47283506 -0.07863636 0.70703375 0.19448215 0.19526072 0.28786188 1.6112628
0.9003973 -5.1299744 1.7107011 -4.5198307 0.3107683 0.39121312 -0.061932657 0.48322457
0.2484022 0.32364216 -0.059323955 -0.34605932 -0.9236548 0.05804604 -0.07350661 1.1840925
1.3673408 -0.7573156 0.06613921 0.014490796 -0.035822686 0.33308825 -0.078428105 -0.2717527
0.38871014 0.032504007 -0.078461684 0.94599503 2.1692526 2.0345838 -0.736238 0.77514565
-0.011060998 0.03451527 -3.4837637 -1.1130491 -2.673017 1.1908156 0.90542257 0.41477975
0.4424681 0.14423071 -1.3608249e-05 0.3527952 0.57843024 -0.50138885 -1.0204985 2.0635006
0.25508943 0.6175212 -1.2257366 -0.05782493 -0.34502155 -1.8296655 0.6540363 0.04596891
1.0961814 0.22119957 0.5515927 1.0160944 -0.6375752 -0.055448733 0.7333855 -0.8952288
-0.0029236637 0.7093287 1.0288925 -0.06677053 -0.13304973 0.0800415 0.12124665 0.8928222
0.5419745 0.071139365 0.068261206 0.39847985 -0.057439126 0.53514326 0.7996002 0.02398453
0.28798953 0.63858616 0.7438082 -0.7859484 -0.038758274 0.9773275 -0.3813246 0.53978956
0.23153195 -0.57748955 -3.5853524 0.06826108 0.7331409 -0.9718807 -1.1371716 1.1290339
0.18994573 0.27045295 0.19550589 0.30259424 -0.57229054 0.7125124 -1.70219 0.90989316
-0.37868962 0.03126935 0.8229524 -5.0274363 -0.19255672 0.0032811929 -1.285774 0.17247936
1.0396972 -0.31467927 -0.08551635 -0.40626806 -0.92421585 -0.028523082 0.0460759 0.24934846
-0.12719579 0.8635107 -0.08095567 -1.9948841 0.5471604 -0.13881667 0.7277999 -2.494529
0.03645571 -0.71541214 -2.1879156 -1.6444011 1.0337878 1.0486591 0.011511313 0.983667
0.46833387 -2.1992774 -0.034693662 -0.017538777 0.20427297 -0.05045084 -0.008223192 -1.1118451
-0.527418 -0.047227014 0.0508826 -0.028254135 0.05617239 1.0835861 0.00010341756 -0.4494736
1.0544707 0.082276866 -0.0705978 0.35295188 0.0056576873 1.8996226 0.06709477 0.33371508
-0.033093978 -0.023925828 -0.2216821 0.28864983 -1.7172679 0.6665626 0.06519958 -2.9550426
-0.837094 1.0603008 0.02733205 1.0249333 0.9077683 -0.46130905 -0.007942239 -2.2031624
0.92895716 -0.45908105 0.31075168 -0.42859334 -0.42269808 -1.1812727 0.6577387 -0.018490251
-0.05800048 -1.2795056 1.0184503 0.3426464 -0.22978194 -0.06545841 -0.73090374 -0.2991172
-0.028604865 -0.25448048 -2.6056628 -0.026375838 0.38460898 -0.033237074 -1.0176075 -2.11905
0.77683765 -0.0071708495 -0.03745536 0.96250504 -0.060409635 0.53400403 0.82744586 0.009328014
-0.7456413 0.8976544 -0.2821833 -0.28889292 -0.029746192 -1.0252982 1.6095507 -0.13580485
1.0286578 -0.23028289 -1.6230114 -0.061588574 0.083101965 -0.9512375 0.28433448 -1.1908363
1.0826919 1.0594442 -0.6821313 0.9096719 -0.54796076 0.69854236 -0.48432815 0.25112966

4.bias f4 [6]
00000000: 9130 163f 3d29 4dbd 4fc5 89bd 9b0e 00be
00000010: 492d ae3e 1d81 f2bc
0.58667856 -0.050088156 -0.06727087 -0.12505572 0.34018925 -0.029602582

6.weight f4 [2, 6]
00000000: 779e 0340 888a e3be b843 ab3e c0f2 dc3f
00000010: fbbd d43f a7b4 d3bf 7236 783d 781a 0240
00000020: feaa aebe 7446 6bbe 6449 0cc0 daa4 adbf
2.056547 -0.44441628 0.33450103 1.7261581 1.6620477 -1.6539506 0.060598798 2.0328655
-0.34114832 -0.22976094 -2.1919794 -1.3565934

6.bias f4 [2]
00000000: b89f de3e 75bb 07be
0.4348123 -0.13255103
