data/models/model_demonstrator_28_08_2024_08-09-56.pth (torch, 77428 bytes, 8 tensors)

0.weight f4 [128, 8]
0	0x3f43883b	0.76379746
1	0x3f16589c	0.5872896
2	0x3f515f69	0.8178621
3	0x3f4c7de1	0.79879576
4	0xbece5983	-0.40302667
5	0xbe8c8eab	-0.27452597
6	0xbcbb5d23	-0.02287156
7	0x3f2146cf	0.6299867
8	0x3eb09409	0.34487942
9	0xbde6be91	-0.112668164
10	0x3f621c9b	0.883249
11	0xbef8e4f9	-0.48612192
12	0xbd162019	-0.036651704
13	0x3f693a63	0.91104716
14	0x3e77d7ce	0.24203417
15	0x3f31df24	0.6948111
16	0xbd5ed2a5	-0.054400105
17	0xbee14a80	-0.4400215
18	0x3e4dde0e	0.20104238
19	0xbe90487b	-0.28180298
20	0x3f751ceb	0.9574725
21	0xbf1fd758	-0.62437963
22	0x3f5a76c6	0.85337484
23	0xbead6d59	-0.33872488
24	0xbe052fea	-0.13006559
25	0xbf650a11	-0.89468485
26	0x3f2f3ddc	0.68453765
27	0x3f25aba0	0.64715004
28	0x3dcff95e	0.10154985
29	0xbe31f83f	-0.17379855
30	0x3f8e6ac1	1.1126329
31	0x3d569309	0.052386317
32	0xbe9fb884	-0.31195462
33	0xbed733bc	-0.42031658
34	0x3eddbe3f	0.4330921
35	0x3d8b24e4	0.06794146
36	0x3f176fa5	0.5915473
37	0xbe848638	-0.2588365
38	0x3f2b4073	0.66895217
39	0x3f47768a	0.7791525
40	0x3e441d81	0.1915188
41	0x3f735aab	0.95060223
42	0x3f7807b6	0.96886766
43	0x3facb0e8	1.3491488
44	0xbeeedeb9	-0.466543
45	0xbda61c3c	-0.08110854
46	0x3e9cfac4	0.3066007
47	0x3f2e562e	0.6810025
48	0x3f123445	0.57111007
49	0x3ec4ebda	0.3846119
50	0xbedbf45a	-0.42959863
51	0x3d0b8747	0.034064557
52	0x3edf4749	0.43609074
53	0x3e8ee3c5	0.2790815
54	0xbf5555ed	-0.8333424
55	0x3f8989d4	1.0745187
56	0xbf31cad2	-0.69450104
57	0xbf18a3d2	-0.5962497
58	0x3ed8aef9	0.42320994
59	0x3db7f764	0.08982733
60	0x3fc7d564	1.5611997
61	0xba89cf23	-0.0010514002
62	0x3d8bb589	0.068217345
63	0xbf280b07	-0.65641826
64	0x3f165766	0.5872711
65	0xbe451b54	-0.19248706
66	0x3f7eb3a8	0.99492884
67	0xbf59bbc7	-0.8505215
68	0xbf9cf6e3	-1.2262844
69	0xbd3b0d99	-0.045667265
70	0x3fa8346c	1.3140998
71	0x3f4e8ff2	0.80688393
72	0xbe370698	-0.17873609
73	0x3eb75900	0.3581009
74	0x3ebc3779	0.36761072
75	0x3f0777ba	0.52917063
76	0x3f817c0d	1.0115982
77	0xbc00a76a	-0.007852415
78	0x3f8b1c35	1.0867983
79	0x3e04f9dc	0.12985939
80	0xbf08a772	-0.533805
81	0xbd5b2895	-0.0535055
82	0xbf1be7f2	-0.60900795
83	0x3f1b4fd3	0.6066868
84	0x3e284ca9	0.16435494
85	0x3fc1757a	1.5113976
86	0xbfbb9506	-1.4654853
87	0xbb865829	-0.004099865
88	0xbd13c360	-0.036074996
89	0x3ea5c784	0.3237878
90	0x3f8b5d55	1.0887858
91	0x3f938300	1.1524353
92	0xbe6fbd15	-0.23411973
93	0xbff6d966	-1.9285095
94	0x3fa78b2e	1.3089349
95	0xbf1cf565	-0.6131194
96	0x3f05292e	0.5201596
97	0xbf47bf2a	-0.7802607
98	0xbe78c0ef	-0.24292348
99	0xbf612ed2	-0.8796207
100	0xbeca86e7	-0.39556047
101	0x3f8c4031	1.095709
102	0xbf633030	-0.88745403
103	0x3e9cd60a	0.3063205
104	0xbe159f2e	-0.14611503
105	0xbd0dcfbf	-0.03462195
106	0x3df7be38	0.12096828
107	0xbca13a9e	-0.019681271
108	0xbd2aa635	-0.041662414
109	0xbe24a04e	-0.16076776
110	0xbe3d2731	-0.18471982
111	0x3e5a4a5f	0.21317433
112	0x3f00a52c	0.5025203
113	0x3f18f71e	0.5975207
114	0xbe3e84b9	-0.18605317
115	0x3e806cac	0.2508291
116	0x3f196b73	0.5992958
117	0x3f3378db	0.70106286
118	0x3ebab2c8	0.36464524
119	0xbea8157a	-0.32828885
120	0xbf63f5e2	-0.8904706
121	0xbde1a4a7	-0.11017733
122	0x3e2ecb68	0.17069781
123	0x3e1f5df7	0.15563188
124	0xbe91f79f	-0.28509232
125	0xbfa695ee	-1.3014505
126	0x3fa5d42f	1.2955378
127	0xbf32ae7d	-0.697975
128	0xbf25d948	-0.6478467
129	0xbf86ca18	-1.0530424
130	0xbdf3dcec	-0.11907372
131	0x3f483880	0.7821121
132	0x3f1206a7	0.570414
133	0xbdf00ed9	-0.11721582
134	0x3f88bbd8	1.0682325
135	0xbf00a02c	-0.502444
136	0xbc4ae969	-0.012384751
137	0xbe4e2bdc	-0.20133919
138	0x3e96be22	0.29441935
139	0xbe4add1a	-0.19810906
140	0xbc9df8a4	-0.0192836
141	0xbe2a4261	-0.16626884
142	0x3edf9ff7	0.4367673
143	0xbed82741	-0.42217448
144	0x3e231a03	0.15927891
145	0x3e32f6be	0.17476937
146	0x3f4b0d9d	0.7931765
147	0x3eee3aea	0.46529323
148	0xbeb2c4d6	-0.349158
149	0xbeb64192	-0.355969
150	0x3eead99a	0.45869142
151	0x3f3bf1cd	0.73415834
152	0x3f3a9a5b	0.7289178
153	0xbeb22393	-0.34792766
154	0x3edd676e	0.43242973
155	0x3f4f1f74	0.8090737
156	0x3e2b8d57	0.16753136
157	0x3f05f576	0.5232767
158	0xbf013f56	-0.5048727
159	0xbd5f19da	-0.054468013
160	0x3d4f6b30	0.05063933
161	0xbf26f901	-0.652237
162	0xbeba40b1	-0.3637748
163	0x3f25243b	0.6450841
164	0x3e2545ad	0.1613986
165	0x3efd2485	0.49441925
166	0xbee6553e	-0.4498691
167	0xbee861d5	-0.4538714
168	0xbe7a1b2f	-0.24424432
169	0xbed6d773	-0.4196125
170	0xbe4201c5	-0.18945988
171	0xbe4fd135	-0.2029465
172	0x3f67e8b7	0.9058947
173	0xbe6610a1	-0.22467281
174	0x3f7a36ec	0.97740054
175	0xbefa8c53	-0.48935184
176	0x3f041ded	0.51608163
177	0x3f4e677e	0.80626667
178	0x3f72a84a	0.9478804
179	0xbf95f40d	-1.1715103
180	0x3e6674e1	0.22505523
181	0x3f73d0b0	0.95240307
182	0x3df52ec7	0.11971813
183	0x3eadb18a	0.33924514
184	0xbd9d8a87	-0.076924376
185	0x3fec5c43	1.8465656
186	0xbf900473	-1.1251358
187	0xbe541d03	-0.20714192
188	0x3ed6b692	0.41936165
189	0xbe721cbe	-0.23643777
190	0xbf446741	-0.7672005
191	0xbf003f25	-0.5009635
192	0x3f3b10e5	0.73072654
193	0x3fb1fe59	1.3905746
194	0x3f69ff8f	0.91405576
195	0xbc559ba3	-0.013037595
196	0xbf2a9e00	-0.6664734
197	0xbf6ae5d4	-0.9175694
198	0x3f4ce3f9	0.8003536
199	0x3f8a28c0	1.0793686
200	0xbf317443	-0.69318026
201	0x3d61cc1d	0.0551263
202	0xbe9e5849	-0.3092673
203	0x3e5643c3	0.20924287
204	0x3f6fc111	0.9365397
205	0xbc3e707c	-0.011623498
206	0x3f42a36c	0.7603061
207	0x3e60cb60	0.21952581
208	0x3f1f7451	0.6228686
209	0x3e5b562c	0.2141959
210	0x3f28b313	0.65898246
211	0xbecf7913	-0.4052206
212	0xbe75e7dd	-0.2401423
213	0x3ec24cad	0.37949124
214	0x3f5af40f	0.85528654
215	0xbe53b7e8	-0.20675623
216	0xbe05d69b	-0.13070147
217	0x3e8de223	0.2771159
218	0x3d8d5d15	0.069025196
219	0x3e86e4c8	0.2634642
220	0x3d810424	0.06299618
221	0xbe6af5ce	-0.2294533
222	0xbddb9894	-0.10722461
223	0xbe5bd59f	-0.21468209
224	0x3f08b0b8	0.5339465
225	0x3eb63f11	0.3559499
226	0x3ef4e876	0.47833604
227	0xbdaeeb01	-0.08540917
228	0xbf0c4597	-0.54793686
229	0x3e9a5ed5	0.30150476
230	0x3f3f2e1d	0.7467974
231	0x3e98f96c	0.29877794
232	0x3f0d6180	0.552269
233	0x3f0322df	0.51225084
234	0xbedd7185	-0.4325067
235	0xbe6288bc	-0.22122473
236	0x3ec450f8	0.38343024
237	0x3da112ba	0.078649
238	0x3fe25d65	1.7684752
239	0xbf6359b0	-0.8880873
240	0x3f9d4166	1.2285583
241	0x3f93c438	1.1544256
242	0x3f5a8a67	0.85367435
243	0xbf2614bf	-0.64875406
244	0x3e8fdd8b	0.2809871
245	0x3efbbdbb	0.4916819
246	0x3ed98a56	0.42488354
247	0x3f92b63a	1.1461861
248	0x3ef9d874	0.48797953
249	0xbd95c1cc	-0.073123544
250	0x3f51da0a	0.81973326
251	0xbf1d379f	-0.61412996
252	0x3edf5e99	0.4362686
253	0x3f7cc164	0.9873259
254	0x3f3d96fa	0.74058497
255	0x3f41b93f	0.7567329

0.bias f4 [128]
0	0x3ef9631b	0.48708424
1	0x3ebbb121	0.36658576
2	0x3ecf5754	0.40496314
3	0x3f53fc12	0.82806504
4	0x3f0b2177	0.5434794
5	0x3e133861	0.14376976
6	0x3f0284eb	0.50984067
7	0xbdd40b02	-0.10353662
8	0x3eba43a6	0.36379737
9	0x3ec190d0	0.37805796
10	0x3f42ed62	0.7614347
11	0x3f203a24	0.62588716
12	0x3f9921e3	1.1963466
13	0xbe40ac2b	-0.18815677
14	0x3f00c233	0.50296324
15	0x3fb9550b	1.4479078
16	0x3f459ff1	0.77197176
17	0x3f82b21c	1.0210605
18	0x3da2496a	0.07924159
19	0x3e35befa	0.17748633
20	0x3f583d7d	0.84468824
21	0x3ebf979c	0.37420356
22	0x3e63ee7a	0.2225894
23	0x3ec873ac	0.3915075
24	0xbef2864b	-0.47368082
25	0x3edeb04f	0.43493888
26	0x3f0f49f5	0.55972224
27	0xbeb0ecbb	-0.3455561
28	0x3f1c9492	0.611642
29	0x3e0f7446	0.14009199
30	0xbd5bd053	-0.05366547
31	0x3e9416f0	0.2892375
32	0x3f0d9006	0.5529789
33	0x3ef07168	0.46961522
34	0x3f2b23ba	0.6685139
35	0x3efcffe9	0.49413994
36	0x3e85b344	0.2611333
37	0xbce8a2fb	-0.028398028
38	0xbf2d4664	-0.6768553
39	0xbe93547a	-0.28775388
40	0x3fb7c0a8	1.4355669
41	0x3ecbddfc	0.39817798
42	0x3f7bf962	0.984274
43	0x3eb25596	0.34830922
44	0x3f4895e7	0.7835373
45	0x3dfdcba9	0.12392361
46	0x3e79142e	0.24324104
47	0x3ec9c110	0.39405107
48	0x3ebfaed1	0.37438062
49	0x3d37217a	0.04470966
50	0xbe64ad7e	-0.22331807
51	0x3f199d31	0.6000548
52	0xbdf81cdd	-0.1211488
53	0x3f0e6992	0.5562984
54	0x3f8085b7	1.0040807
55	0x3f4400d3	0.7656376
56	0x3ed787e6	0.4209587
57	0x3f1dfed3	0.61716956
58	0x3f14b5fc	0.58090186
59	0x3d7532af	0.05986279
60	0x3efa6cf2	0.48911244
61	0x3efd7778	0.4950521
62	0xbd3a3123	-0.045457017
63	0x3ef7c1a1	0.48389915
64	0x3f74702d	0.95483667
65	0x3e820c51	0.25400022
66	0x3f78399f	0.9696292
67	0x3f27bec3	0.65525454
68	0xbe9873ae	-0.29775757
69	0x3f25accd	0.647168
70	0xbe08cb7f	-0.13358878
71	0xbc5ee868	-0.013605215
72	0xbe825614	-0.25456297
73	0x3f3d3ac2	0.7391778
74	0xbebe2d23	-0.37143812
75	0x3f3b9219	0.732698
76	0x3ebcd746	0.3688299
77	0xbc9103d3	-0.017702019
78	0xbec33753	-0.38128147
79	0xbd9833a4	-0.07431725
80	0x3e8f8a7c	0.28035343
81	0xbe775966	-0.24155197
82	0x3e874939	0.26423052
83	0x3ecac32b	0.39602026
84	0x3f869cd5	1.0516611
85	0x3f68ff53	0.91014594
86	0xbeab4c07	-0.33456442
87	0x3e040059	0.12890758
88	0xbe89bcc0	-0.26901817
89	0x3e85c655	0.26127878
90	0x3f929f24	1.1454816
91	0x3ef03946	0.46918696
92	0x3ef6b8c6	0.48187846
93	0x3ece092d	0.40241376
94	0x3ee4ef85	0.4471399
95	0x3e90ad99	0.28257445
96	0x3f02f3b0	0.5115309
97	0x3e1293b4	0.14314157
98	0xbe60554d	-0.2190754
99	0x3eeb7ae8	0.45992208
100	0x3f114c72	0.5675727
101	0x3f34cf25	0.7062858
102	0x3dd74ea3	0.10513046
103	0x3f67f578	0.9060893
104	0x3f2409f3	0.6407768
105	0xbe317249	-0.17328753
106	0x3f0797dc	0.52966094
107	0x3f467e64	0.77536607
108	0x3aaa5e29	0.0012998033
109	0x3dc756f7	0.09733384
110	0x3f23fa36	0.64053667
111	0x3ef259de	0.47334188
112	0x3f0db4aa	0.55353796
113	0x3f4f03e5	0.8086532
114	0xbea0aa06	-0.31379718
115	0x3f9fbfa9	1.2480365
116	0xbeb31b39	-0.34981707
117	0x3ebfe1f6	0.37477082
118	0x3f3f9158	0.7483115
119	0xbcbbccaa	-0.02292474
120	0x3ede6979	0.43439844
121	0x3f916443	1.1358722
122	0x3f01c2a5	0.5068763
123	0x3f255306	0.6457981
124	0x3e62a93f	0.22134875
125	0x3f0a164a	0.5394026
126	0x3ee0f2d3	0.4393526
127	0xbea4483e	-0.32086366

2.weight f4 [128, 128]
0	0x3cb6758d	0.02227285
1	0x3dac8e67	0.084255986
2	0x3c581830	0.0131893605
3	0xbb239584	-0.0024960944
4	0x3d52dc14	0.051479414
5	0x3bd3aa4c	0.00645951
6	0x3cc4acd5	0.024008194
7	0x3a24b9ba	0.0006283779
8	0xbd6be2a4	-0.05758919
9	0x3da046be	0.07825993
10	0x3d5911f9	0.052995656
11	0x3d974522	0.07386233
12	0x3d47ce6a	0.048780836
13	0x3cdd87c6	0.02704228
14	0x3cd9820d	0.02655127
15	0x3cce90fb	0.025215616
16	0x3c19891b	0.009371067
17	0x3a9ffa36	0.0012205306
18	0xbbefa945	-0.0073138797
19	0xbdaf8417	-0.08570116
20	0x3d919774	0.071089655
21	0xbd8d2beb	-0.06893142
22	0xbca3a7fd	-0.019977564
23	0x3ceffdf7	0.029295905
24	0xbd85d72f	-0.06535184
25	0xbd9841e5	-0.074344434
26	0xbbcdbecb	-0.006278848
27	0x3d170bd3	0.03687651
28	0x3d84a417	0.0647661
29	0xbc8f81d2	-0.017517958
30	0xbd350bfa	-0.044200875
31	0xbcdd245c	-0.026994877
32	0xbca1ea94	-0.019765176
33	0xbd8f1d38	-0.06987995
34	0xbd03374e	-0.032035165
35	0x3c0f0531	0.008729265
36	0xbd8b1743	-0.06791546
37	0x3d9298cf	0.07158052
38	0xbc14d71c	-0.009084489
39	0xbd781391	-0.060565535
40	0xbdaa481c	-0.08314535
41	0xbd8087b5	-0.06275884
42	0x3c105b42	0.00881082
43	0x3c472151	0.012153939
44	0x3cfff9fe	0.031247135
45	0x3c8e80b3	0.017395353
46	0xba84d13b	-0.0010133156
47	0xbd79cd14	-0.060986593
48	0xbb0ef450	-0.0021813102
49	0xbd5e7b70	-0.054316938
50	0x3db2af5a	0.08724852
51	0xbd170e55	-0.036878902
52	0xbd4bcebc	-0.049757704
53	0xbcff83cc	-0.031190775
54	0xbd37244e	-0.044712357
55	0x3ce4b3a5	0.027917692
56	0x3d606c4b	0.054790776
57	0xbd6ee1a5	-0.05832066
58	0xbd3528db	-0.044228416
59	0xbc93dbe9	-0.018049197
60	0x3cfdf23f	0.030999301
61	0x3ca1fdf5	0.019774416
62	0x3d9a4fda	0.07534762
63	0xbcf26eb2	-0.0295938
64	0x3c71c465	0.014756297
65	0x3dac88e1	0.08424545
66	0xbd260fef	-0.04054254
67	0xbc07a905	-0.0082800435
68	0xbd782101	-0.06057835
69	0xbdabbcc3	-0.08385613
70	0xbc56bb74	-0.013106216
71	0xbd0aed35	-0.033917625
72	0x3becd575	0.0072275945
73	0xbd4be034	-0.049774364
74	0x3a42e4bf	0.00074345985
75	0xbca7678e	-0.02043512
76	0xbd200cf3	-0.03907485
77	0xbd5bd594	-0.05367048
78	0xbd858990	-0.065203786
79	0xbc0c3f59	-0.008560025
80	0x3db195f2	0.08671178
81	0x3d9f7a34	0.0778698
82	0xbd5a38f0	-0.053276956
83	0x3d47ff70	0.04882759
84	0xbc1975cb	-0.009366463
85	0x3bc30984	0.005952062
86	0x3d45df43	0.048308622
87	0x3cc1ac8f	0.023641853
88	0x3db40486	0.08789925
89	0x3dade47d	0.08490846
90	0xbd5a50e4	-0.0532998
91	0xba9d0dbd	-0.0011982244
92	0x3d81eaa5	0.06343583
93	0xbdb2d93e	-0.08732842
94	0x3cddf0e4	0.027092405
95	0xbd8584b1	-0.065194495
96	0xbd07d85f	-0.033165332
97	0xbc589f3f	-0.013221561
98	0x3d1cf281	0.038317207
99	0x3d14e631	0.03635234
100	0x3d137a22	0.036005147
101	0xbd856be2	-0.06514718
102	0xbcd18d19	-0.025579976
103	0x3d96ee46	0.07369666
104	0xbd62aa25	-0.055338044
105	0xbc02dc11	-0.007987038
106	0x3b95a832	0.0045671696
107	0xbcd9802c	-0.026550375
108	0x3cb804cd	0.022463227
109	0x3daaf584	0.0834761
110	0x3d855777	0.06510823
111	0xb9618b83	-0.00021509644
112	0xba8dc9e9	-0.001081762
113	0xbcfe519e	-0.031044777
114	0x3ced6bdf	0.028982101
115	0x3d3fea00	0.04685402
116	0xbceab5de	-0.028651174
117	0xbd515452	-0.051105805
118	0x3da96270	0.082707286
119	0xbd481ea3	-0.048857342
120	0xbcedc0ae	-0.02902254
121	0xbdaf329b	-0.08554574
122	0xbd1785a2	-0.036992677
123	0x3cdfb987	0.027310146
124	0xbd89cf3a	-0.067289785
125	0xbd168b68	-0.036754042
126	0x3ca047d1	0.019565495
127	0x3bfbec78	0.0076881014
128	0x3e4c2224	0.19934899
129	0x3e3d46bc	0.18484014
130	0x3ee8fc4c	0.45504987
131	0x3f05246e	0.5200871
132	0x3f6cad48	0.92451906
133	0x3c5023e7	0.012703872
134	0x3eeaa625	0.45829883
135	0xc08f734b	-4.482824
136	0x3f180bd9	0.5939308
137	0x3eb25876	0.34833115
138	0x3f10b527	0.56526417
139	0x3f488a00	0.7833557
140	0x3f5f7f2e	0.87303436
141	0x3d363367	0.044482615
142	0x3dfe7e57	0.12426441
143	0xbf3f4769	-0.7471834
144	0x3f5781eb	0.84182614
145	0x3eddef78	0.43346763
146	0x3e94d143	0.29065904
147	0x3e8fea4f	0.2810845
148	0x3ec613fa	0.38687116
149	0x3d0f7195	0.03502043
150	0x3eeecc06	0.46640033
151	0xbff91f95	-1.9462763
152	0xbebc0081	-0.36719134
153	0x3f2b6ad8	0.66959906
154	0xbe237f10	-0.15966439
155	0x3da90113	0.08252158
156	0xbe12d39c	-0.14338535
157	0xbe72f1d8	-0.23725069
158	0xbf0e7472	-0.5564643
159	0x3e3eb90e	0.1862528
160	0x3e992399	0.2990997
161	0x3e462904	0.19351584
162	0x3dba5241	0.0909772
163	0xbeb4df97	-0.35326836
164	0xbfb502f0	-1.4141521
165	0x3fa8b71b	1.3180879
166	0xbfab6b27	-1.3392075
167	0xbdd86788	-0.10566622
168	0x3fa9fd31	1.3280393
169	0xbec81b56	-0.39083356
170	0x3f1ceeee	0.6130208
171	0xbd00adfc	-0.031415924
172	0x3f59eaad	0.8512371
173	0x3ee42c64	0.44565117
174	0xbfa8031c	-1.3125949
175	0xbea3e7fc	-0.32012928
176	0x3f987fbf	1.1913985
177	0xbda9d66a	-0.08292849
178	0x3d9f2200	0.07770157
179	0x3dd2dc65	0.10295943
180	0x3e54b3c9	0.20771708
181	0x3f314134	0.6924012
182	0x3f2ca11c	0.67433333
183	0xbf5b95f4	-0.85775685
184	0xbd2d9471	-0.042377893
185	0x3e04159e	0.12898871
186	0x3eed7522	0.46378428
187	0x3eecd43d	0.46255675
188	0x3f484c76	0.7824167
189	0x3ec2d895	0.38055864
190	0xbf095760	-0.5364895
191	0x3f0f8fc7	0.5607876
192	0x3f296360	0.6616726
193	0xbf43ea8e	-0.7652978
194	0x3d64b0c9	0.055832658
195	0xbe958ba3	-0.29208097
196	0x3f828951	1.0198156
197	0xbd07cf28	-0.033156544
198	0xbd226085	-0.03964283
199	0x3ea6e700	0.32598114
200	0xbce9d567	-0.028544141
201	0x3d86b696	0.06577794
202	0xbed8382d	-0.4223036
203	0x3f3a1b1d	0.7269762
204	0x3f383cf0	0.71967983
205	0x3ef47c1b	0.47750935
206	0xbe3310ba	-0.1748685
207	0xbdc2eecd	-0.09518204
208	0x3ef9d690	0.4879651
209	0x3d2eb21e	0.042650335
210	0x3e701ae7	0.23447762
211	0x3f8e79f4	1.1130967
212	0x3f965e52	1.1747534
213	0xc021d4de	-2.5286174
214	0x3f5ec711	0.870225
215	0xbd8c39c0	-0.068469524
216	0xbd56b883	-0.052422058
217	0x3f3fa494	0.748605
218	0x3ed67449	0.41885594
219	0x3e56c93a	0.209752
220	0xc033b4fa	-2.807921
221	0x3eb824b9	0.35965517
222	0x3f5a4d5e	0.852743
223	0x3e346084	0.17614943
224	0xbce4607f	-0.027878044
225	0x3f22362f	0.6336393
226	0xbd38cc62	-0.04511679
227	0x3df96463	0.1217735
228	0x3d82b599	0.06382293
229	0x3ef21537	0.4728181
230	0xbeba16cf	-0.36345527
231	0x3f1623f3	0.58648604
232	0x3ee045e3	0.4380332
233	0x3e444c49	0.19169725
234	0xbe68832e	-0.22706291
235	0x3f19bef4	0.60056996
236	0x3f81a176	1.0127399
237	0x3ee66d35	0.45005193
238	0x3f8c6ce7	1.0970734
239	0xbf9c11df	-1.2192954
240	0x3c9c41b3	0.019074297
241	0x3f3f1016	0.7463392
242	0x3db2ceaf	0.08730828
243	0xbf2f4246	-0.684605
244	0xbd28f484	-0.041248813
245	0x3fc65dd5	1.5497385
246	0x3f1eb14e	0.61989295
247	0x3fef86c1	1.8712999
248	0xbfcc2a28	-1.5950365
249	0xbe9c10f6	-0.3048169
250	0x3fa4082c	1.2814994
251	0x3ea0ba1c	0.3139199
252	0x3ed0fc18	0.40817332
253	0x3f081954	0.5316365
254	0xbd917329	-0.07102043
255	0xbd8dd1fc	-0.06924817

2.bias f4 [128]
0	0xbc97a9ee	-0.018513646
1	0x3ea79719	0.32732466
2	0x3e911b4b	0.28341135
3	0x3e1c5681	0.15267374
4	0x3ec7854c	0.38968885
5	0x3e0f605f	0.14001606
6	0x3cc38a85	0.023869762
7	0x3d484e18	0.0489026
8	0x3e893044	0.26794636
9	0x3ea83b69	0.32857826
10	0x3ed596a3	0.4171649
11	0x3d082488	0.033237964
12	0xbcac3a35	-0.021023849
13	0xbdf801c4	-0.12109712
14	0x3d9b6d87	0.0758925
15	0x3ebecc05	0.3726503
16	0x3e68d927	0.22739087
17	0x3ef19446	0.47183436
18	0xbde906a6	-0.11378221
19	0x3e925c8f	0.28586242
20	0xbd546af4	-0.05185981
21	0x3cae7d7b	0.021300068
22	0x3d5d74f8	0.05406663
23	0x3ec3dc58	0.38254046
24	0x3ed59fbf	0.4172344
25	0x3dbbc2f6	0.09168045
26	0xbd261d74	-0.040555432
27	0x3d44890c	0.04798226
28	0xbd8b012c	-0.06787333
29	0x3e54df14	0.20788223
30	0xbd2e3964	-0.0425352
31	0xbe9d1119	-0.30677107
32	0xbc0ac7ef	-0.008470519
33	0x3d818c78	0.063256204
34	0xbe73f3ba	-0.23823443
35	0xbe02b9af	-0.12766145
36	0x3ec7cbb5	0.39022604
37	0x3d226fc1	0.039657358
38	0x3e83e2d4	0.25758994
39	0x3e3c0ea2	0.18364957
40	0x3e4a0781	0.19729425
41	0x3e938e41	0.2881947
42	0x3e8e685a	0.2781399
43	0xbdbd60f8	-0.09247011
44	0xbdad44e8	-0.084604084
45	0x3f063338	0.52421904
46	0x3ed40833	0.41412506
47	0x3f878e58	1.0590315
48	0x3ebc93c1	0.36831477
49	0x3ea6a660	0.3254881
50	0x3e87aa54	0.26497138
51	0x3f5945e3	0.84872264
52	0xbd9e2b63	-0.07723119
53	0xbe1e26f4	-0.15444547
54	0x3e9b6d95	0.30357042
55	0xbce77334	-0.028253175
56	0x3f1475de	0.5799235
57	0xbe6ca580	-0.23110008
58	0x3e0155ef	0.12630437
59	0x3ed08266	0.40724486
60	0x3edd1772	0.4318195
61	0xbdc8295f	-0.09773516
62	0x3e47fe55	0.19530614
63	0x3e88ad4f	0.26694724
64	0x3de24462	0.11048199
65	0xbdd5e974	-0.10444918
66	0x3e8c8cf8	0.274513
67	0x3e954030	0.29150534
68	0x3cf48b0f	0.029851465
69	0xbd81b252	-0.0633284
70	0xbe133dff	-0.14379118
71	0x3ea33ea2	0.31883723
72	0xbc853bcc	-0.016263865
73	0x3eac873d	0.3369693
74	0x3ea594b4	0.32340014
75	0x3dcd4210	0.10022366
76	0x3c1c8bf0	0.009554848
77	0xbdaa5c4a	-0.08318384
78	0x3ed439f3	0.41450462
79	0xbaba019b	-0.0014191152
80	0x3e570471	0.20997788
81	0x3d8704f4	0.065927416
82	0x3edb484b	0.42828593
83	0xbd82cee7	-0.0638712
84	0x3e287345	0.16450222
85	0x3c119f07	0.008888013
86	0xbce33a97	-0.027737899
87	0x3c454c25	0.01204208
88	0xbd0c0be2	-0.03419102
89	0x3ef9ec81	0.4881325
90	0x3e611323	0.21979956
91	0x3e18252d	0.14857931
92	0xbc900f0b	-0.017585298
93	0x3ec0d6b0	0.37663794
94	0x3e52a412	0.205704
95	0x3ed1eda9	0.41001633
96	0x3ed4a6d7	0.4153354
97	0x3e975c64	0.29562676
98	0xbe7bf35b	-0.24604551
99	0x3e5f97ed	0.21835299
100	0xbda3a27e	-0.07989977
101	0x3e84cf97	0.25939628
102	0x3ebd8bb2	0.37020642
103	0x3f1bbaa7	0.60831684
104	0x3dadb584	0.08481887
105	0x3e99e300	0.30056
106	0x3dea2744	0.114332706
107	0x3f1f210c	0.621598
108	0x3e018414	0.1264804
109	0xbf4105b8	-0.7539935
110	0x3d04aa17	0.032388773
111	0x3d0e17fb	0.03469084
112	0x3e2715de	0.16316935
113	0x3d935642	0.07194187
114	0x3e010e3d	0.12603088
115	0x3e5cc146	0.21558103
116	0xbd9a2459	-0.07526464
117	0x3e9cb8d4	0.30609763
118	0x3eb6995a	0.35663873
119	0xbed1511e	-0.408822
120	0x3ecad534	0.39615786
121	0x3d6bad9d	0.057538617
122	0x3e88e47e	0.26736826
123	0xbd9ac2de	-0.07556699
124	0xbd0273f9	-0.03184888
125	0x3d92fd7b	0.07177254
126	0x3edba179	0.4289663
127	0x3ddec192	0.10876764

4.weight f4 [6, 128]
0	0x3cfeb032	0.031089876
1	0x3e0fc81d	0.14041181
2	0xbf9e82f1	-1.238371
3	0xbf8d6d9f	-1.1049079
4	0x3ee7ce8e	0.45274776
5	0xbf8c3313	-1.0953087
6	0xbad523e5	-0.0016261308
7	0xbf9337ac	-1.1501365
8	0x3f0f1c13	0.5590221
9	0x3effb9fa	0.49946576
10	0x3e3988c8	0.18118584
11	0xbd8b4346	-0.06799941
12	0xbcf5139a	-0.029916573
13	0x3fbf3cf7	1.494048
14	0xbf845595	-1.0338618
15	0x3e098ed0	0.13433385
16	0xbf319527	-0.69368213
17	0x3ee9c4b4	0.45657885
18	0x3f5a4154	0.8525593
19	0x3f10f253	0.5661976
20	0xbd2fd1d5	-0.04292472
21	0xbd2110b9	-0.03932259
22	0x3be87499	0.0070939776
23	0x3f11366c	0.56723666
24	0x3e4e5b7f	0.2015209
25	0xbf690692	-0.9102565
26	0xbf83d297	-1.0298642
27	0xbf75a084	-0.9594805
28	0x3ceb8a9e	0.028752621
29	0x3f1dc7a7	0.6163277
30	0x3d8ee483	0.06977179
31	0xc01e6831	-2.4751093
32	0x3ce312a3	0.027718848
33	0x3fd4652c	1.6593375
34	0xbfbf6ae4	-1.4954495
35	0xbf73b485	-0.95197326
36	0x3e00fd89	0.12596716
37	0xbf86b9e0	-1.0525475
38	0x3f21f82d	0.6326931
39	0xbfa14891	-1.260027
40	0xbfa59ce6	-1.2938507
41	0xc00c82ae	-2.195476
42	0x3dfd3efb	0.12365528
43	0x3d6aa043	0.057281744
44	0x3d93178c	0.071822256
45	0x3f7ae88d	0.98011094
46	0x3e78adb2	0.2428501
47	0x3c618f23	0.013767037
48	0x3ebdf6af	0.37102267
49	0x3f054b1c	0.5206773
50	0x3fa1dd73	1.2645706
51	0x3f7116af	0.9417524
52	0x3f9e5c82	1.2371981
53	0x3fd05008	1.6274424
54	0x3f3c0824	0.7344992
55	0x3d90432d	0.07044063
56	0x3e32e81f	0.1747136
57	0x3f88644c	1.0655608
58	0x3f1c5fb6	0.61083543
59	0x3f411d44	0.7543528
60	0x3f038788	0.5137868
61	0x3fb5b3d8	1.4195509
62	0xbf98801b	-1.1914095
63	0x3f028268	0.50980234
64	0xbf81b7ea	-1.0134251
65	0x3f5fec33	0.87469786
66	0x3effa8e6	0.49933547
67	0x3f077fe2	0.5292951
68	0xbc70daa6	-0.014700567
69	0x3d8f1a51	0.06987441
70	0x3ed21a89	0.4103587
71	0x3f15ad31	0.58467394
72	0xbf5793bc	-0.842098
73	0x3f251b82	0.644951
74	0x40001838	2.0014782
75	0xbf95f380	-1.1714935
76	0x3d842913	0.06453147
77	0x3d4a3528	0.0493671
78	0x3eb6a84b	0.35675272
79	0xbf99edac	-1.2025657
80	0xbf9670ed	-1.1753212
81	0xbd8e6675	-0.06953136
82	0x3ee7aaca	0.4524749
83	0x3f4a76fa	0.79087794
84	0x3f0510ef	0.51978964
85	0xbf6e568c	-0.9310081
86	0xbd2641ec	-0.04059021
87	0xbf327634	-0.69711614
88	0xbd72d4e8	-0.059285074
89	0x3e8c9a0c	0.27461278
90	0x3f0b04fa	0.5430447
91	0xbf89e951	-1.0774328
92	0x3c83e4ec	0.01610037
93	0x3ec7c331	0.39016107
94	0x3f0991ed	0.5373829
95	0x3ed8ecca	0.42368156
96	0x3f0c3c52	0.5477954
97	0x3eee5f13	0.4655691
98	0x3f91f40a	1.14026
99	0xbff86a20	-1.9407387
100	0x3d367f46	0.04455497
101	0x3efc5c5c	0.49289215
102	0x3e206742	0.1566439
103	0xbfd7f88d	-1.6872727
104	0xbf8772a1	-1.0581857
105	0x3f2bb197	0.67067856
106	0x3f8b83d2	1.0899603
107	0x3f025f79	0.5092693
108	0x3e509020	0.2036748
109	0x3fd321dc	1.6494708
110	0x3ecd7e8a	0.40135604
111	0xbd544f44	-0.051833406
112	0xbf9f2447	-1.2432946
113	0xbd8fa8a1	-0.07014585
114	0xbf85fe6b	-1.0468267
115	0x3f30f625	0.69125587
116	0x3f73f742	0.9529916
117	0xbf9b809f	-1.2148627
118	0x3dc97e53	0.098385476
119	0x40040f1d	2.0634224
120	0x3e58ee58	0.21184671
121	0xbfe19737	-1.7624272
122	0x3ea15337	0.315088
123	0x3d59dd2e	0.05318945
124	0x3f4dc57c	0.8037946
125	0x3f96efd9	1.1791946
126	0x3eab3448	0.33438325
127	0xbf7ddd43	-0.99165744
128	0x3d18a25b	0.03726421
129	0x3f42bfa1	0.7607365
130	0x3f52a13c	0.82277274
131	0x3f2dc0ac	0.6787212
132	0xbf421619	-0.7581497
133	0x3f273a0b	0.6532294
134	0xbc662bd3	-0.014048534
135	0x3f3ca3b4	0.7368729
136	0x3e53ed65	0.20696028
137	0xbf536517	-0.82576126
138	0x3cbee9e9	0.023304896
139	0xbda10def	-0.07863986
140	0xbcfc81bd	-0.030823583
141	0xbfd0bc7d	-1.6307522
142	0x3f0ee1af	0.55813116
143	0x3f37b100	0.71754456
144	0x3f687aac	0.9081218
145	0xbef5d287	-0.48012182
146	0xbf3acc9c	-0.7296846
147	0x3e397e53	0.18114595
148	0xbd693879	-0.056938622
149	0x3db3235f	0.08746981
150	0xbd23515a	-0.039872505
151	0xbde28c17	-0.11061876
152	0x3f35b071	0.70972353
153	0x3f0a4315	0.5400861
154	0x3eec5b17	0.46163246
155	0x3ef7645f	0.48318765
156	0xbd9f584b	-0.077805124
157	0xbf88fb1c	-1.0701632
158	0x3d2a1fb6	0.04153415
159	0x401ea700	2.4789429
160	0xbd9a421a	-0.07532139
161	0xbf93a893	-1.153582
162	0x3ffbbdd7	1.966731
163	0x3ebf6dca	0.3738845
164	0x3f428f88	0.7600026
165	0x3f104d31	0.56367785
166	0x3d4ff069	0.050766382
167	0x3f515eb2	0.8178512
168	0x3f3fe0cd	0.74952394
169	0x3fd80282	1.6875765
170	0x3f3fe5b6	0.74959886
171	0x3d47deb0	0.048796356
172	0xbd95ae48	-0.07308632
173	0xbf754518	-0.95808554
174	0x3ede2c36	0.43393105
175	0xbed36c15	-0.41293398
176	0xbf0e6752	-0.55626404
177	0xbf75e6b4	-0.9605515
178	0xbfb593a8	-1.4185686
179	0xbf6b87ef	-0.92004293
180	0xbf897dfb	-1.0741571
181	0xbfc31f1f	-1.5243872
182	0xbf93ded6	-1.1552379
183	0x3c523392	0.012829678
184	0x3f1d18e7	0.6136612
185	0xbf8cf67a	-1.1012719
186	0xbf3d87f0	-0.7403555
187	0xbf813083	-1.009293
188	0xbf60e6f2	-0.87852395
189	0xbfd8b972	-1.6931593
190	0x3f3f8d9f	0.7482547
191	0x3e6478af	0.22311662
192	0x3f0cb1fa	0.5495907
193	0xbf83873a	-1.0275643
194	0x3e889ad2	0.2668062
195	0x3e66faa7	0.22556554
196	0x3d977bd0	0.07396662
197	0xbd42970e	-0.04750734
198	0xbe8994a5	-0.2687122
199	0x3e12ab65	0.14323194
200	0x3ef38793	0.47564372
201	0xbf88ed31	-1.0697385
202	0xc01dc0be	-2.464889
203	0x3f278b8e	0.6544732
204	0xbc9f9f0a	-0.019485015
205	0x3d38a924	0.04508318
206	0x3ee963dc	0.45584
207	0x3f375307	0.71611065
208	0x3f464ef0	0.774642
209	0x3c98c2dd	0.018647606
210	0xbf057bc8	-0.52142
211	0xbf481588	-0.78157854
212	0x3e6f5453	0.23372011
213	0x3ee7ec22	0.45297343
214	0x3da5d6ab	0.08097585
215	0x3eaa1ff2	0.33227497
216	0x3d0a0623	0.03369726
217	0x3ef0abcf	0.4700608
218	0x3e9cc904	0.30622113
219	0x3f232863	0.637335
220	0xbc2c0dae	-0.010501308
221	0xbf037cda	-0.51362383
222	0x3e80889d	0.25104228
223	0xbee5131f	-0.4474115
224	0xbf71939f	-0.94365877
225	0xbf3976ca	-0.7244688
226	0xbf8ad4b9	-1.0846168
227	0x3fdb3e77	1.7128438
228	0xbd9f35e8	-0.07773954
229	0x3ebf99d4	0.3742205
230	0x3f381ba4	0.71917176
231	0x3fb9ccaa	1.4515584
232	0x3f13eb3c	0.57780814
233	0xbf3f6e6d	-0.7477787
234	0xbfc69843	-1.5515217
235	0xbf5c7064	-0.86108994
236	0xbed83f59	-0.4223583
237	0xbf9030b0	-1.1264858
238	0xbea20950	-0.3164773
239	0xbd77f66d	-0.060537744
240	0x3f517fe6	0.8183578
241	0x3d944420	0.07239556
242	0x3f189c33	0.5961334
243	0xbf938eb2	-1.1527922
244	0xbf033421	-0.5125142
245	0x3f4e8c56	0.80682886
246	0x3f33881d	0.7012957
247	0xbfd6cf80	-1.6782074
248	0x3ee6f425	0.45108142
249	0x3ff776c3	1.9333118
250	0x3e674a2a	0.22586885
251	0x3d76d4e8	0.060261637
252	0xbf396967	-0.72426456
253	0xbfa68419	-1.3009063
254	0xbf0b8ef5	-0.5451501
255	0x3f1afa90	0.6053858

4.bias f4 [6]
0	0x3e3f06a8	0.18654883
1	0x3dfb8552	0.12281288
2	0x3e8cdbfb	0.27511582
3	0xbe197307	-0.14985286
4	0xbd006e02	-0.03135491
5	0xbd4a36fa	-0.049368836

6.weight f4 [2, 6]
0	0xc00e18b8	-2.2202587
1	0x400605d4	2.0941057
2	0xbf8ad23f	-1.0845412
3	0x3f6fd84b	0.9368941
4	0x3e021721	0.12704135
5	0xbfb707ac	-1.4299216
6	0xbe243058	-0.16034067
7	0x3e3369d4	0.17520839
8	0x4005d763	2.0912712
9	0xc05a456b	-3.410487
10	0xbe959252	-0.29213196
11	0x3fe9102a	1.8208058

6.bias f4 [2]
0	0x3e88cfd4	0.2672106
1	0xbf9a1c46	-1.2039878
