data/models/model_demonstrator_normalized_13_12_2024_17-15-23.pth (torch, 30252 bytes, 6 tensors)

0.weight f4 [76, 8]
000000 9a 60 77 be 50 55 a0 bd e8 61 36 be c0 f4 38 3c
       -0.24157944 -0.07828772 -0.17810786 0.011288822
000010 44 17 88 be 02 0c 96 be c8 5e 9a bd b4 b6 e8 3d
       -0.2658025 -0.29306036 -0.07537609 0.11362973
000020 d7 e7 0a bf 3a 8a 2a bf 44 11 2b bf 91 53 fc be
       -0.5426001 -0.66617167 -0.6682322 -0.49282506
000030 a5 d7 09 3f f2 44 86 3e c5 73 c9 be 12 90 12 be
       0.5384467 0.26224476 -0.39346138 -0.14312771
000040 c4 cc 2c bf 0b c5 b2 3e 53 dc 7d 3e 5c 14 2e bf
       -0.6749995 0.34915957 0.24791078 -0.67999816
000050 30 32 2d be 1c 1b 38 bf 8b 5d 57 be e4 20 53 bf
       -0.16913676 -0.71916366 -0.21031778 -0.8247206
000060 03 b4 78 be 87 d9 3e bf bf dc 3a bf 20 e8 8c be
       -0.24287419 -0.7455067 -0.7299308 -0.27520847
000070 45 05 f0 be 4f ee 08 bf ee 1e 3a bf 37 cf 10 bf
       -0.4687902 -0.5348863 -0.72703445 -0.56566185
000080 b8 8f e4 3e e4 dc 1f be 34 0f 30 3f 19 ab 3d be
       0.446409 -0.15611607 0.687732 -0.185223
000090 1b 60 e1 be a2 e5 4c bf ec 1e 36 bf 32 a0 d4 be
       -0.44018635 -0.8003789 -0.71140933 -0.4152847
0000a0 32 10 e5 be 3b ba 3c 3e df c2 c2 be cd 89 4f 3f
       -0.4473892 0.18430416 -0.380393 0.8106964
0000b0 f5 08 52 bf 8e a5 ed be aa fa 89 be 81 9e 0c bf
       -0.8204492 -0.4641537 -0.26949054 -0.5492936
0000c0 76 90 cc 3e 41 49 8f be 2e 48 ca be f4 b7 48 3f
       0.39953965 -0.27985576 -0.39508194 0.7840569
0000d0 86 3d 7d c0 4d f0 5a 3f 2f 21 15 bf 55 a1 a2 bf
       -3.95688 0.8552292 -0.5825376 -1.2705485
0000e0 da 96 2d bf 21 e8 82 be 8e c0 c4 be 03 d7 4e be
       -0.67808306 -0.25567725 -0.38428158 -0.20199208
0000f0 32 92 2f bf d9 79 86 be 35 86 06 bf b5 fe 0e bf
       -0.6858245 -0.26264837 -0.52548534 -0.558574
000100 14 1c 70 bf 85 24 96 bf 7d a9 66 bf 0a db a1 bf
       -0.93792844 -1.1729895 -0.9010237 -1.264497
000110 53 47 d7 3d f8 55 6f be 5d 3c cb bd 53 00 93 3d
       0.10511651 -0.23372638 -0.09923623 0.07177796
000120 6e b8 73 bf 18 0f 89 3e 42 31 45 3e fb 24 da 3d
       -0.9520329 0.26769328 0.19257072 0.10651585
000130 d1 b8 3b 3d 5c 29 3e bf 0f 9b 23 bf e7 62 20 bf
       0.04583055 -0.7428186 -0.63908476 -0.62650913
000140 10 2b 91 c0 d2 7d 81 bf 1a 48 c6 40 5c f0 d9 3f
       -4.5365067 -1.0116522 6.1963015 1.7026477
000150 58 7d 14 41 0a 53 9f 3d 7e 33 bf 3f 0d 6f 79 c1
       9.2806015 0.0777951 1.4937589 -15.589612
000160 df 0e 77 be 4f 22 4e bf a1 92 9d be 4e 24 30 bf
       -0.24126767 -0.805211 -0.3077593 -0.68805397
000170 35 47 fe be 49 c3 fd be c5 23 d8 be 87 c4 db be
       -0.49663702 -0.49563053 -0.4221479 -0.42923376
000180 d4 55 1a 3e 29 e2 8f be 92 35 42 3e 07 ec fa be
       0.15071803 -0.28102234 0.18965748 -0.490082
000190 e9 e6 11 bf 0c 1a e4 be 9d a4 f8 be e0 06 d6 be
       -0.56992966 -0.44551122 -0.4856309 -0.4180212
0001a0 0c a5 85 be ce 12 4a be 1e 7c 05 be 40 21 a1 bd
       -0.26102483 -0.19733736 -0.13035628 -0.0786767
0001b0 d8 27 63 be 13 b5 8d be ce 7f 24 3e 67 f4 44 be
       -0.22183168 -0.2767721 0.16064379 -0.19233857
0001c0 7c 6d 27 bf e1 13 d8 3e 4e de 29 3f 9c 60 ec 3e
       -0.65401435 0.42202666 0.66354835 0.46167457
0001d0 ba 02 19 be 2e 9b 56 bf 14 fe a0 be 06 b5 92 be
       -0.14942446 -0.83830535 -0.31443846 -0.28653735
0001e0 51 9a a9 be 00 d8 98 bd 63 6e 86 be f4 85 0a 3e
       -0.33125547 -0.07463074 -0.26256093 0.13527662
0001f0 c4 02 a6 bf ae 57 5a bd d2 21 d9 be 17 16 a8 3c
       -1.2969594 -0.053306274 -0.42408615 0.020518346
000200 9b 3f c2 bf 90 c4 03 be 86 0b 0b 3e 2b 0f bb be
       -1.5175661 -0.12867951 0.13578615 -0.3653501
000210 4f b9 91 3e cc 74 04 bd 5e 32 a7 be 0a 71 fb 3c
       0.28461692 -0.03233795 -0.32655615 0.03069355
000220 c0 68 08 bf 3d 6c 1d bf ef 61 06 bf 82 38 0f bf
       -0.53284836 -0.61493284 -0.52493185 -0.559456
000230 52 f7 26 be 3f c3 12 be a0 c5 20 bf aa e9 76 be
       -0.16305283 -0.14332293 -0.6280155 -0.24112573
000240 ca c4 43 bf a7 f5 82 bf 7e 71 81 bf 71 cc 0a bf
       -0.7647215 -1.0231217 -1.011276 -0.542182
000250 4c 5a 69 3e fd bc d9 be 25 66 7c be 03 13 40 be
       0.22788352 -0.42527 -0.2464834 -0.18757252
000260 0b 52 09 40 5f 3d 00 41 0f 62 71 be e6 e8 30 41
       2.1456325 8.014983 -0.23572563 11.05686
000270 f5 1b be bf 09 f8 35 c1 13 50 29 c1 12 0f 85 3e
       -1.4852282 -11.373055 -10.582049 0.2598806
000280 2e 41 cb 40 fe 92 f4 40 56 2b 1e 41 6d cb e7 c0
       6.3517065 7.6429434 9.88558 -7.2435822
000290 97 8b 88 bf ac 86 c7 c0 3e d1 13 c1 20 15 df c0
       -1.06676 -6.2351894 -9.2385845 -6.9713287
0002a0 f9 e7 a6 bf 17 9f 20 bf cd ea 5c be f7 10 a2 bd
       -1.3039542 -0.6274275 -0.21573944 -0.07913392
0002b0 59 97 3f 3e 15 a5 80 3e 5b a4 7b bf cc e4 80 bf
       0.18710078 0.25125948 -0.9829766 -1.0069823
0002c0 99 82 a2 40 d3 e0 ab 3f 6a 73 33 40 cc 75 7c c0
       5.078442 1.3427986 2.8039193 -3.9446898
0002d0 af a2 0f c1 47 4c 11 41 ed 65 9b c0 8a 60 f0 be
       -8.977218 9.081122 -4.856192 -0.46948653
0002e0 1b aa 08 c0 b8 9f 08 c0 f5 de 62 3f ce 0c 6d c1
       -2.1353824 -2.1347485 0.88621455 -14.815626
0002f0 92 95 94 40 0a b4 b2 be b8 25 1d c0 4a da cb c0
       4.643258 -0.34902984 -2.4554272 -6.3703966
000300 83 1c 96 be 62 52 32 be 30 0e 6e bd bb ab ad be
       -0.29318628 -0.17414239 -0.058119 -0.33920082
000310 ae b5 5d be f8 64 57 be cd 1d 86 3e 20 7c d5 bd
       -0.21651337 -0.2103461 0.2619461 -0.104240656
000320 2a 80 2c 3d 06 4a 06 c0 1a 05 8e 40 9c 20 02 c1
       0.042114414 -2.098268 4.4381227 -8.132961
000330 d7 35 37 41 0f c0 e4 3f f5 53 24 c1 49 d1 19 c1
       11.4506445 1.7871112 -10.270497 -9.613595
000340 cb d7 37 bf 44 8a 3a bf ba 8b aa be e1 ad 07 bf
       -0.7181365 -0.72867227 -0.33309728 -0.52999693
000350 02 c8 73 be 69 59 e3 be b1 51 41 bf eb d6 0a be
       -0.23806766 -0.44404152 -0.75515276 -0.13558547
000360 3a 13 dd be 49 bf f0 be 23 18 7f be 17 41 1d bf
       -0.4317873 -0.4702094 -0.24911551 -0.61427444
000370 ec 16 51 bf 5f 2e 51 bf 3b 54 ac be e0 a3 0d bf
       -0.816756 -0.8171138 -0.33658013 -0.5532818
000380 cc 24 2e c0 2e c4 1b c1 53 4e ac c0 76 46 14 41
       -2.720996 -9.735395 -5.384561 9.267202
000390 86 7c 29 40 3b ed d0 40 2d 95 fa 3f e1 35 df c0
       2.6482253 6.528959 1.9576775 -6.975327
0003a0 3e 47 71 40 b6 22 e6 40 46 84 d6 3f e1 7a 1f bf
       3.7699733 7.191737 1.6759117 -0.62296873
0003b0 03 3f 0d c1 17 0e e2 c0 3a 8d 9e 40 34 a0 07 bf
       -8.827884 -7.06422 4.9547396 -0.52978826
0003c0 73 c3 99 bd 54 1d 92 bf a3 17 b3 3d 71 f2 d5 bd
       -0.07507982 -1.14152 0.08744743 -0.10446633
0003d0 7e 00 aa 3d 3e c5 c5 bd b6 0c f6 3d 0b bf 6d be
       0.08300875 -0.096567616 0.12014143 -0.23217408
0003e0 59 44 04 bf 56 db b1 3e cf 29 92 be f6 3a 45 be
       -0.5166679 0.34737653 -0.28547522 -0.19260773
0003f0 35 ea 01 3f c6 92 2b bf 5c 89 93 be 86 99 0d bf
       0.50747997 -0.67020833 -0.28815734 -0.55312383

0.bias f4 [76]
000000 65 dd b3 be 35 25 1a bf 20 45 79 be 3e 99 b5 be
       -0.35129848 -0.60213023 -0.24342775 -0.35468477
000010 f1 3c 99 be ea ff 09 bf 0b 69 bc 3d 97 bd 0e bf
       -0.29929307 -0.5390612 0.09199723 -0.5575804
000020 a4 a9 48 bf d3 0c 24 bf cd c4 87 bf 79 55 37 bf
       -0.7838385 -0.6408207 -1.0606934 -0.71614796
000030 7c 30 99 be 24 3f ff bd 0c 24 0a bf 7e 69 33 be
       -0.29919803 -0.12463215 -0.53961253 -0.17520711
000040 16 c4 c6 be 7e a2 cb be dd dd 8d bd e6 63 08 40
       -0.38821477 -0.3977241 -0.06927083 2.1310973
000050 ef 12 cf bf c3 c4 21 3d 0b 71 80 40 3d ab b4 be
       -1.6177653 0.039494287 4.013799 -0.35286894
000060 56 92 26 3e c9 34 a0 be 95 6f 11 bf 96 5b df be
       0.1626676 -0.31290272 -0.56810886 -0.43624562
000070 7d ca 12 40 cb 00 ab bf 33 e0 d2 bc 09 d8 33 bf
       2.293609 -1.3359617 -0.025741672 -0.7025152
000080 ee 5e 75 be 7f 64 b3 bf 7e 06 46 bf a5 43 5e be
       -0.23961994 -1.4015044 -0.77353656 -0.21705492
000090 a5 22 c0 3f 1b 86 87 be 80 b9 fd 3c bd 89 03 be
       1.5010573 -0.26469502 0.030972242 -0.12845512
0000a0 03 7e 8e be 5d 10 00 bf 7b c5 73 bf 6f dc 33 be
       -0.27830514 -0.5002497 -0.95223206 -0.17564557
0000b0 6e 65 56 be a4 b5 9d be 89 0e 00 c0 f0 84 52 bf
       -0.2093713 -0.30802643 -2.0008872 -0.82234097
0000c0 ac be d8 3d 00 5e 6c be 50 d5 32 bf ce e2 a5 40
       0.10583243 -0.23082733 -0.6985674 5.183936
0000d0 26 af 16 40 8a d6 f9 be 9a f3 0d bf e5 cb fa be
       2.3544402 -0.48796493 -0.5544983 -0.48983684
0000e0 66 30 0c bf d0 af 1c bf ab 49 1e be 4a 20 97 be
       -0.5476135 -0.6120577 -0.1545779 -0.29516822
0000f0 2f 62 40 bf 36 9e 2e bf 37 0c db c0 e8 fe d0 c0
       -0.75149816 -0.6821016 -6.845241 -6.5311165
000100 56 df 38 bf ee 0d 29 bf f8 4e 39 bf f2 cc 54 bf
       -0.72215784 -0.6603688 -0.7238612 -0.8312522
000110 32 3d 8f bd a0 80 75 bd 40 06 8e 3c 08 4c ec be
       -0.06994094 -0.05993712 0.017336965 -0.46151757
000120 fa ff 89 40 94 16 d9 3d 87 db a4 bf 51 90 0d bf
       4.312497 0.106000096 -1.2879494 -0.55298334

2.weight f4 [76, 76]
000000 19 d9 8e bd 00 3c 3f bb 1c c8 a9 3c 86 be 2a 3d
       -0.06975002 -0.002918005 0.020725302 0.041685604
000010 0e b3 cb bd fa 3d 80 bd 8a 70 17 bf df 1b a6 3d
       -0.09946261 -0.06261821 -0.59156096 0.08110785
000020 3a c3 0e 3f 7f c8 07 bf dc de f1 be 5a 0f 72 3d
       0.5576664 -0.5304031 -0.4724034 0.05909667
000030 98 7d ac bd c6 a8 1b 3d 67 35 b1 3d b5 77 0d bf
       -0.084223926 0.03800275 0.08652764 -0.55260783
000040 57 51 17 bf c2 7d 0f bd e0 ea e4 be d0 1b ff be
       -0.5910849 -0.03503204 -0.44710445 -0.49825907
000050 85 8e c7 be 4a b1 f7 be bc 2a cb be 20 c8 0b bf
       -0.3897592 -0.48377448 -0.3968104 -0.5460224
000060 5e 69 a6 bd e1 98 0e bf 72 d3 07 3d 4e db 05 3d
       -0.08125566 -0.55702025 0.033160634 0.03267985
000070 02 c7 e7 be 8b c5 d6 be 91 fc 0e bf a0 1e 47 bd
       -0.45269018 -0.41947588 -0.55854136 -0.04861319
000080 f0 d5 e3 be e8 de e1 be 5b 12 e7 3e 1f c3 db 3d
       -0.4449916 -0.44115376 0.45131192 0.10730576
000090 27 3a 1a bf 4e c6 a4 bd 94 4d df be 73 7b 08 bf
       -0.60244983 -0.08045636 -0.43613875 -0.5331337
0000a0 74 90 9d bc bb db c5 3d 86 58 02 bf ae a7 69 bd
       -0.01923392 0.09661051 -0.50916326 -0.057044677
0000b0 27 67 b8 3d a5 66 a7 3d 56 42 ef be 5f 32 9a 3d
       0.0900405 0.08173875 -0.46730298 0.07529139
0000c0 64 70 13 bf c0 04 d8 3a ae 41 fb be 76 fe f5 be
       -0.5759337 0.0016480908 -0.49073547 -0.480457
0000d0 7a 28 c3 be 11 41 e4 bd ce de 57 3d e1 ce cc bd
       -0.3811682 -0.11145223 0.052702717 -0.100003965
0000e0 56 c8 10 bd 05 68 94 3d 1c aa 71 bd 05 06 ca 3d
       -0.035347305 0.07246403 -0.05900012 0.098644294
0000f0 ea 1f e1 be 8c 98 da bc f0 08 c9 be 56 81 02 bf
       -0.4396966 -0.026684068 -0.3926463 -0.509786
000100 2b e4 9b 3d 08 82 0e bd e8 f0 fa be 97 ab 04 bf
       0.07611879 -0.034791976 -0.49011922 -0.51824325
000110 fa 36 db be 27 13 98 3d 78 37 b4 bc ca 5f e1 bd
       -0.4281538 0.07425528 -0.021999106 -0.110045984
000120 93 37 05 bf 10 1c d7 bc c4 67 1a 3f 98 42 1e 3c
       -0.52037925 -0.026258498 0.60314584 0.009659432
000130 3c 44 b1 bc 14 98 14 bd c4 c0 35 bd 7c f7 d5 bd
       -0.021638982 -0.036277846 -0.04437329 -0.104475945
000140 3b 2f c9 bd 4e 02 15 3d 88 a6 93 3f 88 c5 45 3c
       -0.098234616 0.03637915 1.1535196 0.012071021
000150 eb b6 80 3d 6e b7 a4 bd e6 85 8f bf 63 3f 90 3d
       0.06284889 -0.08042799 -1.1212738 0.0704334
000160 02 c0 96 bd e2 0a 0d bd 2e 72 58 3d 8c 67 e3 3f
       -0.07360841 -0.034434207 0.052843265 1.7765975
000170 af 53 87 bf 6c 8f 99 3c 40 86 2c bd ae 51 0b c1
       -1.0572413 0.018745147 -0.04212022 -8.707441
000180 3f 01 a0 bf 54 24 c8 3c 4f f9 59 bf 99 af 8c be
       -1.250038 0.024431385 -0.8514604 -0.2747772
000190 a3 f5 d9 3d e0 18 ac bf 20 61 89 bd 17 d7 bf bd
       0.106425546 -1.3445091 -0.06707978 -0.09367197
0001a0 b9 b3 1a 3c db de 87 be 75 f7 e9 3e fd d3 a7 3d
       0.009442263 -0.26537213 0.45696607 0.081947304
0001b0 8a 8f 69 bd f5 ea c6 be b8 db ce bc 44 a3 ed bc
       -0.057021655 -0.38851133 -0.025251254 -0.029008515
0001c0 ff c7 88 c0 f0 8a 29 bc 8a b5 f1 3f 94 05 ee 3f
       -4.2744136 -0.010348067 1.8883526 1.8595452
0001d0 1e d5 4a 3d 80 df 87 3a 52 0d bc be 2e 33 5a 3d
       0.04951965 0.0010366291 -0.36728913 0.053271465
0001e0 ca bd 50 3d c6 db 33 3d 1c 9b 2e bf 82 3a 3e bd
       0.050962247 0.043910764 -0.6820543 -0.046442516
0001f0 16 4c 03 3f ba 40 2d 3d 42 7e 03 bd fd 6e c8 3e
       0.5128797 0.042298056 -0.03210283 0.39147177
000200 78 9a ed bf 94 4f bc 3c 7c 7c 09 bd 34 22 d0 bd
       -1.8562765 0.022987165 -0.033565983 -0.10162774
000210 57 e8 a8 3d 4a 76 39 bd 40 59 45 3b 2c 7c 94 bc
       0.0824744 -0.045278825 0.0030113012 -0.018125616
000220 ee 35 35 3e b0 16 71 bc 18 51 5e bd d8 0b 3e bf
       0.17696354 -0.014714882 -0.054276556 -0.7423682
000230 04 bd f7 3c f0 72 88 bd 73 66 6c bd 1c 17 cb bd
       0.030241497 -0.066625476 -0.05771489 -0.09916517
000240 da d6 2e bd bd d0 93 3d 2d 5b 8f 3d 15 8e 56 bd
       -0.042685367 0.07217548 0.06999812 -0.052381594
000250 99 30 d2 bf 86 5c 6d 3d 92 c6 83 bd 18 c9 4b 3c
       -1.6421081 0.057949565 -0.06434359 0.012438081
000260 fc 09 ad bd c5 e2 02 3f bd fd 15 bf e9 0d f5 3e
       -0.0844917 0.5112727 -0.585903 0.47862175
000270 a4 a6 14 3f 8e b9 ef 3e 72 b9 07 3d d9 7a 01 3f
       0.58066773 0.46821254 0.03313584 0.50578076
000280 1f a0 2f 3d 3d 76 1e 3d 98 8c d4 bd 00 7b f1 be
       0.042877313 0.03868698 -0.10378379 -0.47164154
000290 cb a6 d3 be 59 fd d0 3d 30 6c d1 3e 6a 54 82 bf
       -0.4133819 0.10204572 0.40902853 -1.0182011
0002a0 ef ec c1 bd 41 ca f1 be 89 18 86 bf df 15 64 bf
       -0.094690196 -0.4722462 -1.0476238 -0.8909587
0002b0 81 91 ac bd 62 db 7b bf a1 0e 42 be 28 be a0 bd
       -0.0842619 -0.98381627 -0.18950893 -0.078487694
0002c0 f6 36 42 bd 7b 75 b8 3d cb 42 c7 be df 8e e7 3e
       -0.047415696 0.090067826 -0.38918146 0.4522619
0002d0 27 4b 7b bf 83 79 39 bd 52 8a 7e bf b7 c7 16 3f
       -0.9816155 -0.0452819 -0.9942981 0.5889849
0002e0 3c 3f 48 3c a8 e6 3c 3d 3c 8c 7a 3f 2b 7d f2 3e
       0.0122221075 0.04611841 0.9787023 0.4736112
0002f0 94 4e 85 bf ae 64 d9 bd 60 22 88 3d b0 be 86 bd
       -1.0414605 -0.10614906 0.066471815 -0.065793395
000300 ce db ee 3e 92 90 06 3f 8c 79 74 bf 7b a9 ce 3e
       0.46652073 0.52564347 -0.95497966 0.40363678
000310 8f 47 db 3d 10 32 36 bc 02 64 16 be 81 eb 12 3f
       0.10707008 -0.011120334 -0.14686587 0.573906
000320 e3 ce 86 3d 5c a9 ec 3c e1 2f ca 3d 27 08 81 3d
       0.06582429 0.02888935 0.098724134 0.06300383
000330 0c 51 0a be 5e b7 d7 3e fc 3d 0a bf 62 a7 18 3f
       -0.1350748 0.42132086 -0.5400083 0.59630406
000340 e1 bd d7 3e bd 25 00 bf 11 a0 ed 3e b9 2b 01 3f
       0.42137054 -0.50057584 0.46411183 0.5045734
000350 15 a6 82 bf 90 6e f9 3e ac b7 77 bf c0 ac 3f 3b
       -1.0206934 0.48717165 -0.96764636 0.0029247254
000360 93 e6 f3 3e 4a ee ca be ed 64 8c bd 4e bf 41 bd
       0.47636852 -0.39634925 -0.068551876 -0.047301583
000370 35 aa 7e bf 90 c9 6b bc e4 0f 45 bd 0f ce 02 bf
       -0.99478465 -0.014391318 -0.048110858 -0.5109567
000380 d1 fb 28 be bc de b3 3c 8d 1e 02 3f 14 9b fc 3e
       -0.1650231 0.021956794 0.50827867 0.49337065
000390 58 8f 2e bd 37 2a 10 3f ad c6 d0 3e de 37 f9 3e
       -0.042617172 0.56314415 0.40776578 0.48675436
0003a0 18 5b d3 be 5a 0c 0c 3f e3 2e 8e c0 66 cb fb be
       -0.41280437 0.54706347 -4.4432235 -0.49178618
0003b0 ee db d3 be 60 ec cf 3e 89 8f 7f c0 61 09 e9 3e
       -0.4137873 0.40610027 -3.9931357 0.45514968
0003c0 9d 86 05 3f 56 1c 1a bd e7 67 e9 be 44 07 d9 bf
       0.5215853 -0.03762468 -0.45587084 -1.6955342
0003d0 20 ca af 3f be ee 18 3f 81 f3 b4 3f 85 d5 06 c1
       1.3733559 0.5973929 1.4136811 -8.427129
0003e0 37 b5 22 c1 47 7f 17 3f 3f 95 18 bf ba a5 33 c0
       -10.169242 0.59178585 -0.5960273 -2.8069901
0003f0 34 bc b3 3c 7b 80 57 c0 cc 1e 01 bf a2 dc fc be
       0.021940328 -3.3672168 -0.5043762 -0.4938708

2.bias f4 [76]
000000 57 5f 16 bf 8d db 92 bf 69 17 18 bd 63 a6 70 41
       -0.5873923 -1.1473252 -0.0371317 15.040622
000010 28 b2 a7 c1 df f5 e2 40 05 35 70 bf 78 4a 2a be
       -20.96199 7.0925136 -0.938309 -0.1662997
000020 70 0d 0f bf 4a 6c c8 bf 8f 75 ed c0 31 df 04 bf
       -0.5587988 -1.5658047 -7.4206004 -0.51903063
000030 99 5c ec bf cf cd 85 bf 1e 26 10 3e 72 2e 85 bf
       -1.8465759 -1.0453433 0.1407704 -1.0404799
000040 96 e1 68 bf d6 dd b8 bf c2 41 13 bf 34 72 36 bf
       -0.90969217 -1.4442699 -0.57522213 -0.7126801
000050 c0 6e a9 c0 a1 66 05 bf d1 6c c1 40 65 0c b9 40
       -5.2947693 -0.52109724 6.0445333 5.782763
000060 a0 3f d1 40 84 da d9 be 9e 82 7a bd 01 f4 21 be
       6.5390167 -0.42549527 -0.061159723 -0.15815736
000070 4d b4 7c bf 67 d2 69 bf b1 24 45 be 63 19 0a bf
       -0.9871262 -0.91336673 -0.19252278 -0.5394499
000080 bd fe db be 1e 8d df be d7 fd 41 bd c1 24 1a bf
       -0.42967787 -0.4366235 -0.04736122 -0.6021233
000090 9a f2 6c bf 76 e3 82 bf b7 36 0a bf d5 70 1d 41
       -0.9255768 -1.0225666 -0.5398974 9.840047
0000a0 8c 05 dc 40 2f 03 ed bf 0b 09 01 c0 b6 b5 93 3d
       6.875677 -1.8516597 -2.016177 0.07212393
0000b0 00 44 d3 be 2f b0 12 bf dd 8e e6 c0 59 f2 05 40
       -0.41262817 -0.57300085 -7.2049394 2.0929167
0000c0 23 57 b0 40 52 bf 80 40 94 0b b5 40 3a 7b 82 40
       5.510637 4.0233545 5.6576633 4.0775423
0000d0 88 ae 4a be 8f 41 e5 be 5a 67 7e bf dc be 14 41
       -0.19793141 -0.4477658 -0.9937645 9.296597
0000e0 37 68 0e bf 80 e8 dc 40 d6 36 b3 bf 39 a0 3d 41
       -0.5562777 6.9033813 -1.400111 11.851617
0000f0 de eb 93 41 a8 0a e8 40 f0 d0 09 bf fe 59 af bf
       18.49017 7.251301 -0.5383444 -1.3699338
000100 d2 a9 53 41 b7 e5 1f c0 52 bd f2 3f 32 c9 0c bf
       13.22896 -2.4983957 1.8964026 -0.549945
000110 06 07 61 bf d2 55 df 40 a1 53 e6 be 58 c7 3c 40
       -0.8790134 6.979226 -0.4498568 2.949667
000120 1b 4c 8b 40 9c 96 eb be 8c a5 6f 40 13 51 14 41
       4.35304 -0.46013343 3.7444792 9.2697935

4.weight f4 [3, 76]
000000 9d 7a 10 bf dd 9d 66 bf 8e 77 66 bf f5 c5 93 c0
       -0.56437093 -0.9008463 -0.90026176 -4.6179147
000010 0c 34 f0 3d 15 72 e3 3f 75 4c 36 3e 2b fe 27 bf
       0.11728677 1.776919 0.17802604 -0.65622205
000020 5c 4b c2 be 3e 8c cc 3e 11 c5 11 c0 9b ed c3 be
       -0.3794812 0.39950746 -2.277653 -0.38267216
000030 db 26 3f 3e 42 ef 6a 3d c4 f5 c3 bd 7c af cb bd
       0.18667166 0.05735708 -0.095683604 -0.0994558
000040 74 d6 ad bc e1 cf e0 be 9d 67 da be 07 c3 24 be
       -0.021220423 -0.439086 -0.42657176 -0.16090022
000050 66 21 9e 3e 69 6f d5 3e 76 c8 d9 3e 11 4e d2 bf
       0.30884856 0.41686562 0.42535752 -1.6430074
000060 f4 d8 94 bf 5a cd e9 3e 97 11 80 bf 49 7e 88 bc
       -1.1628709 0.45664483 -1.0005368 -0.01666178
000070 93 68 76 bf 28 c2 2a bd b9 53 73 bf 41 dd 10 bf
       -0.9625332 -0.041689068 -0.95049626 -0.56587607
000080 ce b3 c2 be 87 9c 14 bf 76 01 11 3d a0 e8 09 bf
       -0.38027805 -0.5805134 0.035401784 -0.5387058
000090 19 c2 63 3f c9 b6 87 bf 9c ca e1 be 15 4c 9e bf
       0.88968045 -1.0602657 -0.4409989 -1.2366968
0000a0 ad 72 8b 3e 30 0a 40 3f a9 79 8b bf b5 0d 20 3d
       0.27235928 0.75015545 -1.0896503 0.039075572
0000b0 f9 e7 81 bf 29 a0 cf 3e 38 f4 d8 3f a5 df 73 bf
       -1.0148917 0.4055188 1.694953 -0.9526313
0000c0 63 43 87 bd 33 cc fd bf 6a 54 0f 40 a7 2a 6d 3f
       -0.0660465 -1.9827942 2.2395272 0.9264321
0000d0 1e a2 83 bf 38 d3 84 bf a5 ab 82 bf 76 7e be bf
       -1.0283849 -1.0376959 -1.0208632 -1.4882343
0000e0 e0 2e e6 be 2e 28 9d be 80 02 c3 be 1c 23 67 3e
       -0.44957638 -0.30694717 -0.38087845 0.22571987
0000f0 0b 2a 0d 40 1f f6 d7 bf 60 99 06 bf d1 70 10 3f
       2.205691 -1.6871985 -0.5257778 0.56422144
000100 04 04 9e 3f cb 38 bf bf 0c 59 a1 bf 38 d0 02 3f
       1.2344975 -1.4939207 -1.26053 0.51098967
000110 9b 28 d5 bd 24 fe 34 3f 2c 52 f3 3e e8 9b 39 40
       -0.104081355 0.7070029 0.4752363 2.9001408
000120 50 88 1a 3f 63 47 dc 3e 87 fd fe 3f 4d 26 cc 40
       0.60364246 0.43023214 1.992112 6.3796754
000130 4c 0c 08 bf 1b 85 9c 3f f8 37 92 3e 87 fe 0f bf
       -0.53143764 1.222812 0.28558326 -0.5624775
000140 b4 07 73 bf 12 fd 49 40 c9 49 8b 3d 44 5a f6 bc
       -0.9493363 3.1560712 0.06801183 -0.030072339
000150 f5 8e 0c 3f e0 4c 22 3f b0 3f 22 3c 19 bb 02 bf
       0.54905635 0.6339855 0.00990288 -0.5106674
000160 91 14 2c 3f a4 21 e8 bc 8b b4 31 be 4e a8 81 bd
       0.6721888 -0.028336354 -0.17354028 -0.0633093
000170 5b fc c7 bd 58 ee 13 3f b5 bb 05 bf 18 4b 71 3e
       -0.0976493 0.5778556 -0.52239543 0.23563802
000180 ba 35 cf 3f 79 b2 f5 be f7 25 55 c0 c8 14 8a bf
       1.6188271 -0.47987726 -3.3304422 -1.0787592
000190 bd ca 53 c0 80 f2 f3 be 0d d8 c1 3d 98 be 87 3f
       -3.3092492 -0.4764595 0.094650365 1.060504
0001a0 6d bd 8b bf 8a 72 7c 3f 13 97 71 bf e1 8c e6 3e
       -1.0917183 0.9861227 -0.94371146 0.45029357
0001b0 db 7b 06 bf 02 bb f9 be 51 04 87 bf 35 37 f0 be
       -0.5253274 -0.48775488 -1.0548192 -0.4691712
0001c0 c8 3c 07 bc 63 3f 5f bc 20 2c cd 3e 81 08 ad bf
       -0.0082542375 -0.013625952 0.40072727 -1.351822
0001d0 46 de 23 c0 8a a7 8a be 24 9a b3 3f d8 c3 bd bc
       -2.5604415 -0.27080947 1.4031415 -0.023164675
0001e0 b4 1a 40 3e 9e 72 c1 be 8d 2e 39 3e b2 ca aa 3f
       0.18760186 -0.37782758 0.18084164 1.3343108
0001f0 3b f6 cc 3f 96 95 97 3e fc e3 a2 be 90 97 bc 3f
       1.6012644 0.29606313 -0.31814563 1.4733753
000200 aa cd 7d 3d f6 c0 45 bd 90 80 87 bf 4a d7 5c 40
       0.061963715 -0.048279725 -1.0586109 3.4506402
000210 c8 14 fd 3e 91 a0 d6 40 62 cb db 3e 77 ae 46 c0
       0.49429917 6.7071004 0.42928606 -3.1043985
000220 37 25 28 be ac 3a 7c 3f b6 73 08 bf c3 9d 10 bf
       -0.16420446 0.98527026 -0.5330156 -0.56490725
000230 fb 2e 37 40 bc 70 df bf 24 78 cc 3f 5e 9a 01 3f
       2.8622425 -1.7456279 1.5974164 0.5062617
000240 ba 27 83 bb c7 74 de bf a4 5f c1 3e 14 a6 68 bf
       -0.0040025385 -1.7379388 0.3776828 -0.90878415
000250 12 f4 73 40 95 5d cd be fe 5b 2b bc c7 ca 8d bf
       3.8117719 -0.4011046 -0.010458944 -1.1077508
000260 db bc d5 be 07 52 6b bf 8b a1 9a 3d f3 03 d4 3d
       -0.41745648 -0.9192204 0.07550343 0.10352316
000270 b1 56 25 3f 6f 16 a3 3d 69 b1 39 3f 49 05 d3 3d
       0.64585406 0.07963263 0.7253633 0.103037424
000280 12 bd c7 3e d9 44 07 3f e9 2a 4c 3c dd 08 0d 3f
       0.39011437 0.5283943 0.012461402 0.5509165
000290 c0 bc 72 bf c9 ac f1 3c b9 f1 72 3f 5d a4 2f bd
       -0.9481926 0.029501336 0.9490009 -0.04288136
0002a0 70 96 ed bb 28 a0 8f be 95 db ec be b8 7f b4 be
       -0.0072505996 -0.28051877 -0.46261278 -0.35253692
0002b0 91 42 69 3d 4e eb 05 3f 29 d9 d4 3c af de 28 3e
       0.05694825 0.5231217 0.025982456 0.16491197
0002c0 a5 8d d5 3d 9d fd ef 3e 35 c3 a6 bd 66 1e 81 3d
       0.10427407 0.4687318 -0.081427015 0.06304626
0002d0 38 98 45 bd 6a 3c 6f 3f 0c df 89 3c ba 7e e3 be
       -0.04824087 0.9345156 0.01682999 -0.44432622
0002e0 77 2f f2 be 08 a6 cc be 74 76 c4 bd d4 ce c3 3e
       -0.47301838 -0.39970422 -0.09592906 0.38243735
0002f0 6a 94 83 3f 45 3a 8e 3c 21 f7 1f 3e 9f aa 69 be
       1.0279667 0.01736177 0.15621616 -0.22818993
000300 3c 2d 2a 3b 40 6d 0c 3e e4 2b ff bd 98 da 4b 3c
       0.0025966903 0.1371355 -0.12459543 0.0124422535
000310 84 c1 cc 3d bd c1 12 3f 8a a8 9a bd 50 0e cc bd
       0.09997848 0.5732687 -0.075516775 -0.099636674
000320 95 f3 bf bc 28 43 0b be 5b 32 2e 3b 60 28 78 3d
       -0.023431579 -0.13599837 0.0026580307 0.06058538
000330 ac 6a 31 3d 53 ab 77 bc 7d 61 25 bd b7 d3 30 bd
       0.04331462 -0.0151165305 -0.040376175 -0.043170657
000340 26 a6 e3 be 95 86 bf be 4b 06 15 3f 94 fd a0 3e
       -0.444627 -0.37407365 0.5821273 0.31443465
000350 6f 3d df bc ce 22 82 3e 7e 89 eb be 08 00 e6 3e
       -0.027250974 0.2541718 -0.46003336 0.449219
000360 bd 79 f8 3d 6f ff 83 3d bc 6c 34 bd 8a 3d d3 be
       0.12132595 0.064452045 -0.04404901 -0.41257888
000370 df d3 be 3e 07 0d 9e 3d 82 6e f7 3e bb 27 34 3d
       0.3727102 0.077173285 0.48326498 0.043983202
000380 8d fe 44 3c d8 aa 17 3f c9 da 55 3e f1 60 7b be
       0.01202358 0.5924506 0.20884241 -0.24548699

4.bias f4 [3]
000000 67 62 6d 40 c7 63 79 40 89 46 51 41
       3.709131 3.896715 13.0797205
