src/main/resources/models/model_demonstrator_24_10_2024_11-52-02.pth (torch, 77428 bytes, 8 tensors)

0.weight f4 [128, 8]
00000000: bf9b 193e 64a7 aebd 3176 a83e cba2 083e
00000010: 96eb 3a3f f1ce 143f fb19 513f ebb8 493e
00000020: 5024 413e c774 d33f 7b49 9ebf 52a9 1bbe
00000030: eac8 063e a60c 2d3c f0e9 25bf 1f3c 9dbe
00000040: d0d8 05bf caba c83f eabb 36bf 1062 a13f
00000050: 04c9 b3be f63f 6f3d f45b 10bf df20 623d
00000060: 7359 91bf 7381 22bf 9fc3 cb3e 4afa 183e
00000070: cf18 973f 60ed 013f cee9 a9be efa9 f13d
00000080: 205d 05be aa92 92be c098 423c 4b21 8cbe
00000090: 205c 183c 3b4f 61be 5a17 88be 12d9 86be
000000a0: 6bc0 9bbe 9217 c1be 3404 903e c972 7d3f
000000b0: cb29 873e c144 93bd fe29 573f 8f0e f93e
000000c0: d246 303f ee76 943d b916 22be 12b6 4ebf
000000d0: edb0 813f 97eb 0e3f 8577 e63e b9fb 65be
000000e0: 7eb8 603e fed4 2a3f 0163 2e3e c9d5 933f
000000f0: e63f 403f 6aa6 f53e 37de 91bf ef04 753f
00000100: eb2c 5ebe c05f e2bd 061f 24be c4bc 9e3d
00000110: c79b 5abe 0011 08bb fbe1 b3be e8b1 50bd
00000120: 4412 c63d d07f a2bf 5af1 14bf bffa a23e
00000130: 335c 67be 1629 0ebf f927 d73f 4412 29be
00000140: 706c 363f c64c 6d3f 2bf5 4dbf 11e7 043f
00000150: 3945 0dbe 97fc 23bf 50db 083d bde2 a6bf
00000160: 0ae9 2ebe 2078 19bd 650a 2dbe 07e6 82be
00000170: 777a a8be 086c 443d 58ba 9ebe 6d02 92be
00000180: f994 6c3f 83ac 003f c489 343e 3531 babe
00000190: 6f7f c1be cac5 84be 6901 023f 445b 02bf
000001a0: a8a6 b63f c013 983f 7223 7a3e a1b5 283e
000001b0: b296 e53d 6378 d6bf 7a70 61bd 6e7d f3bd
000001c0: 2c8d 953d 2fbb 9bbe 7a73 31be 83f5 b1be
000001d0: 7839 d8bd 8faa 84be 3085 f73c 6a35 463e
000001e0: dbf5 9abe 52f9 ebbe 7211 f53e bba5 6e3f
000001f0: b75c a2bf 956b 5dbd ffab be3f 501f ba3d
00000200: 929c a33e b7b3 21bf 401f a73d 86fa a63f
00000210: e58b bfbe 8ca2 be3d cb6d 0c3f 18f1 00bf
00000220: c037 a4bd f0bf 50be 603f f33d 0c88 64be
00000230: 7e65 593e ac35 85be aef8 773e 9a16 f1bd
00000240: 0532 043f 573f 4ebe 4378 c63c 533e 863e
00000250: 9094 4f3f fa02 9f3e a1f3 b9be cb77 d1be
00000260: e18d 923f 6aef 303f 2d53 efbb 4592 4b3e
00000270: df4d 46bf d8ab f83e ac93 d23e 8d62 0f3d
00000280: b92c d4be 6c8a 47be 534d 0a3e 2a07 02be
00000290: 64ff 403f 4939 10be 7b72 a13f 7406 19bf
000002a0: e5ff bf3e 845a 823e d4fb b8be 1575 46bf
000002b0: b028 88be c349 423f 4d63 433e 7679 113e
000002c0: e841 8ebf 1d7f 53bf c085 cd3e ecf8 ac3e
000002d0: d875 d83e d356 eabe f8a2 c53f 0910 67be
000002e0: 9902 8cbe 2d4b 813d 87ab 593f 8758 e1be
000002f0: 8f15 653e 9023 8c3e 9f89 a23f 3d24 683f
00000300: 042c 883f 0fd7 ed3e fe58 49be 8c8f 9bbe
00000310: b411 cd3e fb0b 933f 3c5b 5d3e ac8d ee3e
00000320: 9dba 6e3d 7b77 ab3f f52f bcbf ea89 a63c
00000330: e10e 023f f763 473f 80eb 8abf c2d2 babf
00000340: 08ef 563f 3540 553f e08f 063f d397 21bf
00000350: 47f4 85bf 2b80 163e edb8 1f3d 6076 393d
00000360: 7702 05bf 679d be3f 52af 23bf 290d 4bbf
00000370: 6408 2c3e 9422 823e 746e 6e3f 7250 62bf
00000380: 2ab0 3cbe 6c89 86be 1091 ae3c faad 9ebe
00000390: b6c1 59be bfec 97be d09a 973c 5ead 203e
000003a0: f4b1 303f 3bb8 0d3f 4793 803d 6342 813f
000003b0: 97b2 1ebf 1645 303f 9d8a 2abe 4efe 643e
000003c0: 8651 063f 970a 3d3f 4a3e 8f3d 13d2 a63e
000003d0: f746 cdbd 520b 80be 125c 053f a780 633d
000003e0: 157d 453f 3e03 2a3f 26f2 c53e 61c6 b5be
000003f0: 0df0 8ebf 4802 9a3e 9ac6 f63e a2a5 53bd
0.15000819 -0.08528021 0.32902673 0.1334335 0.73015726 0.5812827 0.8168027 0.19699447
0.18861508 1.6520013 -1.2366174 -0.1520131 0.1316258 0.010562098 -0.64810085 -0.3070993
-0.52283955 1.5682003 -0.71380484 1.2608051 -0.351143 0.058410607 -0.5639031 0.05520713
-1.1355423 -0.63478774 0.39797685 0.14939228 1.1804446 0.5075283 -0.3318619 0.117999904
-0.13023806 -0.2862752 0.011877239 -0.2736915 0.009299308 -0.2200288 -0.26580316 -0.26337487
-0.3042024 -0.37713295 0.28128207 0.99003273 0.26399073 -0.07190848 0.8404845 0.4864392
0.68858063 0.072492465 -0.1582898 -0.8074657 1.0132118 0.5582823 0.4501306 -0.22459306
0.21945378 0.6673125 0.17029954 1.1549617 0.750975 0.47978526 -1.139594 0.95710653
-0.21696822 -0.11053419 -0.1602746 0.07750848 -0.21348487 -0.0020762086 -0.35133347 -0.050950915
0.09671453 -1.2695255 -0.58180773 0.3183193 -0.22593765 -0.5553144 1.6809074 -0.16510874
0.7125921 0.9269527 -0.8045222 0.5191508 -0.13795938 -0.64057297 0.033412278 -1.3037945
-0.17081085 -0.037468076 -0.16898496 -0.25566122 -0.32905933 0.04795459 -0.31001544 -0.28517476
0.92414814 0.5026323 0.17630678 -0.36365667 -0.37792537 -0.2593215 0.507834 -0.5092051
1.426961 1.1881027 0.24427584 0.16475536 0.112103835 -1.6755489 -0.055038907 -0.11889158
0.07302317 -0.30416247 -0.17329207 -0.34757623 -0.10557836 -0.25911376 0.030214876 0.19356313
-0.30265698 -0.46088654 0.47864872 0.93221635 -1.2684544 -0.054057676 1.4896239 0.09088004
0.3195539 -0.6316485 0.08160257 1.3045204 -0.3741142 0.09308347 0.5485503 -0.5036788
-0.08018446 -0.20385718 0.11877322 -0.22317523 0.21230122 -0.2601751 0.24215958 -0.11771889
0.51638824 -0.2014135 0.024227267 0.26219425 0.81086063 0.31056958 -0.36318687 -0.40911707
1.1449548 0.69115317 -0.0073036165 0.19880016 -0.7746257 0.48568606 0.4112829 0.035006095
-0.4144037 -0.19486398 0.1350606 -0.12698045 0.75389695 -0.14084353 1.2613062 -0.5977547
0.3749992 0.25459683 -0.3612963 -0.77522403 -0.26593542 0.758938 0.19080849 0.1420649
-1.1113863 -0.82615834 0.40141106 0.33783662 0.42277408 -0.45769367 1.5440359 -0.2256471
-0.27345732 0.06313167 0.85027355 -0.44012854 0.22371505 0.27370882 1.2698249 0.90680295
1.0638433 0.4645314 -0.19662854 -0.30382955 0.4005257 1.1488031 0.21616834 0.46592462
0.058283437 1.3395838 -1.4702135 0.020329434 0.50803953 0.7788691 -1.0853119 -1.4595568
0.8395848 0.833011 0.52563286 -0.6312229 -1.0465173 0.1469733 0.03899472 0.045278907
-0.51956886 1.4891785 -0.6393939 -0.79316956 0.16800076 0.25417006 0.9313729 -0.88404
-0.18426576 -0.2627672 0.021309406 -0.3099211 -0.21265301 -0.2967281 0.018506438 0.15691134
0.69021535 0.5535924 0.06278091 1.0098385 -0.61991256 0.68855417 -0.1665444 0.22362635
0.52468145 0.73844284 0.069943026 0.3258215 -0.10023301 -0.25008637 0.52093613 0.055542614
0.77143985 0.664112 0.38661307 -0.35502914 -1.1167008 0.30079865 0.48198396 -0.05167163

0.bias f4 [128]
00000000: cebf 753f 9a13 423e c763 f23e 0498 143e
00000010: 2c02 27be e77e 2e3f f515 153f cdfd 163d
00000020: 3fb5 8bbe 3ca5 fc3e 4bd0 8e3f 405d 433d
00000030: e5dd a73f e4df c1be 1c31 823d 8eae 163f
00000040: 6b70 bebe 6326 8ebe b10e cd3e aa3d 633f
00000050: 9211 3d3e e6ae 7e3f 9246 373e 3129 183f
00000060: d3fd 273e 259c 383f dad2 093f 325a 643f
00000070: f21f aabe a7c6 383f 38d2 493f 9d7d a93e
00000080: 86e0 a43e 7a75 3b3f 4deb 19bf c1d5 9cbe
00000090: 05d0 503f 585a d63e 7a74 1c3f 4e96 ab3f
000000a0: b240 0f3f ec89 0ebf 6e9f 283f fbb8 163e
000000b0: 92c9 2cba 3cda ff3e ee8e e03e 37ba c23e
000000c0: 475b a4be d19e 473f e0e6 a8be 614e f93c
000000d0: 52c7 b0be f099 cebd 8b9c 153e aed8 3a3e
000000e0: 87e1 1f3f 34f5 ea3d 7607 71be 55d4 203f
000000f0: f8cc a43e 0a8a 0c3f 39ec 783f f21c 37be
00000100: b958 173f 34b7 d6be 4f20 e63e 8224 e6bd
00000110: 5b36 ab3d 74b7 bc3e b233 793e 0637 433f
00000120: 12bb ff3d ed38 22bf 9514 0a3d 0d39 10be
00000130: 0172 ef3e 8ceb 92bd 497b 1c3f 915f e43e
00000140: bfc5 24be b3e0 333f 4eb5 253f 741d 213f
00000150: 84e4 f43e 5086 693f 3385 bb3d 01bc 2e3f
00000160: 3457 753f 9a98 533f b675 8f3f 0933 973f
00000170: ef58 743f 10a9 403f 109d 11be 42cc 413f
00000180: f596 e33e d622 553f 817e 9dbe 058a d63e
00000190: c72e 863d 7c07 2ebe 535e cf3e 72c5 a83f
000001a0: 4925 2d3f 3df9 353f fcec 683e 190f c2bb
000001b0: f59a 26be 8ec6 3f3f ac47 7a3f 9169 983f
000001c0: 43ab 6e3f e7b1 fb3e 4463 093f 93b2 903f
000001d0: 88eb 3abe 5857 f93e 0b8f 0e3f ba40 d33e
000001e0: 4ce9 333c 87fc 91be 01fa 4d3f 2e57 78bc
000001f0: c7ae 52bc e507 64be ba48 463f c28c 843f
0.95995796 0.1895279 0.4734175 0.14511114 -0.16309422 0.6816239 0.5823663 0.036863137
-0.27286717 0.49344814 1.1157316 0.047696352 1.3114592 -0.37866127 0.06357023 0.588601
-0.37195143 -0.27763662 0.4005027 0.88765967 0.18463734 0.99485624 0.17898014 0.59437853
0.1640542 0.7211326 0.5383736 0.8920013 -0.33227497 0.7217812 0.78836393 0.33103648
0.32202548 0.7322613 -0.60124665 -0.3063183 0.8156741 0.41865802 0.6111523 1.3405244
0.5595809 -0.556792 0.6586827 0.14719002 -0.00065913156 0.49971187 0.43859047 0.38032696
-0.3210089 0.7797671 -0.32988644 0.030432882 -0.3452707 -0.10087955 0.14610498 0.18246719
0.624535 0.1147255 -0.23538002 0.6282399 0.3218763 0.5489813 0.9723545 -0.17882136
0.59119755 -0.41936648 0.44946525 -0.11237432 0.08359977 0.36858714 0.24336126 0.76255834
0.12486853 -0.6336811 0.033711035 -0.14084263 0.46766666 -0.07173833 0.6112562 0.4460416
-0.16091059 0.7026474 0.64729774 0.62935567 0.47830594 0.9122057 0.09156265 0.6825562
0.95836186 0.82654727 1.1207798 1.181245 0.954482 0.7525797 -0.14220071 0.757023
0.4445111 0.8325628 -0.30760577 0.41902176 0.06551891 -0.16995043 0.4050165 1.3185256
0.6763502 0.7108343 0.22746652 -0.00592221 -0.16270049 0.74912345 0.9776561 1.1907216
0.93230075 0.49159166 0.5366709 1.1304497 -0.1825391 0.4869945 0.55687016 0.4126032
0.010980915 -0.28512976 0.804596 -0.015157504 -0.012859053 -0.22268637 0.7745472 1.0355456

2.weight f4 [128, 128]
00000000: 42e6 073f 191e 04bf dc4d c03f 1d65 abbf
00000010: c252 003d 1ba5 df3e 8a3c 303e 1812 3dbf
00000020: 2e4e 20bd 0d0b b73f 468a 69bf 28b6 5dbd
00000030: 1857 563f d987 b43e 985a 80bc 9cc0 063f
00000040: d037 123f 3575 aa3d 5071 23bf 0b3c 3a3e
00000050: 32b3 af3e 7bf6 703f 1bb2 aebf 522b 6c3f
00000060: c67d 3cbe f237 94be 36c4 5b3f 7bf1 ae3f
00000070: c49e 33bd f7b2 4ebe 2035 c43e 1b2b bb3e
00000080: cdd8 033f bdaa a03f c58c 64bf 2c55 d9bc
00000090: 97f9 653e c6d3 433c cec3 cabe 7991 f83e
000000a0: 6ee0 a93e 7f6f 49bf ac89 d03e 22bd 723f
000000b0: afff 853e cbd3 65bf aba6 d0bf 4020 5c3e
000000c0: 15d1 a5bd f13e 533f 8175 5bbf 1d1a 38bf
000000d0: a0c0 10bc 3fd8 24bf a5be 3a3e 1943 533d
000000e0: b168 423c f6f5 cebf fa37 5b3d 7c18 183f
000000f0: 4abe 363f 8345 383d eea8 403f a0f9 2fbc
00000100: 0c94 b9bf 6fa2 a6bf 9290 1ebc 4806 573c
00000110: 8155 efbe 4814 a2bd 7700 363f 536d f43e
00000120: 667b c8be ac76 51bf a643 b63e 6e34 463d
00000130: cd68 893e 24e7 73bd 7e0c a53e 6941 123f
00000140: 06e2 373d 669c e9bf 67fb f2bf f9d2 84bf
00000150: 3821 50c0 7c21 483e 8a26 803e 5ef9 f5bc
00000160: fd84 e13e 6452 5dbf ce92 193f 9c17 383e
00000170: 02db f4bf 5498 1cbe bef1 d5be bbf0 073e
00000180: 1267 9e3e 6807 1e3e baaa 04bd 1e61 47bf
00000190: 2e55 19bf e547 a33d e6d2 0dc0 7392 4b3f
000001a0: 53bb 7dbf 59ac 3b3f 3e48 b03e 4d70 bdbc
000001b0: 8005 dbbb 2a15 393f 63ab 963e 2b5a ab3e
000001c0: 7886 773e e84c ad3f 878f 94bf 25b6 043f
000001d0: be3e ec3e bedd 953e 97ee 9d3d 974e f43e
000001e0: 9d72 62be a203 923f b591 e43d f0b8 293c
000001f0: fa78 4abd 10b8 b3bc 5f73 993f 8cbc 7f3e
00000200: 1e22 b0bd 67e7 a4bd 9352 a13d a43e 83bc
00000210: 4f43 a5bd d3c0 9dbd eadd a1bd 936c a2bd
00000220: 096d 1ebd fd8a b1bd 8ae7 3cbd 4f99 5fbd
00000230: 5e78 21bd 428f 623d 1c22 a73c f813 17bd
00000240: 26c5 593d 07fe 8abd ba35 5a3d c432 fbbc
00000250: 664a 323d 40c0 0d3b e0ba 413b 4c7e bbbc
00000260: fd38 a1bd c252 aebd eddf 23bd 8ed4 73bd
00000270: 7e01 24bd 4791 3bbd 9537 a33d c0f5 aebc
00000280: ee75 413d 60ca 4b3c 8c32 b3bc 049e a13c
00000290: db8e 46bd 9df6 8d3d a059 1cbb 7c3e a9bc
000002a0: 750c a1bd 06f1 7fbd 9355 99bd 6877 b0bd
000002b0: 6335 b13d 8ddb 933d aac4 213d 0012 d439
000002c0: 95f6 8dbd 459a 903d 735d 5bbd 50e0 afbb
000002d0: 5c5a 0cbd 886d 85bd 3a38 213d b714 a93d
000002e0: 6832 ff3c a865 a4bd 2524 21bd a660 ecbc
000002f0: a88e 523c 5f4c 9abd 88a2 75bc 8aeb 483d
00000300: d161 a83d f4e3 86bc 9646 313d b401 ad3c
00000310: c6ed 443d 4ab8 8cbd e6c7 77bd 4973 b23d
00000320: 1348 0cbd 62c3 513d 0e0d 463d 0d08 a4bd
00000330: 582a d43c de13 0d3d 405f 0f3b bd83 983d
00000340: d8c6 e03c 7567 a73d 58b7 afbd 1d6d 8d3d
00000350: 0256 463d d73e 90bd fe9c 1bbd 5d2c 83bd
00000360: 7748 0bbd 6c1c 5ebd b987 9f3d ad94 3cbd
00000370: 08cb acbc 2bc0 24bd 687f 34bd 47b1 acbd
00000380: eec5 583d 95c3 873d 50b0 e03b 9852 483c
00000390: 3adc 563d 5884 1fbc 86ce fcbc f080 0abc
000003a0: 8776 5bbd d09c a1bd bc07 9cbd 7fb2 813d
000003b0: f03a 7b3c 3385 923d 125d 7dbd 93b4 8e3d
000003c0: 3400 c5bc 032d 1ebd 862f a1bd fa01 a4bd
000003d0: 602e cbbc 5547 52bd d683 4b3d 33c0 9b3d
000003e0: 643e 59bd 0037 b1bd c20b 15bd 295b 59bd
000003f0: c0d7 cc3c 5610 4c3d 6244 163d bd4e 62bd
0.5308572 -0.51608425 1.5023761 -1.3390232 0.031328924 0.43680653 0.17210594 -0.73855734
-0.039137058 1.4300247 -0.91226614 -0.054128796 0.83726645 0.35259894 -0.015668198 0.5263765
0.57116413 0.08323137 -0.63844776 0.18186967 0.34316403 0.941261 -1.3648103 0.922536
-0.18407354 -0.28948933 0.8584627 1.3667444 -0.043852583 -0.20185457 0.3832178 0.36556324
0.51502687 1.2552105 -0.892773 -0.02652987 0.22458492 0.011952346 -0.39602512 0.48548487
0.3317904 -0.78685755 0.40730035 0.94819844 0.26171634 -0.89776295 -1.6300863 0.21496677
-0.0809652 0.82517916 -0.8572617 -0.71914846 -0.008834988 -0.64392465 0.18236788 0.05157766
0.011865781 -1.6168811 0.05352018 0.5941236 0.7138411 0.044988167 0.75257766 -0.010740668
-1.4498305 -1.3018321 -0.009678023 0.013124056 -0.46744922 -0.079140246 0.7109446 0.47739658
-0.39156646 -0.81821704 0.35598487 0.048389845 0.2683777 -0.059546605 0.32236093 0.5713106
0.044893287 -1.8250854 -1.8982972 -1.0376884 -3.2520275 0.19544023 0.25029403 -0.030026134
0.44046775 -0.86453843 0.5998963 0.17977756 -1.9129336 -0.15292484 -0.41785997 0.13275425
0.3093801 0.15432513 -0.03238938 -0.77882564 -0.598956 0.07972697 -2.2159972 0.7952034
-0.9911396 0.73309857 0.34430116 -0.023124838 -0.0066840053 0.7229792 0.29427633 0.3346723
0.2417239 1.3539095 -1.1606301 0.5184043 0.46141618 0.29270738 0.07711523 0.4771621
-0.22114034 1.1407359 0.11160604 0.010359034 -0.04943178 -0.021938354 1.1988333 0.24974269
-0.08600257 -0.08051949 0.07877078 -0.01602108 -0.08069479 -0.07702794 -0.07903655 -0.07930865
-0.038678203 -0.08669088 -0.04611925 -0.054589566 -0.03942143 0.055312403 0.020402007 -0.036884278
0.05316653 -0.06786733 0.053273894 -0.030663855 0.043527983 0.0021629483 0.002956085 -0.022887371
-0.07872198 -0.085118786 -0.040008474 -0.05952888 -0.040040486 -0.045792844 0.07969586 -0.021357417
0.047231607 0.012438387 -0.021874689 0.019728668 -0.04847608 0.069318034 -0.0023857132 -0.020659678
-0.07863704 -0.062485717 -0.07487025 -0.08616525 0.08652761 0.0721961 0.039494194 0.00040449202
-0.069317974 0.070606746 -0.053555917 -0.0053673163 -0.03426586 -0.06515032 0.039360262 0.08255904
0.031151965 -0.08027202 -0.03934111 -0.02885468 0.012851395 -0.07534098 -0.014992364 0.049052753
0.08221782 -0.016466118 0.043280207 0.021118976 0.04807832 -0.06871088 -0.060493372 0.08713395
-0.034248423 0.051211722 0.048352294 -0.08009348 0.025899097 0.034442775 0.0021876842 0.07447002
0.027438566 0.0817403 -0.08579892 0.06905577 0.048421867 -0.07043236 -0.037991516 -0.06404946
-0.034004655 -0.054226324 0.07789559 -0.046040226 -0.021092907 -0.04022233 -0.044066817 -0.084322505
0.052923135 0.06629101 0.0068569556 0.012226723 0.05245612 -0.009736143 -0.030860197 -0.008453593
-0.053579833 -0.07891238 -0.07618663 0.063328736 0.015333876 0.07154312 -0.061856337 0.069680355
-0.024047948 -0.038617145 -0.078703925 -0.080081895 -0.024802387 -0.05133756 0.049686275 0.076050185
-0.053038016 -0.086530685 -0.036388166 -0.053065453 0.025005221 0.049820267 0.03668631 -0.055250872

2.bias f4 [128]
00000000: 854c 123f e5f9 b4bd 64ad 41bd b834 c33e
00000010: bb27 13bd 9069 e83b 010a 8cbe d700 d33e
00000020: b725 703f c98f 8ebd b21d b2be 2b75 81bb
00000030: e916 2d3f 7317 9d3e deb3 7d3e f93a 673e
00000040: 3b5e 043f 7b28 8b3d 729d c63e 1062 0b3f
00000050: 7bba b73e a578 5b3e f8bd 883e fddf 69bd
00000060: fbaa aa3e ea87 283f 2f86 90bd f112 723e
00000070: 3643 23bf c566 fb3e e010 57bc 4e94 dcbe
00000080: 7a2f 8b3d ef78 303e f313 823d e460 41bd
00000090: de19 ccbd 0fc4 fe3e 9698 ffbd 8a23 a8bd
000000a0: 8b04 493f b7be cd3e cbe5 ecbd 531e e5bc
000000b0: cc34 8bbd d17e d3be 060e 3c3e 037d 853e
000000c0: 8fa7 9cbe 0c2a edbc f75c 06bb 09a0 ef3e
000000d0: 2518 37bd 9f8b aabc 41f0 e4be cd17 503e
000000e0: ab70 623f a8dc ff3c df1b d33e 9429 a3be
000000f0: c8da ab3e 7205 1dbd 4711 ffbc d0f9 59bc
00000100: c3b9 5c3d 3088 c8bb 5461 0bbe 4581 58bd
00000110: afbb 5cbe a117 c83e b0bd c63e 79c0 303e
00000120: 1a30 0cbe f967 b3be 1004 143f 7467 e53e
00000130: 8a4c 1ebe 50d7 65bd 8d8e e7be 528c 26bf
00000140: f4b5 a03e 6d70 563f 8608 d13e f9b5 933d
00000150: 116a 9abe 1cba d03b 852e fa3e d5c5 75be
00000160: 02f8 97be d323 413c 6248 283f 2d4a 403f
00000170: 2abe 7d3e 45a3 5b3e c73b b53e c387 dd3e
00000180: d135 bd3e 18c7 453f ad28 cabd 32fe af3f
00000190: 4b4b 10bf 4273 163f 23e5 543f d073 413e
000001a0: 10b8 73bc 5f08 20bb bf7a 393d e284 aebe
000001b0: e8a4 453e 566e 303f 6686 213f 174a 233f
000001c0: fd6d 28bd 5d69 34bd 1061 533e 2fb3 733f
000001d0: 64d5 abba d596 593f 91d9 35bc c78d d03d
000001e0: 2b02 ca3e 675f d0be 9ebf 153f ccb5 adbd
000001f0: 3188 333f 4d94 5fbd 8419 30be d56c 9a3e
0.5714801 -0.08836726 -0.0472845 0.3812616 -0.03592656 0.007092662 -0.27351382 0.41211578
0.9380755 -0.069610186 -0.3478828 -0.003950735 0.67613083 0.30681953 0.24775645 0.2258109
0.51706284 0.067948304 0.38791996 0.54446507 0.3588446 0.21432741 0.26707435 -0.057098377
0.33333573 0.6583239 -0.070568435 0.23640038 -0.6377443 0.49101844 -0.013126582 -0.43081897
0.06796165 0.17233633 0.06351461 -0.047211543 -0.09965871 0.49758956 -0.12480275 -0.082099035
0.7852256 0.40184566 -0.11567267 -0.027968561 -0.067971796 -0.4130769 0.18364725 0.2607194
-0.30596587 -0.028950714 -0.0020502189 0.46801785 -0.04470076 -0.02081853 -0.4471455 0.2032158
0.8845317 0.031233147 0.412322 -0.3186766 0.33565354 -0.03833527 -0.031136168 -0.013304189
0.053888094 -0.0061197504 -0.13611346 -0.052857656 -0.2155597 0.39080527 0.38816595 0.17260922
-0.13690224 -0.35040262 0.578187 0.4480549 -0.15458885 -0.05611354 -0.45225945 -0.6505786
0.3138882 0.837653 0.40826815 0.07212443 -0.30159047 0.006369842 0.48863617 -0.24001248
-0.29681402 0.011788326 0.6573545 0.75113183 0.24779573 0.21449001 0.3539717 0.4326764
0.3695512 0.7725692 -0.098710395 1.3749449 -0.5636489 0.5876962 0.83162135 0.18891835
-0.014875427 -0.0024419052 0.045283075 -0.34085757 0.19301188 0.6891836 0.630957 0.6378493
-0.041120518 -0.044045795 0.20642495 0.9519529 -0.001310986 0.84995776 -0.011099235 0.10183292
0.3945478 -0.40697786 0.5849551 -0.084819406 0.70129687 -0.05458479 -0.17197233 0.30161157

4.weight f4 [6, 128]
00000000: 103e 5a3f ee87 513d a742 6b3d a250 603e
00000010: d3e4 97bd 0e00 2e3d a2cc e5be 8691 263f
00000020: dd1d 6ac0 09e2 86bd 6dcb 25bf 9cb4 1ebd
00000030: 0210 503e a4ff 393f a752 fd3e bc76 93c0
00000040: 7b0b 513f 686a 01bf 8d02 983d 0c7f 453f
00000050: 84ef 273f 0a0f 063f a179 823f 33d1 babe
00000060: 5a0b 1dc0 e53f a13e 5e91 3c3d a0c5 883e
00000070: 2ef5 23c0 0a04 dabd 4921 5ebd d822 66bf
00000080: 333b 1e40 363f ba3d 250e 563d 95c2 19bd
00000090: 8ef2 ecbe 473a d03e 9ef5 6cbf 868a 7e3d
000000a0: 5bc4 ff3e adaf 6bbf 1ba2 8a3e 7bc0 283d
000000b0: 1e5f b23d 8143 57bf 9358 d03e 79d0 98be
000000c0: fc13 27bf 1014 423c ebd1 c4be 5a32 aa3d
000000d0: 4274 523d 3f56 2840 f8c7 8dbf f9fe bc3e
000000e0: 43f6 df3e 1e02 443b e69e 4640 69ec 28bf
000000f0: 1130 d6bf 5d85 823d eea9 1bbd 97ea ad3d
00000100: 6685 96be 7ae9 aebd 1dae fbbe 2f31 23bd
00000110: a18a 2dbf 4b00 233f e2d0 3e3e 3cd1 f53e
00000120: 616e 00bf 3c3f 23bf cbd6 833d a5c7 12bf
00000130: 930f ae3e b7ec b8be bf8d 80bf 4b3f 90bf
00000140: 087c cdbf 407c 73bf 83ed dcbd 0009 14bc
00000150: 8b56 19bf 38bb fcbf 29ff c03e 2e68 8bc0
00000160: 6477 eabe 3540 15bf 7272 bb3e 4c2d c73e
00000170: dafb 123f a555 1a3e 7b93 9fbd 2a8b b23e
00000180: 4607 3f3f 84b1 893e 0133 0940 444c 2ebf
00000190: e1ae e8be f277 bc3e edf1 033f 440e 17be
000001a0: 64a6 213a 56db ab3f 07b4 213e 5a02 d840
000001b0: e617 cf3e fb8e 773f 31b0 d63e 5809 aebf
000001c0: 5bb2 9cbd 808a ccbb e014 a0bf 1248 14be
000001d0: 8958 543d 5c27 bf3e 0acf 9040 74c7 4a3e
000001e0: ed10 82c0 74d1 45bf bd2b d53d 00a0 cc3b
000001f0: 7666 d13e 152c bcbb e800 91be c5f9 e33f
00000200: 6de7 273f d10c 8e3d d062 383c e619 613f
00000210: 45c6 3dbd 3acc 0cbd ab6f 9fbf 87f7 413f
00000220: 1f61 d5bf 527c 213d d225 99bf cb49 0a3d
00000230: ba3a ff3f 1730 183f dc2a 96bd 48a2 76bf
00000240: 9e69 213f 8b12 0dbf 3723 613f 002f 5c3f
00000250: ce4e 593f a6bb 64be 3bec 2a3f cc3d 4cbf
00000260: 4791 51bf cbf4 6f3f e884 bbbc e77a 99be
00000270: 425c b140 0197 5a3f 3a25 6c3d 0907 97bf
00000280: 4898 d7bf 5a8a 3f3f d59c 853d 00a4 e4bb
00000290: 14eb 65bf 41dc 843d 63c0 16be b168 b13d
000002a0: d359 703f d9fa 883d b47d 95bf 0ee6 4f3d
000002b0: 988b 86bd 94c2 9bbf b0a2 ccbe c6b5 f93d
000002c0: 3357 77bf 22d7 383d 2036 4dbf c5c6 623f
000002d0: 39c8 793d 8463 d7bf 68ed 9abf be49 643e
000002e0: 701b e73e b013 15bc 405c 5e40 8f9e 67bf
000002f0: 9f23 1b3d 89d1 09bc 1547 a83d ea6d b1bd
00000300: 7750 51bf 3ae3 2e3d 865b afbf 6977 a53d
00000310: 0883 7bbf 1d4f 203f 2d30 5f3f d4bb 73bd
00000320: 57dd 9abf a818 5bbf 63f4 5e3f eb5e 3e3e
00000330: cd31 99bf b1e7 aebf bf88 94bf 2689 94bf
00000340: 8f37 fa3d cae9 e2bf 55ec 1d3f 74a6 babc
00000350: aa32 85bf 0069 efbf 9e90 0b3f 1ac5 38be
00000360: 74e4 0ebf bd53 653d 851d 6b3f f9a3 823f
00000370: 21cb 63be 297f bf3f 8ecb 2f3f 8c1a 603f
00000380: 6718 2b3e da7a 653f 588b 11c0 1b51 3f40
00000390: 48d5 aebf 8257 5f3f 93bb 653f 9f9c 5e3f
000003a0: 34fb 83bd 5a96 7c3e e1d8 543e c629 5bbf
000003b0: fe0c 92be 9f34 cd3f 0c05 e53e 8908 81bf
000003c0: 4dcb a6bd fc7f 93bc 9b57 4e3e b076 813e
000003d0: d42e 8f3c 1fe9 6d3f c7ac 863f 3d51 93be
000003e0: a116 85bf 2678 87bf b629 663f 386a c13c
000003f0: 226a 653f 755c 3bbd 2899 99bf 87f6 d53f
0.8525095 0.051155023 0.05743661 0.21905759 -0.07416692 0.04248052 -0.44882685 0.650658
-3.6580727 -0.065860815 -0.6476353 -0.03874646 0.20318606 0.726557 0.4947712 -4.608244
0.8165814 -0.5055299 0.074223615 0.77146983 0.65599847 0.523667 1.0193368 -0.3648773
-2.4538178 0.3149406 0.04603707 0.26713276 -2.5618396 -0.10645302 -0.054230962 -0.8989692
2.4723632 0.09094088 0.052259583 -0.037539084 -0.46278805 0.40669462 -0.9256228 0.062143825
0.49954495 -0.92064935 0.27076802 0.04119919 0.087095484 -0.8408738 0.40692577 -0.29846552
-0.6526487 0.011845604 -0.38441405 0.08310385 0.051380403 2.630264 -1.1076651 0.3691328
0.4374257 0.0029908489 3.1034484 -0.65985733 -1.6733419 0.06373093 -0.038003854 0.0849201
-0.2939865 -0.08540626 -0.49156275 -0.039841827 -0.67789656 0.6367232 0.1863437 0.48011196
-0.50168425 -0.63768363 0.06437453 -0.57335883 0.33996257 -0.361181 -1.0043257 -1.1269315
-1.6053476 -0.95111465 -0.10787489 -0.009035349 -0.5989768 -1.9744635 0.37694672 -4.3564672
-0.45794213 -0.583011 0.36610752 0.38901746 0.57415545 0.15071733 -0.077918015 0.348718
0.74620473 0.26893246 2.143738 -0.6808512 -0.45445922 0.3681026 0.51541024 -0.14751536
0.0006166457 1.3426311 0.15791331 6.750287 0.4044792 0.96702546 0.41931298 -1.3596601
-0.07651206 -0.0062420964 -1.250637 -0.14480618 0.051842246 0.37334716 4.5252733 0.19802648
-4.064566 -0.77272725 0.10408733 0.0062446594 0.40898484 -0.0057425597 -0.28321004 1.7810599
0.655875 0.06936038 0.0112540275 0.8793014 -0.046331663 -0.034374453 -1.2455953 0.7576832
-1.6670264 0.0394252 -1.1964667 0.03376178 1.9939797 0.5944838 -0.073323935 -0.9634137
0.63051784 -0.5510642 0.8794436 0.86009216 0.8488587 -0.22337207 0.6676671 -0.79781795
-0.818623 0.937329 -0.022890523 -0.2997658 5.542512 0.85386664 0.05765269 -1.1799022
-1.6843348 0.7482048 0.06524054 -0.006977558 -0.89811826 0.064873226 -0.14721827 0.086625464
0.9388706 0.066884704 -1.1678987 0.050756507 -0.06569594 -1.2168756 -0.3996787 0.12192874
-0.9661743 0.04512704 -0.80160713 0.8858455 0.060981963 -1.6827245 -1.2103701 0.22293755
0.4513812 -0.009098932 3.4743805 -0.90476316 0.037875768 -0.0084117735 0.08216683 -0.086635426
-0.81763405 0.04269717 -1.3699806 0.08079416 -0.9824681 0.6262072 0.87182885 -0.0595053
-1.2098798 -0.855845 0.87091655 0.18590896 -1.1968323 -1.3664457 -1.1604232 -1.1604354
0.12217628 -1.7727597 0.6168874 -0.02278445 -1.0406086 -1.8703918 0.54517543 -0.18043938
-0.5581734 0.055988062 0.9184192 1.020629 -0.22245456 1.4960681 0.68669975 0.8754051
0.16708528 0.8964058 -2.2741299 2.9893253 -1.3658838 0.872429 0.8973934 0.86957735
-0.064443976 0.2466673 0.20785858 -0.85610616 -0.28525537 1.6031684 0.44730413 -1.008073
-0.08144245 -0.018005364 0.20150606 0.25285864 0.017478384 0.9293384 1.0521477 -0.28772917
-1.0397531 -1.0583541 0.89907396 0.02361022 0.8961507 -0.04574247 -1.1999865 1.6715859

4.bias f4 [6]
00000000: 61dc 57be 43ef 9b3e 9a5d e23e 8e29 65bc
00000010: 4810 ae3c 99d6 253e
-0.21080162 0.3045598 0.44212037 -0.013986958 0.021247998 0.16195144

6.weight f4 [2, 6]
00000000: dc7b fd3f 3742 ae3f 0733 8bbf 812b 01c0
00000010: 00ed 883e d9c2 e43f 84a1 af3e 817e eebf
00000020: 1674 0fc0 cf49 c03f aaac 60be 8ef8 443f
1.9803424 1.3613957 -1.0874947 -2.0182803 0.26743317 1.7871963 0.34302914 -1.8632356
-2.2414603 1.5022525 -0.21940866 0.76941764

6.bias f4 [2]
00000000: 8403 efbd 67d8 fcbe
-0.116705924 -0.49383852
