src/main/resources/models/model_demonstrator_24_10_2024_11-55-48.pth (torch, 210722 bytes, 12 tensors)

0.weight f4 [128, 8]
000000 c0 e4 86 bd b0 6b 84 be da f5 9f be 77 cb 4b be
       -0.06586599 -0.2586341 -0.31242257 -0.19901834
000010 a4 2d d9 bd 78 44 c2 3d c6 09 03 be 4e aa 02 3e
       -0.106044084 0.09485716 -0.12796697 0.12760279
000020 13 d5 80 3e b6 00 d5 3d cb ca 45 3e 9e 39 01 be
       0.25162563 0.10400526 0.1931564 -0.12619635
000030 54 ab d4 3e 76 08 e4 bd 7e b3 6c be 13 d1 c7 3e
       0.41536963 -0.11134426 -0.23115346 0.39026698
000040 a9 ee b6 3e 27 26 04 3f 3f d5 c4 3d b5 2b 7c 3c
       0.35728958 0.51620716 0.09610986 0.01539128
000050 0d 7b be 3e 3a 05 90 bd 73 25 ae be 55 80 e5 3e
       0.37203255 -0.07032247 -0.34012946 0.44824472
000060 7c 1f 92 bc 92 8d f3 3e e1 e9 7d be d2 d9 06 3f
       -0.017837279 0.47568947 -0.24796249 0.5267612
000070 15 af 43 bf 10 66 1a bd be 06 1e be dc 2f 58 be
       -0.7643903 -0.03769499 -0.1543226 -0.21112007
000080 e6 8c 93 be 7c 11 6f be a1 ce a5 3c 82 8e 66 be
       -0.28818434 -0.23346514 0.02024013 -0.225153
000090 db d8 99 3e 3a 5e 70 be b8 13 64 bc 88 34 9d 3e
       0.3004826 -0.23473445 -0.013920717 0.3070414
0000a0 cd 7e 30 3e 5f 00 5b be 21 cf 5f 3e 99 ee 72 3e
       0.1723587 -0.2138686 0.21856357 0.2372383
0000b0 67 04 fe 3e 70 23 82 3e ce 53 9a 3e a5 6b 49 be
       0.49612734 0.25417662 0.30142063 -0.1966997
0000c0 e1 c5 12 be e2 85 93 3e 18 bf 85 be 84 31 69 bd
       -0.14333297 0.28813082 -0.26122355 -0.056931987
0000d0 27 a1 9c 3c fc 28 d5 3e d0 49 f4 bc 83 2f fb 3e
       0.019119812 0.4163283 -0.029820353 0.49059686
0000e0 b8 25 44 bd 08 cc bf 3d 20 c4 88 be 60 65 8f 3d
       -0.047887534 0.09365088 -0.26712132 0.070017576
0000f0 d5 09 0b be 84 a5 95 be f4 2c 91 bd 08 79 b0 3d
       -0.1357797 -0.2922784 -0.07088652 0.08616835
000100 39 44 80 3e 04 f6 a8 bd b0 7b f9 bd 9f bb 66 3e
       0.2505205 -0.08250049 -0.12181795 0.2253251
000110 00 83 04 be 0b a2 c7 3d 1d dd 22 3e 8b e4 92 be
       -0.12940598 0.09747704 0.1590466 -0.2868999
000120 3e 41 16 3e f5 6c 9a 3e 11 4b d7 be f6 89 b5 bc
       0.14673325 0.30161253 -0.4204946 -0.022160511
000130 27 4e a1 3e 60 71 c7 3d b7 d3 b6 3e cd 28 26 3d
       0.31504938 0.097384214 0.357084 0.040566254
000140 8a 74 28 3e 0b ab 00 be 2e 07 0b 3e 5a f2 e0 bd
       0.16450706 -0.12565248 0.13576958 -0.10983725
000150 80 53 07 3d 49 1a 92 be 29 a9 a4 be 4c d6 86 bd
       0.033038616 -0.2853568 -0.3216031 -0.06583843
000160 3a 84 44 be 8e 79 ed 3e c1 3f 24 bd 12 c2 74 3e
       -0.19191065 0.463818 -0.040099863 0.23902157
000170 1c f7 88 3e c8 8a 6d 3e a7 84 d6 bd 2c 02 39 bd
       0.2675103 0.23197472 -0.1047452 -0.045168087
000180 ee 32 d4 3e ff f0 22 be 99 1c 06 3e 0d ab 19 3e
       0.41445106 -0.15912245 0.13096847 0.15006657
000190 8a ea cc bc c4 83 48 bf 73 31 d2 3e 91 80 4b be
       -0.02501418 -0.7832606 0.41053352 -0.19873263
0001a0 5f 65 25 be c8 c6 12 bf 4f 05 6b 3e 95 84 cd be
       -0.16151951 -0.57334566 0.22951244 -0.40140215
0001b0 4d 34 ea bd 26 47 de bd 1b ab 13 3f f8 69 b3 3e
       -0.11435757 -0.10853414 0.5768296 0.35041785
0001c0 ff 3b f5 bd 60 74 6c be 17 b9 d1 be 68 44 db bb
       -0.11974334 -0.23091269 -0.40961525 -0.0066915043
0001d0 c2 72 3c 3e 2c 38 ae be 3e b1 ce 3c 49 c5 fd 3e
       0.18403152 -0.3402723 0.025231 0.4956458
0001e0 92 41 17 3e e5 32 f7 3c 54 f5 0d be a3 92 c2 3e
       0.14771107 0.030175636 -0.13863117 0.380025
0001f0 31 d7 a3 bd a8 83 89 3e 3e b5 2d 3d 75 59 f9 3d
       -0.08000029 0.26858258 0.042409174 0.12175266
000200 02 95 4e be 3b 1b 1c bd b3 58 de bd a9 54 96 be
       -0.2017403 -0.038111906 -0.10856762 -0.29361466
000210 55 e2 b1 3e 06 75 9f bd 07 22 f8 3e a1 5b bc bd
       0.3474299 -0.07785992 0.4846346 -0.09197164
000220 c0 06 c0 3b c2 fd 4f 3e 60 1f 09 3c 9e 50 75 be
       0.0058601797 0.20311645 0.008369297 -0.23956534
000230 58 0b 15 3d 59 d7 b3 be 46 a7 aa be a0 12 a6 bd
       0.03638777 -0.35125235 -0.33330745 -0.08109021
000240 d1 e3 75 3e 08 81 37 be a6 f3 ed 3d 6e e5 9b 3e
       0.24012686 -0.17920315 0.11618738 0.30448478
000250 5f 99 e1 3e d8 0d 12 bd f4 99 1c 3d 34 9f 2e 3e
       0.44062325 -0.035657734 0.03823276 0.17052919
000260 5c a8 60 3d 8e 06 99 3e 50 32 a8 be 35 8b 0e 3f
       0.05484806 0.29887813 -0.32850885 0.55681163
000270 c0 3e d5 be ed 86 1e 3d cc 03 66 3d 12 1d d2 3d
       -0.41649437 0.038702894 0.056155965 0.10259451
000280 ab 48 50 bd ea 48 e5 3d 97 3d be 3d af e3 87 3e
       -0.05085055 0.11195548 0.09289091 0.26540896
000290 9f 13 f3 be 84 27 9b 3e d9 af 0c 3e 0f 38 3d 3e
       -0.47475907 0.30303586 0.13738956 0.18478416
0002a0 04 af 96 3e 5e 74 f2 3e 4d f1 2e 3e 12 b0 58 3e
       0.294304 0.47354406 0.17084236 0.21160915
0002b0 29 8e 6c 3e 2a ef 36 3e 93 08 c4 be 6d dc 37 3e
       0.23101105 0.17864671 -0.38287792 0.1795518
0002c0 13 82 73 3e e9 6a e8 bd 19 68 a9 be b4 4b a6 3d
       0.23780088 -0.113485165 -0.33087233 0.08119908
0002d0 e7 ab cc 3e cf b6 31 3e 84 68 d6 3d e9 4f c9 3e
       0.399749 0.17354892 0.104691535 0.3931878
0002e0 f5 01 18 3e e5 df 91 3e 27 c6 7e 3e 8f 26 f4 be
       0.14844497 0.2849113 0.24880277 -0.47685668
0002f0 14 2b 19 3d e2 a6 66 3e 23 09 eb 3e d9 9a 0c 3f
       0.037394598 0.22524598 0.45905408 0.5492378
000300 10 f4 b4 3e a8 f6 7d 3e 28 07 96 3e 8b fa 12 be
       0.35342455 0.24801123 0.29302335 -0.14353387
000310 5a d0 c1 3d b3 64 ed bd e2 ed 9f 3e 1a 98 3e bd
       0.09463568 -0.115914725 0.31236178 -0.046531774
000320 fa cd b0 3e 9e 47 7c be 3b af dd be 04 37 6c 3e
       0.34532148 -0.24636695 -0.43297753 0.23067862
000330 99 52 71 be 28 76 b1 3e 78 fe 1a be ba 89 1b bf
       -0.23566665 0.3466046 -0.15136135 -0.6075703
000340 e9 31 1a 3a 41 77 56 3e 06 59 9f 3c c7 a4 0e 3f
       0.0005882071 0.2094393 0.01945163 0.5572018
000350 25 fc aa be bc bf 3a 3e cc ef 4c bd b7 f2 9f be
       -0.33395496 0.18237203 -0.050033376 -0.31239864
000360 cf 23 b0 bd fc 81 2c bd 16 79 a1 3e 11 14 01 3c
       -0.0860058 -0.04211615 0.31537694 0.007878319
000370 ba 1f eb 3e be cb 64 3e 37 d1 e0 3d bd 9d 78 3e
       0.45922643 0.22343346 0.109774046 0.24278922
000380 0f f2 b4 3e 2d 50 0c 3e a8 3f 51 3d 5f 9c 1f 3e
       0.35340926 0.1370246 0.051086098 0.15586995
000390 fb 16 9b 3e a3 90 00 bd 05 67 89 3e 06 72 a7 3d
       0.3029097 -0.031387936 0.2683641 0.08176045
0003a0 8c f5 d3 bd 30 ac b4 bc 0e be f9 bd e8 5a ad be
       -0.10349569 -0.022054762 -0.12194453 -0.33858418
0003b0 5a c5 06 be 80 d3 76 3d 52 d6 33 be ac e7 89 be
       -0.13161221 0.060260296 -0.17562225 -0.26934564
0003c0 c5 c1 4b 3e 26 3f 06 be 0a 10 b2 be a0 a9 b1 3e
       0.19898136 -0.13110027 -0.34777862 0.34699726
0003d0 6f 18 c5 3e f2 cf 68 3d 24 30 21 be be 76 75 3d
       0.38495204 0.056838937 -0.1574102 0.059927694
0003e0 07 d9 a8 bc d9 53 0b 3e 04 06 f5 be 10 53 3d 3e
       -0.0206113 0.13606204 -0.47856152 0.18488717
0003f0 b3 f5 a2 3d 21 f3 b5 3e 18 98 12 3f 25 e9 ac 3e
       0.0795702 0.35537055 0.57263327 0.33771625

0.bias f4 [128]
000000 00 0e 0c 3c 72 49 aa 3e db fb 37 3c 2c c1 d4 3d
       0.00854826 0.3325916 0.011229481 0.10388407
000010 cf 22 c0 3e 36 1d 4a 3e d0 bb b3 3e 84 77 e4 bd
       0.37526557 0.19737706 0.35104227 -0.11155608
000020 51 34 9e 3e 7e 94 35 3e fb 5a 49 be 10 57 38 3d
       0.3089929 0.17732427 -0.19663613 0.045004904
000030 03 60 11 3d 97 bf a1 3c ee f6 bd 3e cc 69 0e 3f
       0.035491955 0.019744677 0.37102455 0.55630183
000040 31 41 bb 3e c5 43 b1 be b8 13 ea 3d 1f 89 83 be
       0.36573175 -0.34622017 0.11429542 -0.25690553
000050 4a 8c 11 3f 43 77 98 3e 01 59 76 bc b2 23 7a bd
       0.5685469 0.2977849 -0.015035869 -0.061069198
000060 5b 93 5d bd 94 2a 12 3e 9a 35 85 be ba 11 a3 3e
       -0.054095607 0.14274055 -0.26017457 0.31849462
000070 6a d0 7c bd c1 cf 2f be a2 ab 0f 3e 3c af 98 be
       -0.061722197 -0.17169096 0.14030316 -0.29821193
000080 d5 40 b3 bd fe 23 2f be 7e 12 b9 3e 8d a6 53 3e
       -0.087526 -0.17103574 0.3614692 0.20669003
000090 3a ef 31 3e d5 95 98 3e 19 ce 50 bd 56 c9 69 3e
       0.17376414 0.29801813 -0.0509778 0.2283071
0000a0 8c 69 0e 3f 9b eb 9a 3e b3 57 23 3e 2e ba 3b bd
       0.556298 0.30257878 0.15951423 -0.04583185
0000b0 81 a7 8e 3e fa b7 95 be 23 a9 04 3f 96 69 6b 3e
       0.2786217 -0.29241925 0.5182058 0.22989497
0000c0 51 de 01 3f e9 ce 62 bd af f7 72 bd 34 29 8b 3e
       0.5072985 -0.055373106 -0.05931824 0.27179873
0000d0 af aa 7c bc c4 38 97 bd d3 1b d7 3e 3d 42 9e 3d
       -0.0154215535 -0.07383874 0.42013416 0.07727478
0000e0 63 05 35 be ad 89 97 3e c2 00 6e 3e 2f 0e 7a 3e
       -0.17677836 0.29597226 0.23242477 0.24419473
0000f0 f7 97 c7 3d 4b d6 4a 3e bd 59 8e 3e b0 9b 9f 3e
       0.09745782 0.19808309 0.2780284 0.31173468
000100 d0 dc b4 3e fd 45 aa be b8 8e 6e be 61 7e 27 be
       0.35324717 -0.33256522 -0.2329663 -0.16356803
000110 6d 7e fc 3e b7 85 ad 3d c3 1e 1b be 9a 77 92 3e
       0.49315205 0.0847277 -0.15148453 0.28606874
000120 7c 4a cc 3e 2e 92 8f be 0f 65 6e 3e dc 09 c1 3e
       0.39900577 -0.28041214 0.23280738 0.37702835
000130 2c 46 6a 3e 9c 5e 97 3e db 34 ed 3e 1f d8 22 3e
       0.22878331 0.2956437 0.46329388 0.15902756
000140 9d 12 7a 3e d4 5a 16 3e d5 4c a3 3e d1 76 91 bd
       0.24421163 0.14683086 0.31894556 -0.071027406
000150 f7 e5 91 be ac e3 a1 be 0c f1 c6 3e 65 c9 18 bc
       -0.28495762 -0.31619012 0.3885578 -0.00932536
000160 4e 4f 8f 3d 66 4b 31 3e 12 74 81 3e 9d c7 06 3f
       0.06997548 0.17313918 0.25283867 0.52648336
000170 e0 56 9f bd e2 f0 ac 3d 9d c1 76 3e 9d d8 89 3e
       -0.07780242 0.08444382 0.24097295 0.26923075
000180 85 b2 04 3f e1 4c 79 be 63 6c 73 3e 45 17 2a be
       0.518349 -0.24345733 0.23771815 -0.16610439
000190 74 70 a5 3e 84 da 70 bd ee c6 c9 3e 24 bf 8e bd
       0.32312357 -0.058802143 0.39409584 -0.06970051
0001a0 58 b5 0f be d2 d4 af be 1c fb 36 3e c5 e6 5f be
       -0.14034021 -0.34342057 0.17869228 -0.21865375
0001b0 da 93 98 3e ea 61 a6 3e f2 73 84 3e 15 03 7f 3d
       0.29800302 0.32496578 0.2586971 0.0622588
0001c0 0e 22 85 be 30 c6 23 3d 14 4d d2 3e 07 c2 f8 3e
       -0.26002544 0.03998393 0.4107443 0.4858553
0001d0 d5 7a a2 be d1 06 31 bd a9 4b 4e 3e e3 a1 a7 bc
       -0.31734338 -0.04321939 0.2014605 -0.020462936
0001e0 32 f0 e6 bc 5d 8e 0a 3e 92 63 e8 3e de e6 f0 3d
       -0.028190706 0.1353087 0.45388466 0.117627844
0001f0 ac d9 d2 3e f3 ba f0 3e 77 37 54 be b7 5c 07 3e
       0.41181695 0.4701763 -0.20724283 0.13218962

2.weight f4 [128, 128]
000000 7d a4 91 3d 16 64 55 bd 99 9f 83 3d c8 c1 b6 bc
       0.07111452 -0.052097403 0.06426925 -0.022309199
000010 4a d1 32 3d 18 ac 33 3c 12 3c 30 3d f0 26 f4 bc
       0.043656625 0.010966323 0.043026038 -0.029803723
000020 6c 6d 90 bd a4 c3 b7 bc 30 6c 08 3c a0 db 3b bb
       -0.070521206 -0.022432156 0.008326575 -0.0028664842
000030 cf 52 84 3d 80 90 e9 3b 80 17 3d bd fc 02 7e bd
       0.06461107 0.0071278214 -0.04616499 -0.062014565
000040 30 70 6d bc cf 62 a0 3d d7 8a 8c 3d c3 66 5f bd
       -0.01449208 0.07831346 0.06862419 -0.05454136
000050 c5 61 82 bd 40 0e 0f 3b 40 d8 58 3c b8 db e1 3c
       -0.06366304 0.0021828562 0.013235152 0.02757059
000060 80 14 66 bc b0 19 c7 3c 90 d5 0c 3c a0 11 90 3c
       -0.0140429735 0.024304241 0.008595839 0.01758653
000070 b4 f7 4f bd 24 15 8f 3c e0 ee 5d 3c 14 2e 51 bd
       -0.050773337 0.017466135 0.013545722 -0.051069334
000080 40 f3 86 bc 77 11 b0 bd 6e 0a 6d 3d 10 bd 0d bd
       -0.016473413 -0.08597081 0.057871275 -0.034604132
000090 3e 86 1d bd e8 6b da 3c 38 43 33 3c 30 6b a4 bd
       -0.0384581 0.026662782 0.010941319 -0.08028257
0000a0 c2 c7 a4 bd 06 c2 6f 3d 39 ac 35 bd a9 11 84 3d
       -0.08045913 0.058534645 -0.044353697 0.06448681
0000b0 50 9d ca 3b 76 00 7d bd 08 48 80 3c 1b b5 a0 bd
       0.006183304 -0.061768018 0.015659347 -0.07847043
0000c0 c8 50 81 bd ec 2f 0a bd e8 18 ac bd 23 1f 78 bd
       -0.06314236 -0.033737108 -0.08403188 -0.06057657
0000d0 fe f0 7a bd 2b c6 ab bd 58 e2 53 bc 3a 20 23 3d
       -0.061264984 -0.08387407 -0.0129323825 0.039825656
0000e0 10 cd c4 bb ce fc 29 3d fa e1 78 bd 6d 3f 4f bd
       -0.0060058907 0.04150086 -0.060762383 -0.050597597
0000f0 4e b2 46 3d 09 37 82 bd f0 18 18 bc c0 7a ce 3c
       0.04850989 -0.063581534 -0.009283289 0.025205016
000100 ae d9 5a 3d f2 cd 00 3d ea a8 65 3d ca 12 92 bd
       0.05343025 0.031446405 0.056069292 -0.0713249
000110 a0 c8 ea bb 23 80 83 bd d0 bd 91 3b 7a 80 7a bd
       -0.0071650296 -0.064209245 0.0044476762 -0.06115768
000120 10 4a 5a 3c 06 34 5d 3d a0 cc 6b 3b 0e dd 69 3d
       0.013323322 0.05400469 0.003598012 0.05709558
000130 81 ce 83 bd d8 b3 e3 3c 98 76 26 bc 58 24 45 bd
       -0.06435872 0.027795717 -0.010160111 -0.048130363
000140 08 68 f5 bc 78 13 cd bc 10 ac cf bc cb 88 94 bd
       -0.029956833 -0.025033697 -0.0253506 -0.07252654
000150 9a e1 24 3d 8e 1c 5b 3d 60 ae e9 3b d2 2e 6a bd
       0.040254213 0.05349403 0.007131383 -0.057173558
000160 70 60 dc 3b fc cf a2 bd a8 7a 8c bc 3c 5e b6 bc
       0.0067253634 -0.07949826 -0.01714833 -0.022261731
000170 ca cc f9 bc 80 06 0e ba 03 16 67 bd 71 fe 34 bd
       -0.030493159 -0.00054178387 -0.056417476 -0.044187967
000180 a0 de 8e 3b be 34 16 3d 64 fd b1 3c 3c 09 94 bd
       0.004360035 0.036671393 0.021727271 -0.07228324
000190 12 76 2f 3d 60 2c 67 bc 36 2d 13 bd f0 e1 40 3c
       0.04283721 -0.014109701 -0.03593179 0.011772618
0001a0 6a 27 47 bd f0 fe 85 bc 9e 9a 17 3d 67 9b 92 3d
       -0.048621573 -0.016356915 0.03701269 0.07158547
0001b0 aa 9b 15 3d 00 ee 7f 3c f4 bf 97 3c 5e eb 0d 3d
       0.036525406 0.015620708 0.018524148 0.03464829
0001c0 f0 ec 94 3c 90 dc 7e bc eb a1 1b bd 8b fc 8e 3d
       0.018179387 -0.015555516 -0.037996214 0.069817625
0001d0 92 f7 29 3d 6f e3 90 bd e7 69 1b bd f0 20 f3 3b
       0.041495867 -0.070746295 -0.037942793 0.007419698
0001e0 a0 1c ac bc 70 64 7d bc 28 8b a2 bc 17 3f ae bd
       -0.021009743 -0.015465841 -0.019841745 -0.08508127
0001f0 c2 83 27 3d 86 96 16 bd 62 e4 e6 bc fe 72 64 3d
       0.04089714 -0.036764644 -0.028185073 0.055773728
000200 50 ad 0a 3c fb aa 9c 3d 01 27 ac 3d a2 13 01 bf
       0.0084641725 0.076497994 0.08405877 -0.5042058
000210 95 51 44 3e 44 83 ef 3d 48 59 1a 3d 00 84 da 38
       0.19171746 0.11694959 0.0376828 0.00010419637
000220 cc 7d e7 bd 8c ed b6 3d 18 1d 2e bd 4e 4e 33 3d
       -0.11303291 0.08932027 -0.042508215 0.04377585
000230 7c 92 13 3f db e9 22 3f 8f fe 05 3e 8c b7 9b bd
       0.5764539 0.63638085 0.13085388 -0.07603368
000240 8d 69 93 3d f4 e2 a2 3c c6 f0 50 3e 79 57 48 3f
       0.071978666 0.01988361 0.20404348 0.7825847
000250 7c 46 29 be d1 a9 0f 3c 1f aa 44 3e 41 d0 83 bc
       -0.16530794 0.008768515 0.19205521 -0.016090514
000260 96 ad 50 bd b0 39 12 bf fb 0f 91 3c fa b1 51 3e
       -0.050946794 -0.57119274 0.017707815 0.20478049
000270 5b e5 d6 bc 00 02 24 bc 39 db 72 3e 25 ba d8 3d
       -0.026232412 -0.010010242 0.2371644 0.10582379
000280 d8 e0 1f bf ea 92 49 3d 80 28 83 3d 50 ef 29 bf
       -0.6245246 0.049212374 0.06404209 -0.66380787
000290 98 05 13 3e e1 87 52 3e 88 fd bd 3a 2d c3 fd bd
       0.14357603 0.20559646 0.0014495114 -0.123907425
0002a0 10 c8 72 be 95 76 3d bb 04 52 88 bd e5 44 3f be
       -0.2370913 -0.0028909792 -0.06656268 -0.18678625
0002b0 48 e8 9c 3d 80 04 39 3c d5 22 4c be e3 bb e4 3d
       0.07661492 0.011292577 -0.19935162 0.11168649
0002c0 a5 9b 26 be 72 fb 3f bb e1 bd 4a 3e 7f 7d eb 3d
       -0.16270311 -0.002929416 0.19798996 0.11498546
0002d0 b5 a7 81 bd 3e 4c 2f bd 59 9d 76 3e 24 66 00 3e
       -0.06330816 -0.04279732 0.24083461 0.12538964
0002e0 8c 22 02 bf 6c db 8f 3d c9 ad c0 bd 83 55 29 3e
       -0.50833964 0.07024273 -0.09408147 0.16536526
0002f0 a0 71 b4 bd ec 9a 1f 3e 0b 21 8d 3e b3 0f 95 be
       -0.08810735 0.15586442 0.27564272 -0.2911354
000300 3c ff 0d 3e f7 35 67 bd f4 ad 84 bd 14 75 1b bf
       0.13866895 -0.05644795 -0.064784914 -0.6072552
000310 63 f5 a4 3d 37 25 1c 3e b9 52 43 bd 81 b9 9d 3e
       0.08054616 0.15248571 -0.047686312 0.3080559
000320 8e 22 31 3f 4c 2e 9f bd 39 ad 48 3e 95 ae 1e 3e
       0.6919335 -0.07772502 0.19597329 0.15496285
000330 ad f1 4a 3d 1c 8a 22 bf c1 aa 20 3e 95 3a 8b 3e
       0.049546886 -0.6349199 0.15690137 0.27193132
000340 95 92 02 3e 7c 26 80 3c af c2 a9 bc 3c 68 37 be
       0.12751229 0.01564335 -0.020722715 -0.17910856
000350 87 8b 85 3c f7 a2 1a bd b3 f4 66 3e eb 86 38 bc
       0.016301883 -0.03775307 0.22554283 -0.011262636
000360 24 e7 78 3d b8 c7 34 be d8 2b a0 bd e5 71 0e be
       0.060767308 -0.17654312 -0.078208625 -0.13910635
000370 71 8e 92 3d 4e df bf be c3 83 21 be b3 dc c4 be
       0.07156075 -0.37475055 -0.1577292 -0.3844963
000380 56 af 3a 3e 83 d0 f3 be 37 fb 86 3e d4 3a eb be
       0.18230948 -0.4762002 0.26363537 -0.4594332
000390 d5 c9 14 3e 21 bf 07 be 7b 54 40 3e d9 84 86 3d
       0.14530118 -0.13256504 0.18782227 0.065683074
0003a0 67 a6 e7 be e1 72 89 3e 02 e3 85 be 65 ed e0 be
       -0.45244142 0.26845458 -0.26149756 -0.43931118
0003b0 7a 48 45 be 2f da a1 3d b4 d0 03 3e 45 6c 56 3c
       -0.19265929 0.07902943 0.12872583 0.013087337
0003c0 3b c1 f2 be 2a 3e 52 bf fc 9b f8 3e ea a3 9b 3c
       -0.47413048 -0.82126105 0.48556507 0.018999059
0003d0 1d 7c 96 3d 02 6c 38 3e 1f 39 49 be de d5 74 3c
       0.073478915 0.18009952 -0.19650696 0.014943568
0003e0 f7 b8 95 3d 97 a6 1d bf 4b 4c 0e bd 3e 2e f7 bc
       0.0731067 -0.6158232 -0.034740727 -0.030173417
0003f0 42 ed 60 3e 10 5f 95 bd 54 3c 69 bd 10 99 a7 be
       0.21965507 -0.07293522 -0.0569423 -0.32733965

2.bias f4 [128]
000000 5c 13 2c bd be 9c 91 3c 94 e3 f1 3c e7 94 33 3e
       -0.04201065 0.017774936 0.029527463 0.1753727
000010 1b 53 0a 3e 61 ef 4d 3d 91 c1 4f 3e 16 41 49 3e
       0.13508265 0.050277118 0.20288683 0.19653735
000020 df 82 15 bd 70 06 12 3e e6 a2 58 3d 32 78 32 3d
       -0.03650176 0.14260268 0.052889727 0.04357166
000030 52 72 3f 3e 02 65 29 3e 33 4d ad 3d 1d 56 51 3e
       0.18695953 0.16542438 0.0846199 0.20443006
000040 fe 35 78 3d e4 e6 f7 3d fb 90 51 3e 1e 51 91 3d
       0.060598366 0.12104586 0.20465462 0.0709555
000050 23 07 49 3e fc 2b 65 3d 5d 47 88 3d 98 b5 49 3e
       0.19631629 0.05595015 0.066542365 0.19698179
000060 36 36 ef bc 0e aa c8 3d 70 4e 59 bc be 7f 7b bd
       -0.029200654 0.0979806 -0.01326333 -0.06140112
000070 af c7 10 3e 67 d6 d5 bd 42 3a cb 3d a5 5d 99 bc
       0.14138673 -0.104412846 0.09923221 -0.018721411
000080 bb f5 46 3e 00 b1 80 3d a1 6f 7e 3e d1 f1 5a 3e
       0.19429676 0.0628376 0.2484727 0.21381308
000090 d2 06 06 3d 83 9a 32 3e a2 20 7e 3d a0 3d 8e bb
       0.032721348 0.17441754 0.06204284 -0.0043408424
0000a0 97 a7 b9 3c 15 7f f8 3d 54 b1 82 3c de 61 67 3e
       0.02266292 0.12133614 0.015953697 0.22595927
0000b0 3e 19 56 3e 92 c5 fd bc dc d5 81 3e 47 a8 01 bd
       0.20908067 -0.030977998 0.25358474 -0.031654622
0000c0 2e 4a 25 3e ae f1 c7 3c 36 b1 88 3d 2b 46 fc bb
       0.16141579 0.024407234 0.06674425 -0.0076987944
0000d0 f4 73 3a 3e 2a 7a d4 3d f1 3f d2 bc 26 2a 87 bc
       0.18208295 0.103748634 -0.025665255 -0.01649959
0000e0 10 72 f3 3c 86 53 2f bd 3e 1d ee 3d 7b 50 4b 3e
       0.029717475 -0.042804264 0.11626671 0.1985492
0000f0 f4 b7 17 3e 0f 24 ee bc 04 0c a5 bd 1b 17 29 3d
       0.14816266 -0.029069928 -0.080589324 0.0412818
000100 34 2e b4 bc 01 06 c4 3d b6 c9 d5 3d d6 d6 3b 3e
       -0.021994688 0.09571458 0.10438864 0.18343672
000110 8a 61 76 bb e6 0d 6b 3d 62 8f ca 3d e7 80 62 3e
       -0.003759476 0.0573863 0.09890629 0.22119485
000120 40 d9 b3 bd a7 42 a2 bd 17 ac f6 ba e6 8e a4 bd
       -0.087816715 -0.07922869 -0.0018819597 -0.08035068
000130 c5 dc 52 bd 7e ea fb 3d 5e 25 3e 3d 8e f5 85 3d
       -0.051480073 0.12300585 0.046422355 0.065409765
000140 08 22 5d 3c ae ca 07 3e b3 c9 43 3e c9 67 b8 3d
       0.013496883 0.1326091 0.19119911 0.090041704
000150 25 c9 e0 3c 2a 02 24 3e 96 ac 43 3e 61 af 9b 3d
       0.027439663 0.1601645 0.19108805 0.0760181
000160 d5 f7 63 3e 20 25 34 bb 9b 02 0f 3e a2 f6 93 bd
       0.22262509 -0.0027487949 0.13965838 -0.07224776
000170 a6 c1 78 3e d3 02 fe 3d 08 e2 8f bd 52 02 e4 3d
       0.24292621 0.124028824 -0.07025534 0.11133255
000180 8e 35 bb 3d 20 b4 5a 3b 6f bd 54 3e 99 73 6c 3e
       0.09141074 0.0033371523 0.20775388 0.23090972
000190 e0 ef 44 3e 20 c3 83 bd 42 6f 5f 3e 3e 9e 7c 3d
       0.1923213 -0.064337015 0.21819785 0.06167435
0001a0 35 f7 1d 3e eb 4f ee 3d ca b5 6d 3e bd 14 6e 3d
       0.15426333 0.11636337 0.23213878 0.058125246
0001b0 23 cd 87 bd 2c a2 47 3e 50 62 11 3e ce df 2d 3e
       -0.066309236 0.19495457 0.1419766 0.16979906
0001c0 3f 42 97 bd 1a 53 22 3e 08 5f 23 3e 4e 42 5d 3e
       -0.07385682 0.15852013 0.1595422 0.21607324
0001d0 79 48 fa 3d 40 7d 92 bd aa 9c 6f 3d e4 39 e0 3d
       0.12220854 -0.07152796 0.058499016 0.10948542
0001e0 28 5a 9b bb 79 60 2f 3e 8d 00 44 3e da 9d be 3d
       -0.004740972 0.17126645 0.19140835 0.093074515
0001f0 f8 27 5d 3c 68 89 29 3e f5 d1 4c 3e b9 7c 40 3e
       0.013498299 0.16556323 0.20001967 0.18797578

4.weight f4 [128, 128]
000000 98 a9 d7 3c f1 f1 2b be 97 78 a4 3d 92 c4 4a 3e
       0.026325986 -0.16791512 0.08030813 0.19801548
000010 49 e3 5f 3e 2d 97 b3 be f8 1d 9b be ad fc bd bd
       0.21864046 -0.35076275 -0.30296302 -0.0927671
000020 08 3a 41 3e 96 06 1d be 90 b5 e4 3c 9b 1e 40 bf
       0.18869793 -0.15334544 0.027918607 -0.750467
000030 1b 9c 40 3e e1 0f 38 3e 1f 0f e6 be 04 24 1a 3e
       0.1880955 0.17974807 -0.4493341 0.15052801
000040 23 85 36 3e 75 a7 40 be 50 e2 0f 3e a2 78 1f bd
       0.17824225 -0.1881388 0.14051175 -0.038933404
000050 87 d5 1d be 9e ce 0f 3e ba ea 8f bd 01 1f 30 be
       -0.15413485 0.14043662 -0.070271924 -0.17199327
000060 0f 24 a3 bd 31 35 85 3e 43 51 a8 3d 4e 5f 14 be
       -0.07965862 0.26017144 0.082186244 -0.14489481
000070 1b 6a 8f be 88 c7 af bf 33 7b 37 3e 35 96 4d 3e
       -0.2801064 -1.3732767 0.1791809 0.2007683
000080 d0 c8 8b 3e 30 e0 a0 3e c0 68 1e be b3 53 bc 3d
       0.27301645 0.3142104 -0.15469646 0.09195652
000090 d3 ab 65 3e a0 d0 22 bd 59 80 79 bd c5 16 01 3e
       0.22428827 -0.03974974 -0.060913417 0.12606342
0000a0 dc bb 00 3e 32 c9 fa bd 02 f5 bd 3e be a1 17 3e
       0.12571663 -0.12245406 0.3710099 0.14807793
0000b0 02 f7 18 be c2 68 05 3d 4e e4 63 3e 6c ba 99 bd
       -0.14937976 0.032570608 0.2225506 -0.0750626
0000c0 35 ed 3b be da 22 94 3c bf 0b 89 3e 29 55 c5 3d
       -0.18352206 0.018083025 0.26766774 0.09635384
0000d0 ca 8f ce be e9 25 28 bf b0 6b 84 3e 0a 35 30 be
       -0.40344077 -0.65682846 0.2586341 -0.17207733
0000e0 5f 03 64 3c 37 a7 02 3d a4 c7 33 bd 0f 48 52 3e
       0.013916819 0.03189775 -0.043891564 0.205353
0000f0 29 d7 e4 3d 48 8c 1d 3e 53 d9 9a 3d ca 52 3c be
       0.11173851 0.15385544 0.075609826 -0.18390957
000100 0c 02 22 bf 18 3d fd 3d 5e 4a f3 be 5c f8 c6 3d
       -0.63284373 0.12365168 -0.47517675 0.097153395
000110 49 a5 1a 3d 50 ec ee bc 53 9d 4c 3e 2f 4c 93 bb
       0.037755284 -0.029165417 0.1998189 -0.004495166
000120 28 04 5a 3c 87 6a 8e 3e e4 99 28 3e d6 64 63 bc
       0.013306655 0.2781565 0.16464955 -0.013879022
000130 e8 33 b4 bd 48 5e 1f 3e d0 f0 f4 bb 56 e2 a9 bd
       -0.08798963 0.15563309 -0.007474996 -0.08295123
000140 87 e8 20 bd fe 94 85 3e 97 6e 56 3e 03 c7 26 3e
       -0.039284255 0.26090235 0.20940624 0.16286854
000150 07 e6 42 bf c4 37 72 3e a9 b4 15 be b6 2b bb be
       -0.76132244 0.23654085 -0.14619698 -0.36556786
000160 20 f6 49 be 18 e7 c8 bc 6f 11 74 3e 53 58 b4 3d
       -0.19722795 -0.024524257 0.23834775 0.08805909
000170 62 ff d2 bc 10 82 58 3d 36 25 3c 3d df 1b 98 3e
       -0.025756542 0.052858412 0.045933925 0.29708764
000180 7c 87 86 3d 58 9a ac 3e 6f 24 c9 3d bc c3 53 be
       0.0656881 0.33711505 0.09821402 -0.20680135
000190 36 6f 06 3e 88 b3 8f 3d b7 68 8f bd d0 a0 07 3d
       0.13128361 0.07016665 -0.07002395 0.033112347
0001a0 13 e1 37 3e f8 a2 ae be cf e0 89 bd 44 99 8d 3e
       0.17956953 -0.3410871 -0.06732332 0.27655995
0001b0 e9 f7 6d bd c9 7d 13 be d7 28 23 be a4 22 85 3e
       -0.058097754 -0.14403452 -0.15933548 0.2600299
0001c0 f8 33 14 3e 6d 16 48 bd 7d 85 85 be 1c 84 fd bd
       0.1447295 -0.048849512 -0.26078406 -0.123787135
0001d0 ef 0b 88 be 42 22 3b 3c df 84 61 3d 6a ba d0 3b
       -0.26571605 0.011421742 0.055058356 0.0063698785
0001e0 54 67 f5 bc 2f f5 01 3e 3a 7e 07 3e 17 b4 12 3e
       -0.029956497 0.12691186 0.13231745 0.14326511
0001f0 60 a7 86 3b 0a 48 00 3e 78 83 4b be 11 f7 20 ba
       0.004109308 0.1252748 -0.1987437 -0.00061403314
000200 09 fa 8e bd 84 3e 48 3e 2d f3 96 bd e6 fc c5 bd
       -0.06981284 0.19555098 -0.07370601 -0.09667377
000210 a6 8a 99 3d 73 a3 39 3e a2 58 a2 bd 24 0f 1c be
       0.07497148 0.18128757 -0.079270616 -0.1524015
000220 2c cd 30 3e 14 df 74 be e6 a7 4c 3d 40 f5 04 bd
       0.17265767 -0.23913223 0.049964808 -0.03246045
000230 20 60 6d 3e 62 42 35 3e 37 39 be 3e 86 59 1b 3e
       0.231812 0.17701104 0.37153026 0.15170869
000240 0a 8b db bb 47 3a 65 be a1 20 c4 3c a9 11 95 bd
       -0.0066999244 -0.22385512 0.02394134 -0.07278759
000250 23 c0 be be c4 b9 f6 3d 09 32 89 3d 46 bb 92 be
       -0.37255964 0.12047151 0.066989966 -0.28658503
000260 87 22 a6 3d dc 1f 20 be bc 9c a9 3c 30 b9 22 3e
       0.08112054 -0.15637153 0.02070462 0.15890956
000270 75 61 2d bd 13 76 67 3f 71 41 3c 3e c0 ff 32 3e
       -0.04232927 0.9041454 0.18384339 0.17480373
000280 10 a2 41 3e 79 f5 22 3e f2 c7 ac 3d 55 f3 0b be
       0.18909478 0.15913953 0.08436574 -0.13667043
000290 b2 25 27 3e 49 f7 5a be 10 79 28 bc ac 99 cb 3d
       0.16322973 -0.21383394 -0.01028277 0.0994142
0002a0 b5 23 dd 3d c0 6c f4 3d 90 65 5d be 55 a1 18 be
       0.10797826 0.11934805 -0.21620774 -0.14905293
0002b0 99 15 fe 3d 68 9d cb bc ad e0 9d bd c9 57 80 3e
       0.12406463 -0.02485533 -0.07708869 0.25066975
0002c0 98 28 35 3d 8f 0b 0a 3e 88 60 ea 3a 11 76 87 3e
       0.044228166 0.13480972 0.0017881552 0.26457265
0002d0 b8 58 8a 3d be 88 1e be 68 15 7f 3d b9 78 58 3e
       0.06755203 -0.1548185 0.062276274 0.21139802
0002e0 d2 b3 31 3e 6e 3d 66 3e 72 3d e9 3d cf 78 1b 3e
       0.17353752 0.22484371 0.11388673 0.15182804
0002f0 be 18 9f be b2 4f 21 3e e1 43 a5 3d 01 0a 75 3e
       -0.31073564 0.15753058 0.080695875 0.23929597
000300 3f d5 82 3f e0 a5 38 be cb 5a b8 3d 59 fe 2d be
       1.0221328 -0.18032026 0.090016924 -0.16991557
000310 79 f2 fc 3b 0c ef c0 bc 86 fa b1 3d ca 5f 20 be
       0.0077193347 -0.023551486 0.08690362 -0.1566154
000320 60 a6 79 bb 3b 9c 77 be 81 40 0d 3e 81 3c 0c 3d
       -0.0038093552 -0.24180691 0.13794138 0.03423739
000330 96 de 1c 3d 28 8f 74 3e e9 ac b2 3d 52 9b b6 3d
       0.038298212 0.23882735 0.08724386 0.08916344
000340 06 20 de bc 41 81 2c 3e 9b 3d 83 3d 88 1d bb 3d
       -0.02711488 0.16846181 0.06408235 0.09136492
000350 12 61 26 3f 6e 38 1d 3d ed 77 a1 be dd 43 fc 3c
       0.6499187 0.038383894 -0.3153681 0.030794078
000360 00 1b 27 be 75 ee ae 3d 1b 7c 24 3e b3 37 97 bd
       -0.16318893 0.08541576 0.16062967 -0.07383671
000370 aa 05 37 be f4 66 81 3e 5a bb 75 3d bb 5a 1a 3e
       -0.17873254 0.2527386 0.059993125 0.15073673
000380 b3 9c 63 3e 0c bd a5 be 4f c5 22 3e 93 7e 68 bd
       0.22227745 -0.32370794 0.1589558 -0.056761336
000390 76 74 27 bd fb 1a 48 bb 57 73 3c bd b4 ae c2 3c
       -0.04088255 -0.003053366 -0.046008434 0.023764946
0003a0 0a 78 0a 3e bb b0 5b 3e 60 61 fa 3d 1c 37 33 3e
       0.13522354 0.21454136 0.12225604 0.17501491
0003b0 50 f6 6a bc a5 0f 14 3e 21 bc 2a 3e 9b ed 13 3e
       -0.014340952 0.14459093 0.16673328 0.14446108
0003c0 99 58 3c 3e e8 36 2d 3e b3 b3 35 be ca 47 3c be
       0.18393172 0.16915476 -0.17744331 -0.1838676
0003d0 c4 65 db 3d d3 ff a6 bd 24 05 7e 3e 2e 83 8a 3e
       0.1071277 -0.08154263 0.24806648 0.27053207
0003e0 a3 ce 1a 3c 09 c5 5b be 1b 75 46 be 29 29 c3 3d
       0.00944868 -0.21461882 -0.1938061 0.09529335
0003f0 b7 e7 bd 3c 8c 6b 31 3e b4 5b 48 be fa d0 04 3e
       0.02318178 0.17326182 -0.19566232 0.12970343

4.bias f4 [128]
000000 8f 30 86 3d a7 81 d5 3d a8 d9 6e bd 91 e5 d6 3c
       0.065522306 0.1042512 -0.058313042 0.026232513
000010 9f bf e8 3d 5f 1a 42 bd 4b 04 ce 3d 04 c7 f7 3d
       0.11364674 -0.04738843 0.100594126 0.12098506
000020 08 d8 44 3e 65 fb b8 3d ac d3 13 3e 9a 20 de 3d
       0.19223034 0.09032325 0.14436215 0.10846062
000030 22 57 b4 3c ad 00 98 3d 58 54 5e bc d1 1c 4d bd
       0.022014204 0.07422004 -0.013569914 -0.05007631
000040 7d 34 4e 3e a0 24 55 3d fa 4c f1 bc 97 08 08 3e
       0.2013721 0.05203688 -0.02945565 0.13284527
000050 15 40 33 bc 04 3d 92 3d 53 50 a6 bd d5 fe 93 3d
       -0.010940571 0.07140544 -0.081207894 0.0722634
000060 d0 dc 63 3d 3c ae 6c bd e9 e0 5a 3e 27 53 0e 3e
       0.055630505 -0.05778335 0.21374859 0.13898908
000070 02 12 1d 3d 5e ea 48 3e 6d 74 46 3e 62 f3 2e bb
       0.03834725 0.19620654 0.1938035 -0.002669536
000080 07 51 f4 3d ba 37 f7 3d 4b 34 97 3d d7 df b9 bd
       0.11929517 0.12071176 0.07383021 -0.09075897
000090 7d c7 95 3d c9 e7 36 3e 33 67 84 3d d2 b4 9d bd
       0.0731344 0.17861857 0.06464996 -0.07700504
0000a0 5e 50 36 3e 75 f7 22 3d 28 5e d3 3d 26 f3 42 3d
       0.17804095 0.039786775 0.10320693 0.047595166
0000b0 33 e0 4e bd 9f d7 24 3e 68 0e 4d 3c a9 30 de 3d
       -0.05050678 0.16097878 0.012515642 0.10849125
0000c0 57 f5 8e 3d 8c f8 23 3d 38 a0 3e bc b9 83 cf 3d
       0.069803886 0.040031955 -0.011634879 0.10132546
0000d0 cc 1b 40 3d 91 ba ff 3d 83 91 3b 3e c5 e0 de 3d
       0.04690151 0.124867566 0.18317227 0.10882715
0000e0 37 e2 25 3e b1 1b 56 3e ac 9d 78 3d fc 70 65 bd
       0.16199575 0.20909001 0.060697243 -0.056015953
0000f0 0a 08 a0 3c a9 54 97 bd c3 4e 31 bd 4c 4c 85 3d
       0.019535083 -0.073891945 -0.043288004 0.06508693
000100 06 c8 3e 3d 12 b8 6a 3d 44 83 df 3b b0 df 29 bc
       0.046577476 0.05730445 0.006821068 -0.010368273
000110 48 c4 54 3e 3e 71 89 3b 73 bf 01 3e 06 f4 1f 3e
       0.20778 0.0041944077 0.12670688 0.15620431
000120 9e b3 e5 bc 41 b2 03 3e 89 b0 02 3e 07 70 c2 3d
       -0.02803975 0.12860967 0.12762655 0.09494024
000130 ea d2 15 3d 4f 3c ad 3d 42 2d 26 3c 2d aa fb 3d
       0.036578096 0.084587686 0.010142626 0.12288318
000140 97 24 25 bd 2a 21 65 3e 67 77 a3 3d 08 71 0e 3e
       -0.040318098 0.22375932 0.079817586 0.13910306
000150 0d 8d be 3d e3 72 1c 3e 60 73 bf 3d 12 7c 83 3d
       0.09304247 0.15278201 0.09348178 0.06420149
000160 47 34 f0 3d 71 7c c5 3d 1d 56 1e 3e 85 d3 0c 3e
       0.11728721 0.09642876 0.15462537 0.13752563
000170 41 45 48 3d d2 62 69 bd 3c 95 9c 3d 6d 4c 44 3d
       0.04889417 -0.056979008 0.07645652 0.047924448
000180 f9 45 ee 3d 08 3a 0b 3d 9c 4b d6 3c e0 88 19 3e
       0.1163444 0.03399089 0.0261591 0.1499362
000190 fc 7c f8 3c 5d 6b 6c 3d ea 39 22 3e 05 c2 9d 3d
       0.030333035 0.057719577 0.15842405 0.07703022
0001a0 cb 4b 5e 3d 4f c4 05 3e 4a 07 ed 3d d2 78 17 3e
       0.0542715 0.13063167 0.11573656 0.14792183
0001b0 59 f3 04 3e b7 44 11 3e e7 be 09 3e be cb 93 3d
       0.12983455 0.14186369 0.1345173 0.07216595
0001c0 c6 30 4f bd 1a 9e c8 3d 60 bc 22 3b 73 07 0e 3e
       -0.050583623 0.097957805 0.0024831519 0.13870029
0001d0 e4 0b 4d bc 95 de 91 3e 71 54 54 3d fd 62 af bb
       -0.012515042 0.2849013 0.051838342 -0.0053523765
0001e0 8b 93 ec 3d 0c 9e 0a 3e fc 24 53 3d 31 82 66 bd
       0.11551579 0.13536853 0.051548943 -0.056276504
0001f0 1c 80 ad 3d cf e3 d9 bc f9 07 42 3e d5 37 97 3e
       0.084717005 -0.026597885 0.18948354 0.29534784

6.weight f4 [128, 128]
000000 be 2e 46 3e 15 4e ca bc aa 7c 32 bd 62 d7 76 3d
       0.19353768 -0.024695436 -0.04357592 0.060264
000010 42 05 38 3e da 56 77 3d 01 14 c4 be a9 5a fb 3d
       0.17970756 0.060385562 -0.38296512 0.122731514
000020 f5 20 22 3e 3c 74 11 3e 54 bf 51 3e 44 df b0 be
       0.15832885 0.14204496 0.20483142 -0.34545338
000030 02 cd 1d 3e 82 e5 41 3e 2d 54 86 3d f0 e6 5e 3d
       0.15410236 0.18935207 0.06559024 0.054419458
000040 ac 1d 06 3d 8a c0 53 3e 6b b6 a7 bd e5 2b 60 3e
       0.03274314 0.20678917 -0.0818909 0.21891744
000050 2f 7b 01 3e 51 cf 37 bc e0 9e 93 3b d3 4f ed 3d
       0.12644647 -0.011218862 0.0045050234 0.11587491
000060 69 da 82 be 88 ec de bc d3 eb 69 3e 2e d2 e5 bc
       -0.2555726 -0.027212396 0.22843866 -0.028054323
000070 26 b7 37 3d 25 5e 60 3e 48 6f b6 be 1c 8b 30 3e
       0.0448524 0.21910913 -0.35631776 0.17240566
000080 78 af b5 3d e1 f0 8c bc d9 00 21 3e 1d 73 99 bd
       0.08871359 -0.017204704 0.1572298 -0.07492659
000090 dc ce d5 3d 1e e5 f9 3d 6c 61 17 3e 3c 53 c6 bc
       0.10439846 0.12201904 0.14783257 -0.024209611
0000a0 15 55 e3 3d 93 30 31 3e a7 d8 09 3e c1 7a 0f 3e
       0.111002125 0.17303686 0.13461553 0.1401167
0000b0 80 1f 90 bc 12 1c a1 3e cf f3 0f bd 19 ac 57 3d
       -0.017593145 0.31466728 -0.035144623 0.05265436
0000c0 9f 9e 41 3b 69 10 b2 3b d2 1b 2e 3d a2 af 7e 3d
       0.0029544008 0.005434085 0.042507 0.062179215
0000d0 07 30 a4 be e3 b0 f4 3d e1 34 89 3e c7 97 e2 3d
       -0.32067892 0.11947801 0.26798156 0.110641055
0000e0 9f 59 f0 3d 84 95 22 3e 75 1b b1 3d e0 08 9a 3c
       0.11735844 0.15877348 0.08647815 0.01880306
0000f0 06 00 63 3d 1f a5 62 3d 24 82 24 be 3e 4f 8b 3e
       0.055419944 0.055333253 -0.1606527 0.27208894
000100 95 2e 07 3e a5 8e 51 3e 1f 4a f3 3d 17 5f 0a bd
       0.13201363 0.20464571 0.11879372 -0.03378209
000110 f8 bc 58 3e 32 5f 99 ba 86 5d 4d 3e d1 b4 29 3e
       0.21165836 -0.0011701344 0.20055208 0.16572882
000120 16 c0 49 3d ca 4f 2c 3e b7 f7 80 3e 38 60 59 3e
       0.049255453 0.16827312 0.2518899 0.21228111
000130 46 a0 4f 3d 13 d7 26 3e c9 a2 3e 3c f8 dd 2f 3e
       0.050689958 0.16292982 0.011635491 0.17174518
000140 31 99 ad bd 59 ed 64 3e c3 f2 d3 3d 6d 0c 82 3e
       -0.084764846 0.22356166 0.103490375 0.25400105
000150 18 8b 6a 3e ea 17 9f 3d 7c f5 83 3e e2 f6 fc 3e
       0.22904623 0.07768233 0.25773227 0.49407107
000160 40 92 dd be 13 2e 84 3e 53 b6 b6 3c 96 91 03 3e
       -0.43275642 0.25816402 0.022303736 0.12848505
000170 fc 23 d1 be 0f 14 29 c0 e1 95 0c 3e 36 1c 9d 3d
       -0.40847766 -2.6418493 0.1372905 0.076713964
000180 bf ab df 3d 05 8c c8 be e7 75 cb 3d f8 db 97 be
       0.1092143 -0.39169326 0.099345975 -0.2966001
000190 e3 08 9e 3d 7b ae 6d 3d 04 63 4c 3e 1a c9 09 3e
       0.07716539 0.058027726 0.19959646 0.1345562
0001a0 7a 5a da 3c 7a 87 7b be 48 bb 21 3e b6 f0 b8 3d
       0.02665447 -0.24563399 0.15794098 0.09030287
0001b0 99 6d 66 3e 13 cf 63 bc 97 1d 84 3d 4a c2 9f be
       0.22502746 -0.013904351 0.06450956 -0.31202918
0001c0 62 60 ce bf 2c 8f 1f 3e 4a 6e 64 3d 33 7c 93 3c
       -1.6123164 0.1558196 0.055769242 0.018003559
0001d0 c4 da 1c bc b9 0e 94 bf 8f 64 08 3e 1d 9d 3a 3e
       -0.009573642 -1.1566993 0.1331961 0.18223996
0001e0 f0 68 9b 3d e6 fc d4 be b1 d4 8e be 4a 8b 27 3d
       0.075883746 -0.41599196 -0.27896646 0.04090432
0001f0 7b 6a d8 bc 1d 05 e7 3e 8b f6 3b 3e dd dc 2d bf
       -0.026417961 0.4512109 0.18355767 -0.67915136
000200 61 13 4e 3e 87 43 9f bb da ca 1c 3d f1 78 d7 3d
       0.2012458 -0.004860345 0.03827939 0.105211146
000210 b4 e1 41 3e 5d e5 98 bd af 8d ab be 8b 69 54 3e
       0.18933755 -0.074656226 -0.33506534 0.20743386
000220 a2 68 6e 3e d6 ec c5 3c e9 32 4b 3e 2c 4e c7 be
       0.23282102 0.024160784 0.1984364 -0.38926828
000230 18 fd 4e 3e cf f3 ee 3d 3b 6c 1e bd c0 4f 83 bd
       0.20213735 0.116675965 -0.038677435 -0.064116955
000240 29 b0 e7 3c 8b db 34 3e 44 b5 f2 3c df cd 01 3e
       0.028282242 0.17661874 0.02962745 0.1267619
000250 6b e6 45 3d f1 63 03 3e 3f ee ae 3d ca 2c c0 3d
       0.048315447 0.12831093 0.085415356 0.09383543
000260 d0 12 85 be 38 55 c2 3c aa fe f0 3d 23 54 a9 bd
       -0.25990915 0.023722276 0.11767323 -0.08268001
000270 df da 94 3d b1 2c 88 3e 6b 29 b3 be 1e ad 52 3c
       0.07268309 0.26596597 -0.34992537 0.012858657
000280 1f 15 0a 3e e2 8e 02 3d 78 8a 61 3e 9c a0 8d bd
       0.1348462 0.031874545 0.22025478 -0.069153994
000290 f5 4a f0 3d a0 a7 b8 3c 9c 3d 7d 3d 80 75 15 3b
       0.11733047 0.022540867 0.061826333 0.002280563
0002a0 e0 20 4d 3e e7 8e e1 3d 0a a3 18 3d 2f 69 70 3d
       0.20032072 0.110135846 0.03726486 0.05869406
0002b0 26 05 37 bd 61 ac 33 3e 98 40 65 3c 7e 2a 1f 3e
       -0.044682644 0.17546226 0.013992451 0.15543553
0002c0 9e 19 46 3b a9 20 b6 3c 67 ac 87 3d c0 cb 14 3e
       0.0030227671 0.02223237 0.0662468 0.1453085
0002d0 f8 a8 80 be ab ca 54 3e 8d 1a 53 3e 69 69 f0 3d
       -0.25128913 0.20780437 0.20615597 0.117388554
0002e0 6c 52 84 3e c7 0c 5d 3e 71 d5 6b 3d 0f e5 a6 bd
       0.25844133 0.21586905 0.0575766 -0.08149158
0002f0 72 bd b6 3d e5 09 bb 3b b7 86 32 be 56 c0 ff 3d
       0.089228526 0.0057079666 -0.17434202 0.12487857
000300 d0 8f 19 3e 01 e9 7c 3e 70 24 4a 3e 20 ea 3f 3b
       0.14996266 0.24698259 0.19740462 0.0029283836
000310 22 7d e7 3d 55 45 e2 3c b4 7d 1f 3e 66 f5 3a 3e
       0.11303164 0.02762095 0.15575296 0.18257675
000320 b9 c6 1b bd 31 6c 1f 3e d8 ec f2 3d fe ae 6a 3e
       -0.038031314 0.15568615 0.118615806 0.22918317
000330 ec 0e 46 3d 23 3b 04 3e 23 5a dc 3c 65 37 76 3e
       0.048354074 0.12913184 0.02689845 0.24044569
000340 1c f5 1a bd 9f 87 76 3e c6 1d 79 3d 45 a6 bc 3d
       -0.03783141 0.24075173 0.06081941 0.09211401
000350 63 a4 05 3e aa f9 0d 3e c4 c0 58 3e a6 eb f4 3e
       0.1305099 0.1386477 0.21167284 0.47836035
000360 68 9f a0 be 4b 7b 5a 3e 5c 1f 19 3e d1 79 9b 3d
       -0.31371617 0.21336095 0.14953369 0.07591594
000370 a1 93 92 be 4d ef 2f c0 8f b1 68 3e 38 76 67 3e
       -0.28628257 -2.7489808 0.22723983 0.2260369
000380 5f 00 6e 3e 4f f8 c9 be 2c de f0 3d 27 92 c6 be
       0.23242329 -0.39447257 0.11761126 -0.3878338
000390 d5 d6 93 3d 8b 81 0f 3e 76 ae a9 3d 35 8a 4c 3e
       0.0721871 0.1401426 0.08285229 0.19974597
0003a0 74 53 9e bd f7 df 20 be bc c0 88 3e 1d 4c 1f 3e
       -0.07730761 -0.15710436 0.26709545 0.15556379
0003b0 b5 f0 8f 3e c8 5b 6c 3d 95 c8 5f 3d 1f 5e b7 be
       0.28113332 0.057704717 0.05463465 -0.35813996
0003c0 57 7c ba bf 9a 3f 5d 3e 3b df 36 bd ca 63 22 3d
       -1.4569196 0.21606293 -0.044646483 0.039645948
0003d0 4c 64 a6 3d 0a 93 94 bf 46 39 53 3d e6 28 3a 3e
       0.08124599 -1.1607373 0.051568292 0.18179664
0003e0 1b b3 a6 3d 28 6a 89 be 3e 3c bf be fc 7d d4 3c
       0.081396304 -0.26838803 -0.3735065 0.02593898
0003f0 10 a9 f8 3c bb d4 f8 3e 40 b1 53 3e 20 93 3f bf
       0.030354053 0.485998 0.20673084 -0.7483387

6.bias f4 [128]
000000 04 82 f9 3d ba 6c ec 3d 34 52 fc 3c 12 09 00 3e
       0.12183002 0.115441754 0.030800916 0.1250346
000010 c8 af cb 3c da 09 87 3d 0c ca 32 bd 8b d1 29 bd
       0.024864092 0.06593676 -0.04364972 -0.0414596
000020 f8 98 f3 3c d3 8e b9 bd 7b 56 c1 bb 1d 7d 4e bd
       0.029736027 -0.09060445 -0.005900202 -0.050412286
000030 a6 c8 98 ba a5 ff 31 3e 8a 88 8d bc ee 0e 31 3d
       -0.0011656478 0.17382677 -0.017277021 0.04322713
000040 39 60 85 ba 51 a5 81 bd 63 31 13 3e 65 e0 4f 3d
       -0.0010175771 -0.0633036 0.14374308 0.05075111
000050 49 d4 e9 3d 6a b9 cb 3d 61 18 fe bc 05 a2 8e bd
       0.11417443 0.09947474 -0.031017484 -0.069644965
000060 80 b1 70 3d b8 9c 5f ba c4 12 0d bd 58 b8 59 3e
       0.058763027 -0.0008530128 -0.034441724 0.21261728
000070 d8 21 47 3d 80 4d 11 3e d7 d4 18 3e ca 4e fe 3d
       0.04861626 0.1418972 0.14924942 0.124173716
000080 99 0d f3 3c 29 42 d4 3d ba a6 68 ba f0 bb ab 3b
       0.02966957 0.103641815 -0.0008874942 0.0052409098
000090 aa 15 29 3e e2 97 09 bd 7f ad 48 3d a2 ec d0 3d
       0.1651217 -0.033592112 0.048993584 0.10201384
0000a0 d1 20 4b bd cc ea e8 bb 65 0e 1d be 84 af 2e bd
       -0.049591843 -0.007108068 -0.15337522 -0.042647853
0000b0 c8 db f0 3d ce bb 55 bd 62 57 71 bd 9e d5 a1 bd
       0.1176067 -0.052181058 -0.058921225 -0.07902072
0000c0 d5 19 41 3e 3e fc 51 3d 11 6b 70 3d 32 4d fe 3d
       0.1885751 0.051265948 0.058695856 0.124170676
0000d0 6e d6 bf 3d 00 ec a3 3d 22 6b a0 bd 2a 17 44 3c
       0.09367071 0.08003998 -0.07832934 0.011968413
0000e0 bb e8 af bd b8 46 82 3d 3b 38 b8 3d ea f9 86 3d
       -0.08589312 0.06361145 0.089951 0.06590636
0000f0 57 c7 dc bc 9e 67 89 3d 17 d5 3d 3e ff 7f 87 3b
       -0.026950521 0.067092165 0.18538319 0.0041351314
000100 2b 30 be 3c 54 77 e2 3d 66 13 06 3e 5b eb e8 bb
       0.023216328 0.11057916 0.13093337 -0.0071081347
000110 29 c0 01 be 5e 2f 99 3d bb 8c d6 bc 6c 11 15 3e
       -0.1267096 0.07479738 -0.026190152 0.14557427
000120 75 c4 1b 3d 94 00 f0 3d c8 4e fa 3d da a7 51 3d
       0.038029153 0.1171886 0.122220576 0.051185466
000130 30 86 49 3c d2 24 79 bb a6 f6 8a 3d c7 4e 42 bc
       0.012300059 -0.0038016331 0.06785326 -0.011859602
000140 a9 b9 1b 3e d9 de af bd a8 3b 98 bc 57 97 da 3d
       0.15207542 -0.08587427 -0.018583134 0.10673397
000150 fd c5 c0 bc 9c e8 00 3e 4d 3e 07 bd ac 9f c1 3d
       -0.023531908 0.12588733 -0.0330184 0.09454283
000160 d3 ac 26 3c 9c 59 1c 3e a0 ba 9a 3d 83 6c 69 3d
       0.01017304 0.15268558 0.07555127 0.05698825
000170 7b 80 13 bc 56 a7 c1 3b b2 75 c4 3d b0 a6 46 3d
       -0.0090028 0.0059098406 0.09592761 0.04849881
000180 16 0e 4b bd d1 5c 8d 3d 44 9a f7 ba 84 53 13 bd
       -0.04957398 0.06902469 -0.0018890579 -0.03596832
000190 a0 d2 f4 3c 7e 1f 19 bd 50 7a 83 bd bc f8 1b 3e
       0.02988559 -0.03738355 -0.06419814 0.15231603
0001a0 d9 81 0e 3d 62 eb 4b 3e 08 3b a0 bd 00 4d fb 3d
       0.0347918 0.1991401 -0.07823759 0.12270546
0001b0 57 3f 33 3e 02 14 11 3e 32 37 18 3e 4e 5f b1 3d
       0.17504631 0.14167789 0.14864805 0.08660756
0001c0 1b b1 40 3c c1 b0 95 bc 45 14 fe 3d 12 db 00 bd
       0.011760975 -0.01827276 0.1240621 -0.03145892
0001d0 cb 6b f1 bc 94 98 d2 3d 7a 45 b1 3c d3 b1 5b 3c
       -0.029470345 0.10283008 0.021639574 0.013409096
0001e0 e0 58 8a bd 21 b4 14 3e d2 bb b8 3c 38 35 85 bc
       -0.06755233 0.14521839 0.022550497 -0.016260728
0001f0 2b 25 eb 3b 44 09 20 3e f3 eb 46 bd 41 ae 9c 3d
       0.0071760616 0.15628535 -0.048564862 0.07650424

8.weight f4 [6, 128]
000000 d8 e0 a0 bd 5d e5 82 bd 1a 52 47 3d 27 b5 2b 3e
       -0.078553855 -0.06391404 0.048662283 0.16768323
000010 df 40 82 3e f8 85 c6 3e 79 f5 af bd e3 64 85 3d
       0.25440118 0.38774085 -0.08591742 0.06513383
000020 46 71 72 3d 48 b4 e2 be 8a 36 8b 3e 17 e3 53 bd
       0.059190057 -0.4427817 0.27190048 -0.05173024
000030 00 84 db 3e fe f0 e5 bd ff 12 7e 3e df 33 a3 3e
       0.42874146 -0.11227606 0.24811934 0.31875512
000040 fc 50 d7 3e 4a 28 97 bd d8 e3 49 3e 86 98 98 be
       0.42053974 -0.073807314 0.19715822 -0.29803866
000050 80 bb bd 3e 96 76 9d be ad 97 6a 3c 1d 74 64 bd
       0.37057114 -0.30754536 0.014318389 -0.055774797
000060 7f c3 b9 3e 58 9c cb 3e 76 5e b3 3e d3 02 fb 3d
       0.36281964 0.39767718 0.35033005 0.12256398
000070 97 b0 cc 3e 93 59 fd bd 0a 55 6a bd f3 a2 8e 3e
       0.39978477 -0.123706006 -0.057210006 0.27858695
000080 84 5e a8 3e 39 11 18 bf 25 8c a4 bd 7d 53 b8 3e
       0.3288461 -0.5940128 -0.08034543 0.36001197
000090 78 6a 8b 3e 2d 8e 0d bd 00 e5 cf 3e 86 3e 54 bd
       0.27229667 -0.034559418 0.406044 -0.05181744
0000a0 8c d1 13 bf 33 d7 cd 3e 14 1d 0f 40 e0 e3 8a 3a
       -0.5774162 0.40203246 2.2361498 0.0010596476
0000b0 ac 2c f2 bd fd b4 b5 3e 52 8c 1f bd df b9 88 3d
       -0.11824927 0.35489646 -0.03895218 0.06676077
0000c0 09 77 58 be d4 7a e7 3e 5e c4 d4 3d e9 7d 95 be
       -0.21139158 0.45210898 0.103890166 -0.29197624
0000d0 9f e5 f7 3d 48 c8 cc 3e 7d f2 32 bd 25 9d 85 3b
       0.121043436 0.39996552 -0.043688286 0.004077571
0000e0 b2 10 e9 bb 44 56 c6 3e c0 03 f5 3e bc e2 f1 bd
       -0.007112586 0.3873769 0.47854424 -0.11810824
0000f0 57 81 30 3d fe f8 dc 3e 45 e6 85 3e 02 f4 19 be
       0.043092098 0.43158716 0.26152244 -0.15034488
000100 30 5a 06 bd 93 b1 54 be 3c 5c 17 3e 96 9b dd 3e
       -0.032800853 -0.20770864 0.14781278 0.43282765
000110 e3 85 56 be 57 8b 77 3e 54 d3 47 3e e4 b2 8d be
       -0.20949511 0.24174248 0.19514209 -0.27675545
000120 63 7c bc bd 36 ff 8a bd a0 cf 9f 3e 2e 2f c7 3e
       -0.092034124 -0.06786959 0.31213093 0.38903183
000130 f1 6e af 3d 57 56 e0 3e 5a 9d 58 3e 37 ee 92 3e
       0.08566082 0.43815872 0.21153775 0.28697369
000140 ab ac c2 be ce 47 03 3c c7 b1 9d 3d 0a e3 59 3e
       -0.3802236 0.008012725 0.07699924 0.21278015
000150 2d 5b a4 3d 14 0c a6 bd 04 b4 ca 3e 08 65 c5 3e
       0.08025203 -0.081077725 0.39590466 0.38553643
000160 85 dd bc bc d3 f3 b7 3e 10 b1 b9 3e 39 78 be 3c
       -0.023054847 0.3592821 0.362679 0.023250686
000170 dd f4 a1 3e 30 6c c9 3e 01 55 b7 3e f1 f0 bd 3e
       0.31632128 0.39340353 0.3580704 0.37097886
000180 72 7b 8a bd 9d 58 a6 3e e4 b1 d3 3e 83 4f 8e bd
       -0.067618266 0.32489482 0.41346657 -0.069487594
000190 31 fd cb 3e bc a9 6c bd d3 b6 c1 3e 29 57 f2 3d
       0.39841607 -0.05777906 0.37834796 0.11833031
0001a0 be b0 ec 3e c2 ca 0e be 09 b2 95 3d 4e bc 6a 3c
       0.46228594 -0.13944533 0.07309348 0.014327122
0001b0 43 8d 30 3e e3 0f 2a be 3a da d4 bd 35 e9 84 3e
       0.17241387 -0.16607623 -0.10393186 0.25959173
0001c0 9e e3 cc 3e 6f f4 12 3d c2 47 be 3b 39 56 83 3d
       0.40017408 0.03587764 0.005806894 0.0641293
0001d0 94 55 1e bc 91 1c 8a 3e 2d 16 ed 3e fc 85 72 bd
       -0.009663958 0.2697492 0.4630598 -0.05920981
0001e0 c4 38 70 bd 01 34 cb 3e fe c8 dc be 36 53 22 3d
       -0.058647886 0.39688113 -0.43122095 0.039630137
0001f0 76 d8 cd 3e e7 89 f4 bd 4e 0e 22 3d 6a 1b 80 3d
       0.4020421 -0.11940365 0.039564423 0.06255229
000200 32 1f 78 3d 2b b1 04 bd 2d 7a 91 3d 36 72 33 3d
       0.060576625 -0.032395523 0.07103381 0.043810092
000210 39 c2 91 3d da e4 98 bd e8 04 82 3c 6b 5d 8c 3d
       0.07117123 -0.07465525 0.01587148 0.068537556
000220 18 9a 1b bc bc 43 6e bd 20 ef cf 3c 27 6c 1a bd
       -0.009497188 -0.058170065 0.025382578 -0.0377008
000230 08 7c d3 3c dc 01 73 bd de 81 7e 3d a6 01 89 bd
       0.025815979 -0.059327945 0.06213557 -0.066897675
000240 f0 60 53 bd 4f c7 a2 3d fe 48 71 bd 24 0b 7e bd
       -0.05160612 0.07948171 -0.0589075 -0.062022343
000250 02 df 4e 3d 10 ce b6 3b ca 90 30 3d bd f7 a2 3d
       0.050505646 0.005578764 0.04310683 0.079574086
000260 cc 7c 58 bd f4 14 75 bd 3c be 81 3c 3c 9c 95 3c
       -0.05285339 -0.059834436 0.015837781 0.018262975
000270 40 17 14 3c 68 12 a9 bc 11 cd a0 3d 00 af ab bc
       0.009038746 -0.02063866 0.07851613 -0.02095747
000280 0c 94 cf bc f8 88 33 bd 9d e1 8a 3d 11 d7 b1 3d
       -0.025339149 -0.043831795 0.067813136 0.08683599
000290 6e e0 37 bd b7 08 05 bd 45 67 b0 bd 50 bc 37 bd
       -0.044891767 -0.032479014 -0.08613447 -0.044857323
0002a0 14 f3 91 3c 12 e3 e7 bc 0a bd 61 bd 61 a7 a8 3d
       0.017816104 -0.028306518 -0.055111922 0.0823505
0002b0 ee 19 57 3d 44 22 e9 3c 2a a5 2d 3d fa da 0c 3d
       0.052514963 0.028458722 0.04239384 0.03438852
0002c0 c6 27 23 3d 00 5c 09 bd 8a a8 57 3d 6f 37 2c bd
       0.039832853 -0.033535004 0.052650966 -0.042045053
0002d0 ec 28 a1 bc 93 ba 86 bd ec 5e 0a bd d0 da 07 bc
       -0.019672833 -0.06578555 -0.03378193 -0.008291915
0002e0 1b c5 99 3d 9a a7 ac bd 50 a6 cc bc 66 db 99 bd
       0.07508298 -0.08430405 -0.024981648 -0.0751255
0002f0 c1 9a a8 3d 64 1f dd bc 02 3a 88 bd 44 2d 07 bd
       0.08232642 -0.026992507 -0.06651689 -0.033002153
000300 60 cb 30 bb c0 8e 28 bd e0 80 71 bc 1f 23 1c bd
       -0.002697669 -0.041151762 -0.014740199 -0.03811943
000310 3b 6e 1e bd d2 4f 23 3d 41 ea 94 bd e5 bc a8 3d
       -0.038679343 0.039871044 -0.07271243 0.08239154
000320 e8 6b 38 bd 40 22 87 3c ab bf ad 3d 6f f3 48 bd
       -0.045024782 0.016495824 0.084838234 -0.04906028
000330 9a 56 34 bd 5c f7 a5 bd 40 43 5b bc 28 eb 16 bc
       -0.044027902 -0.08103821 -0.013382733 -0.009211339
000340 00 b2 25 bc f3 82 80 bd 30 11 cd bb 6a 68 38 3d
       -0.010113239 -0.062749766 -0.0062581524 0.045021452
000350 d8 7f 65 bd e2 52 2d bd 66 b2 5f 3d 48 d9 0f 3c
       -0.056030124 -0.04231537 0.054613493 0.008779831
000360 c8 4e 1c 3c 04 5e bc 3c 78 06 7b 3c f7 12 5e bd
       0.009540267 0.022994049 0.0153213665 -0.054217305
000370 53 7f 8d bd 3b 95 9b bd 6d 36 b4 bd c7 04 96 3d
       -0.06909051 -0.07596823 -0.087994434 0.0732513
000380 ad 6a a7 bd 88 77 3e 3c 07 e9 26 bd d8 a7 3f bc
       -0.08174644 0.011625178 -0.040749576 -0.011697732
000390 c0 9b 4e bb a8 cd 2b bd c4 e7 a3 3c fb cf 81 3d
       -0.003152594 -0.041944176 0.020007975 0.06338497
0003a0 97 06 45 bd f7 8c 18 bd 32 c3 36 3d a8 37 bb bc
       -0.048101988 -0.03724381 0.044619747 -0.022853687
0003b0 d0 b9 29 bc ca 5c 7c 3d 1b ad 4d bd 18 03 ab bc
       -0.010359243 0.061611928 -0.050213914 -0.020875499
0003c0 c4 fc 6a bd 16 47 33 bd 40 8a 27 3b 78 5d 80 3c
       -0.057369962 -0.043768965 0.002556458 0.01566957
0003d0 de 0d 56 bd e0 21 73 bc 38 d5 60 bd 8b dd a8 3d
       -0.05225932 -0.014839619 -0.05489084 0.08245381
0003e0 e8 0e 87 3c 98 c1 a8 3c 18 b6 4e 3c d0 bd 5f 3c
       0.0164866 0.020600125 0.012616657 0.013656095
0003f0 c0 0f 8b 3a 80 7d cd 3a d7 ac 8b 3d f0 6a f1 3c
       0.0010609552 0.0015677661 0.06820076 0.029469937

8.bias f4 [6]
000000 8f 8e 8b bd dc 1f 1f bd 71 ee 22 3e 7f 90 79 3c
       -0.068143 -0.038848743 0.1591127 0.015232204
000010 84 c4 be bd 12 ed 4c 3a
       -0.09314826 0.00078173087

10.weight f4 [2, 6]
000000 a1 f0 3d 3f 24 bf 68 3e c4 56 2f bf 3f a0 0c be
       0.74195296 0.22729164 -0.6849177 -0.13733004
000010 e5 29 52 3e cd b6 33 bc 55 d9 e2 3d 1c 87 58 3e
       0.20523794 -0.010968876 0.11076609 0.2114529
000020 4a e6 f0 3e 34 16 54 bf a6 6f c5 3e 55 6f 2e 3e
       0.47050697 -0.8284638 0.38561743 0.17034657

10.bias f4 [2]
000000 4c c2 10 bf c2 1f 85 be
       -0.56546474 -0.26000792
