src/main/resources/models/model_demonstrator_24_10_2024_11-10-57.pth (torch, 77428 bytes, 8 tensors)

0.weight f4 [128, 8]
00000000: bef6 9c3d b14e 2840 a30a 80bf c055 9abe
00000010: 7adb dc3e 9f2b 39bf 0417 5fbf e9fb 53bf
00000020: ee91 15bf 71da b13f fadf 57bf bd7a 6bbf
00000030: 0249 dd3c 5cec fd3f b000 07bf 0d0d 93be
00000040: a0f5 2c3e 5bd3 b03f 673d c7bf 2259 bdbf
00000050: a94b 0ebf 4189 2740 af8d e0bf 8673 b7bf
00000060: 66c1 52be 5c45 7f3f c4b0 ee3e 1bb2 033f
00000070: 75d3 503f 73e2 513f 6841 353f e9bd fc3d
00000080: 78ff 2f3c f119 edbe 32f1 bf3d 1390 30be
00000090: b2d7 60bf adae 893e b55c ce3f fd07 e4be
000000a0: 078f 293e 2f2b a93e b7ad 1740 3744 883f
000000b0: 8c6c e0bd 5d7b f9be 504b 1f3f e2d4 49bf
000000c0: 5a8e 133f 5ae8 7c3f f970 15bd 60ff 5e3f
000000d0: f003 33bf ebb3 52bf da2f ef3e 0578 cf3d
000000e0: c4f2 fbbd be6f 90be b18c b0be a8d6 743d
000000f0: e85d 21be 6fc5 38be 2306 0ebe f87f fc3d
00000100: 5c66 893d 3954 a93e 2804 b23e 03d4 503f
00000110: 8f65 943f 45e5 1bbe 8795 1d3f 97c5 ee3e
00000120: 6795 993f 2d40 e33e 1b04 763d 15e8 10bf
00000130: 1fec e3bd 9039 b03e 18c6 eebd 38e4 303e
00000140: e2a6 763e 961c 5cbe e7ad 9abe 0454 26be
00000150: 6aee 6ebe 9884 a1be 633f 4cbe d9dd 953e
00000160: af9d 3dbf edcb 493f 3cae 903e 6a8c 44bd
00000170: 8aef d33f 6c6b 56bf f1d1 653f d870 613d
00000180: 1608 31be e232 9fbd 3e84 813d 0287 d7be
00000190: ae9e f4be 36cc 80bf a476 dd3f b779 15bf
000001a0: 9b84 dd3d 4a65 7abd 1908 133f 1431 983f
000001b0: a93b fc3e d244 7d3f 6774 0b3e 4824 133f
000001c0: 301f 703f 1cde 9d3f 2224 99be 33fa 42bf
000001d0: ba8b e93c ac73 6a3f dc62 22bf 9065 f6bd
000001e0: 9a5f 5e3f 427e 843f b452 823e b9d2 12bf
000001f0: 2a6b a13c 0fde c1be f92f d93f 4a68 1cbe
00000200: eb10 af3c f33d 4abe 26a1 9c3f 653b 383f
00000210: 7c67 eebf 511f 71bd 9af8 df3e bf6c 683f
00000220: 4f3a e2be b6a7 84bf fa9e 783e 1f8c 583e
00000230: 8fe9 553f 69ae 443f 5940 073e a525 233f
00000240: 221e 2d3e 6b90 43be 8026 dcbc 8e07 5d3e
00000250: 295c 963e a011 52be 9d3e 7abe fddb 76be
00000260: 2c0e 0cbf 74dd d73f 8a02 04bf a923 24bf
00000270: 9ab3 abbd 11bb ec3f 2ba3 d8bd 4eb7 14be
00000280: 69c4 4d3f 7c7d da3e a8ef e8be 137d 153f
00000290: 4274 1a3e 62cf 903f 8b65 923f 4db1 c0be
000002a0: 4aab cdbe 3438 283f 7505 71be 5e70 3e3f
000002b0: 5c56 593f 7e7c 6f3d 3402 4c3f 56b3 2d3f
000002c0: b741 193f 8373 38bf 77f0 243f 040f c83e
000002d0: ee7f 533f d997 683f e484 d03d 4d48 c23e
000002e0: ddfc 72bd 4fc8 8dbf 994e afbd 88d9 ed3e
000002f0: 952a bf3e aacf 893f 3bee 0b40 0c05 133f
00000300: 8530 223f d676 ab3f ef39 30be 2a35 c2be
00000310: aeca 12bd 82ea 103f a38a 3cbd dfc0 8b3e
00000320: c5ee 523f 0a53 a33f 6b49 1bbf d3ff 6abe
00000330: c427 873e 1148 083f 143d a23d 9364 b93e
00000340: 6b3f 4cbe 9074 dbbd 00f7 31bb 70e1 fcbd
00000350: f0be 93bc ca2b f9bd 503d d93d 184f b7bd
00000360: 4a65 4a3d 41b6 8d3f dfb8 543f 867a 6a3f
00000370: 99f0 68bf 33a0 93bf 847a 52bd 1955 a33e
00000380: 6c6e c63f 5e9a 213f 6e99 bb3a e910 a03e
00000390: 14fe ebbe baf2 2d3e 0a33 03be 59bc 523f
000003a0: c33f 143e fdf5 593f 2192 963f 7b3a a6bc
000003b0: af1f a7bf 2147 ca3e 24cb 8a3f 9c36 0f3f
000003c0: cea9 37be 8055 28bc b26d 793e 9607 193e
000003d0: e535 9dbe 5948 04be 43d2 18be 704e 833c
000003e0: 4bd5 73bb 7495 103f 23f8 743e 2bdd 503f
000003f0: 75ac 353f ed9d f43e ce74 9d3f d73a 003f
0.0766425 2.629803 -1.0003246 -0.30143547 0.43136197 -0.72332186 -0.87144494 -0.8280626
-0.58425796 1.3894788 -0.84326136 -0.9198416 0.027012352 1.9837756 -0.52735424 -0.28720894
0.16890574 1.38145 -1.5565614 -1.4792826 -0.555842 2.6177523 -1.7543238 -1.433213
-0.20581588 0.9971521 0.46619236 0.5144364 0.8157266 0.8198616 0.70802927 0.1234091
0.010742061 -0.46308854 0.09372176 -0.1724246 -0.87829125 0.2689108 1.6122042 -0.44537345
0.16558467 0.3304076 2.3699777 1.0645818 -0.10958204 -0.4872693 0.6222429 -0.7884046
0.57639086 0.9879204 -0.036484692 0.8710842 -0.69927883 -0.82305783 0.46716195 0.10130314
-0.12302163 -0.28210253 -0.3448234 0.059775025 -0.15758479 -0.18044065 -0.13869528 0.123290956
0.067089766 0.3307207 0.34768796 0.81573504 1.1593493 -0.15224178 0.61556286 0.46635124
1.1998719 0.443849 0.06006251 -0.5660413 -0.11129021 0.34418917 -0.11658877 0.17274559
0.24087098 -0.2149528 -0.30210802 -0.16242987 -0.23333135 -0.31546474 -0.19946055 0.2927082
-0.7406873 0.7882679 0.2825793 -0.04798547 1.6557477 -0.8375766 0.8977347 0.055039257
-0.17288241 -0.07773377 0.06324051 -0.4209519 -0.47777313 -1.006232 1.7301831 -0.5838885
0.10816308 -0.061131753 0.5743423 1.1889977 0.49264267 0.98933136 0.13618623 0.57477236
0.9379759 1.2333407 -0.2991038 -0.76163024 0.02850901 0.9158275 -0.634321 -0.1203109
0.86864626 1.0351031 0.25453722 -0.5735279 0.01970442 -0.3786473 1.6967765 -0.15274158
0.021370372 -0.19750194 1.2236679 0.7196563 -1.8625331 -0.058867756 0.43744355 0.90790933
-0.4418511 -1.0363681 0.24279395 0.21147202 0.8355951 0.7682863 0.1320814 0.63729316
0.16906026 -0.1909806 -0.026873827 0.21584913 0.29367188 -0.20514536 -0.24437948 -0.24107356
-0.54709125 1.6864457 -0.51566374 -0.64116913 -0.08383866 1.8494588 -0.10577997 -0.1452305
0.80377823 0.42673862 -0.45495343 0.58393973 0.15083411 1.1313288 1.1437238 -0.3763527
-0.40169746 0.6571076 -0.23537238 0.7439021 0.848974 0.058468334 0.7969086 0.6785177
0.598659 -0.72051257 0.6442942 0.39073956 0.8261708 0.908567 0.10181597 0.37945786
-0.05932318 -1.1076754 -0.08559913 0.46455026 0.37337175 1.0766499 2.1864154 0.57429576
0.63355285 1.3395641 -0.172096 -0.37931186 -0.03583782 0.5660783 -0.04603065 0.27295586
0.82395583 1.2759717 -0.606589 -0.22949152 0.26397526 0.53234965 0.07921806 0.36209545
-0.19946067 -0.10715592 -0.002715528 -0.12347686 -0.018035382 -0.12166555 0.106073976 -0.08950633
0.049413003 1.1071244 0.8309459 0.91593206 -0.9099212 -1.1533264 -0.05138637 0.31900862
1.5502448 0.6312617 0.0014312693 0.312629 -0.46092284 0.16987124 -0.12812439 0.82318646
0.14477448 0.85140973 1.1763345 -0.020291558 -1.3056544 0.39507392 1.0843244 0.559427
-0.17935869 -0.010274291 0.24358252 0.149443 -0.3070518 -0.12918223 -0.14923958 0.016028613
-0.003720599 0.5647805 0.23922782 0.81587476 0.70966274 0.47776738 1.2301271 0.5008978

0.bias f4 [128]
00000000: 7980 c83e 323a 763f 740a c03f 3f24 b43e
00000010: 1c10 5f3f cb0e a33e 8da9 4a3f e0ac b4be
00000020: 5705 3a3f 9dd9 683e 500a acbe 8067 123e
00000030: 3dbc 3d3f 2c11 593e 1974 ab3e 75f8 643e
00000040: cd69 083f 19ae 113f 7457 b2be 4401 063f
00000050: 542b c93e 079a eb3e 25dd 923e 24be 4e3f
00000060: a519 0e3a e1ae f63e f0b7 0bbd 2664 623f
00000070: b5bb ee3e 29bf db3e d268 afbe ebb7 f93e
00000080: f5a7 5c3f fe2c 58be df70 66be 243e 363f
00000090: d30c 2fbe e9cd 783f 58e8 133f d0c1 2abd
000000a0: 9e3d 073e 24bd d53e b1f7 543e 1940 a63e
000000b0: 24df 113f 8a6f 90be ebd8 143f 38ae 233e
000000c0: 505e dabe 4646 a33e 88a4 e83e e2e1 1c3f
000000d0: 1079 363d 2e2e 91be 9ab4 113f 9b06 383e
000000e0: 9e7a d7be 187a a7be 5234 d0be 06da 8e3e
000000f0: dfc3 c43e 436c d2bd 7c6d 19be cd5c 353f
00000100: 08b0 da3e ae6c 66be 596f 353f e790 29be
00000110: 2d14 42bd 9399 413f 66d2 7e3e 3559 f93e
00000120: 8b27 bd3e 50df 033e 99cb 4fbe 19cb 173f
00000130: 2c83 63be 3b02 d83e 82da 2e3f 2816 f23e
00000140: 71b8 393f cd06 183f 5a44 523f 8f02 aabd
00000150: 11e6 013e 0c45 b73e 65cb 56be 6abd 063f
00000160: c981 f43e edef 003f b7f1 d73e 9d6a 203e
00000170: 4965 723f e04f 743f 0569 153f d54f 103e
00000180: d5d7 d83e 799b 0bbd b937 3d3f 6373 143f
00000190: 8a11 393f 7478 c43e d0d2 443f 3e41 a4be
000001a0: b689 563f e145 573f a558 adbe 9d12 0c3f
000001b0: d809 afbe 4570 59bd d961 523f 61a4 223e
000001c0: 55bf a53e 6228 483f 7733 4abe 3395 c53e
000001d0: 4cea 543e f1bd 90be addd 4ebe 0e32 a63e
000001e0: 8a7b 9b3f 8f92 363f 355b a93e 3bde 583e
000001f0: 3cc4 73be fc82 653e 0614 0c3f 1c43 85bc
0.39160517 0.9618255 1.500319 0.35183904 0.87133956 0.31847224 0.79164964 -0.35288143
0.726644 0.22739263 -0.33601618 0.14297295 0.74115354 0.21197957 0.33487013 0.22360404
0.5328644 0.56906277 -0.34832346 0.5234568 0.3929087 0.4601595 0.28684345 0.8075888
0.00054206915 0.48180297 -0.034110963 0.88434064 0.46627584 0.4291928 -0.3425966 0.4877313
0.8619378 -0.21110913 -0.22503994 0.7118857 -0.17094736 0.97189194 0.57776403 -0.04168874
0.13207099 0.41745865 0.20797612 0.32470778 0.5698111 -0.28210098 0.5814349 0.15984428
-0.4265008 0.31889552 0.45438027 0.6128217 0.044549048 -0.28355545 0.569162 0.1797127
-0.42085737 -0.32710338 -0.40664917 0.27900714 0.38430688 -0.102745555 -0.14983171 0.7084473
0.42712426 -0.22502396 0.7087303 -0.16559182 -0.047382522 0.7562496 0.24884948 0.48700872
0.3694423 0.12878156 -0.2029251 0.5929428 -0.22218007 0.42189202 0.68302166 0.4728253
0.7254706 0.5938538 0.82135546 -0.08301269 0.1268542 0.35794866 -0.20976026 0.5263277
0.47755268 0.503661 0.421766 0.1566567 0.946858 0.9543438 0.5836337 0.14092954
0.42352167 -0.034083817 0.7391315 0.57988566 0.7229239 0.38373148 0.76884174 -0.32081026
0.8380388 0.84091 -0.33856693 0.547159 -0.34187198 -0.053085584 0.82180554 0.15883018
0.32372537 0.7818662 -0.19746195 0.38590392 0.20792502 -0.28269914 -0.2020175 0.32460064
1.2147076 0.7131738 0.33077398 0.21178524 -0.23805326 0.22413248 0.54718053 -0.016267352

2.weight f4 [128, 128]
00000000: dcec a3be fb8d f03e dd9c aabf fa99 963c
00000010: d30d 943f a23f 843e 56bd c33e 4ada 1d3d
00000020: 1130 903d 6581 4a3c 77fc 973d e467 0dbf
00000030: 74dd b8bf cf0e 4a3d 14c7 633d b1ae e9bd
00000040: af84 523f a4b3 1c3d cca6 f2bc e949 b33e
00000050: c93e 3d3e 766c 963c 6531 533d 6f06 aa3e
00000060: 6851 81bd 7300 b03d d37f 8cbd 7b11 b43e
00000070: 3b7b 883e f98d 6d3e ecd2 023d dc76 c93c
00000080: a999 983e 460e 93bd 4705 403f b1a4 fb3d
00000090: 020e a53e 93d3 10be 36a4 013f bc0c 18bd
000000a0: 5138 0abf e711 3e3e c4fd ed3e 25c6 d93d
000000b0: 42d8 cd3e e010 db3f d9f9 a43e 0e09 593f
000000c0: ea8a c0be 759b b83f 8e3c 983f 51d0 ad3e
000000d0: fe6a 963e 803f 12bc 7063 da3c 56a6 b03e
000000e0: 7bb8 82be 10be 6dbd 013e 03bf e919 cf3e
000000f0: f583 093f 24ba 8abd f101 d9be 19cd 8a3d
00000100: ce52 d73e 9441 8c3c d099 4c3e 5965 ac3e
00000110: 7653 2b3e 5c51 923e 530c 483e 4cf7 8f3d
00000120: 4704 d43d 2040 5f3f d5d6 963d 1932 b7be
00000130: 3355 11bf c233 853e c6ea d63e 509b b33e
00000140: 4e45 13bc d237 d73e 4385 e2bf e8d8 4bbd
00000150: 6cbd 903e 2216 ef3d 9beb 853d c9ac e43e
00000160: dff1 8b3e 6d38 e03e 5773 9bbe 1016 c03e
00000170: 2801 143f 4109 193f d287 1c3d e997 123e
00000180: 6d51 4a3e c374 08bf 1b04 17be b6f5 f43e
00000190: bb84 21bd c47c 2e3d 0042 b23e ec5e acbe
000001a0: 1ea1 ce3e ac0e 873e ca57 1ebd ffb6 f93e
000001b0: e46c 86bc 6894 943e 019e 023f 95fe 37be
000001c0: ffa3 603d 6faa 0e3f e248 edbd 3413 adbe
000001d0: d56c 093e 5ccd a4bd b696 b53d 2618 533e
000001e0: fe01 cb3e 0ad2 05bf b7fa 163f 32a6 55bd
000001f0: c126 573d 1806 dc3e d188 b53f 1d76 1fbd
00000200: db9a 99bd a673 083d e959 8cbd 5a18 73bc
00000210: 08e2 acbc c4d0 8f3d 0e7f 643d 5517 8a3d
00000220: 6c1a 8abb 40aa 9e3c 8c4d 9abc f18c 63bd
00000230: a0cd 5cbb 51d7 3b3d da25 4d3d fac7 7fbd
00000240: 39d3 50bd 08ad b03c cf1a 9a3d 2da6 893d
00000250: 616a 57bd 5662 b2bd 8442 86bc 9425 56bd
00000260: f856 623c 7a13 8cbd c837 79bd 3d29 6cbd
00000270: b225 6fbc d0d4 ea3c 553e 9abd ce61 cabc
00000280: 16c7 2e3c a0d3 94bd cc0c 93bd 511c 923d
00000290: 772d 9fbd c421 a53d f57a 25bc 96d2 683d
000002a0: 1d47 4d3d 26b8 233d 427b 8cbd a4dd 32bd
000002b0: 4615 acbc 50c9 5c3c 7812 c1bd 258f 92bd
000002c0: 96e6 1a3d 04b8 30bd 8c9f bfbc b085 9aba
000002d0: 84b4 813d 702f 1fbd 8ce0 c1bc 7c10 a53d
000002e0: a72c a03d a247 e5bc f6ce 35bd 04d4 d03c
000002f0: 4d45 8c3d 1ee7 9abd 78d3 d83c 6818 ccbc
00000300: b582 a8bd 1b16 3cbd 34d2 563d bf0a 883d
00000310: 6285 6f3d 3286 81bc e07c c1bc e2c8 443d
00000320: 3201 563c 27e0 8abd 7241 5cbd c39b 133d
00000330: e8d1 9dbd f5ff c6bb 4c83 49bd fb3e 3f3d
00000340: d6d7 893d 9671 c5bb 20e2 85bd 8d5b 2f3c
00000350: 9a4d 96bd 11b4 2fbd c025 4abb 4ab5 9fbd
00000360: 62d1 303d 6254 65bd 7b1e 903c 918a 80bd
00000370: dcc3 553d 703d 463d 4c88 8ebd 5c1e c5bc
00000380: 412a 49bd f077 3abc 347b 82bd b55e 20bd
00000390: e01a b1bb f88e 1abc d1ae d23c 56e6 21bd
000003a0: 8535 013c c724 aabd c8ab 15bc 5b59 9a3d
000003b0: 13d5 a93d 2207 acbd 36c0 f8bc 66b0 85bd
000003c0: 8131 d3bc 568c 1c3d 93f8 95bd 674f aa3d
000003d0: 2de1 93bd a8ad c8bc 1b29 ccbc f2cd 8cbd
000003e0: ffc7 acbc 6b8c 9e3d 8869 aa3b 638a 67bd
000003f0: 4d83 af3d bc75 523d 95c1 5e3d f87a 78bd
-0.32016647 0.46983323 -1.3329121 0.018383969 1.1566719 0.25829798 0.3823039 0.038538255
0.07040418 0.012359952 0.07421201 -0.5523665 -1.4442582 0.04933053 0.055609778 -0.11410273
0.8223371 0.038257256 -0.02962055 0.35017326 0.18480982 0.018362265 0.05156078 0.33208033
-0.06314355 0.08593836 -0.06860318 0.35169587 0.26656517 0.2319869 0.031939432 0.02459281
0.29804733 -0.07180457 0.7500805 0.12287272 0.3223725 -0.14143209 0.5064119 -0.03712152
-0.5399218 0.18561517 0.4648267 0.10633496 0.40204054 1.7114525 0.3222187 0.8477944
-0.37605983 1.4422442 1.189348 0.33947995 0.29378504 -0.008926272 0.026658744 0.34501904
-0.25531372 -0.058042586 -0.51266485 0.40449455 0.53716975 -0.06773785 -0.42384294 0.067774005
0.42055362 0.017121114 0.1998055 0.33671072 0.16731057 0.28577697 0.19535951 0.0702959
0.10352378 0.8720722 0.07365195 -0.3578041 -0.5677063 0.2601605 0.41975993 0.35079432
-0.0089886915 0.42034775 -1.7696918 -0.049767405 0.28269517 0.116741434 0.06539079 0.44663075
0.2733297 0.4379305 -0.30361435 0.37516832 0.57814264 0.59779745 0.038215466 0.14315762
0.19757624 -0.53303164 -0.1474766 0.47843713 -0.039433222 0.042599455 0.3481598 -0.3366617
0.40357298 0.2637838 -0.03865794 0.48772427 -0.016409345 0.29019475 0.51022345 -0.17968209
0.0548439 0.5572881 -0.11586167 -0.33803713 0.13420422 -0.08046982 0.088666365 0.2061468
0.39649957 -0.5227362 0.5897631 -0.05216045 0.052527193 0.429734 1.4182378 -0.038931
-0.075002395 0.033313416 -0.068530865 -0.014837349 -0.021103874 0.07022241 0.05578523 0.067427315
-0.0042145755 0.01936829 -0.018835805 -0.055554334 -0.0033691898 0.04585964 0.050084926 -0.062446572
-0.050982688 0.021566883 0.075246446 0.06721149 -0.052591685 -0.08710162 -0.016389139 -0.05228193
0.01381468 -0.06839652 -0.060844213 -0.057656515 -0.01459639 0.02866593 -0.0753142 -0.02470484
0.010667583 -0.07266927 -0.07180175 0.07134307 -0.077723436 0.08063081 -0.010100116 0.056841455
0.050116647 0.03997054 -0.06859447 -0.043668404 -0.021006238 0.013475731 -0.09427351 -0.07156209
0.03781756 -0.04314424 -0.023391508 -0.001178911 0.06333259 -0.0388636 -0.023666643 0.08059785
0.07821017 -0.027988259 -0.044386826 0.025491722 0.068491556 -0.07563613 0.026468024 -0.024913982
-0.082280554 -0.04591952 0.05244656 0.06642675 0.058476813 -0.01581106 -0.023619115 0.04804314
0.013061808 -0.06781035 -0.05377335 0.036037218 -0.07706052 -0.006072993 -0.04919748 0.046690922
0.067306206 -0.0060255034 -0.065372705 0.01070298 -0.0733902 -0.042896334 -0.0030845255 -0.0779825
0.043168433 -0.055988677 0.01759266 -0.062764294 0.05218874 0.048398435 -0.0695959 -0.024062328
-0.049112562 -0.011381134 -0.063711554 -0.03915282 -0.005404815 -0.0094335005 0.025718125 -0.039526306
0.007886295 -0.08307796 -0.009135194 0.075365745 0.08292594 -0.08399798 -0.03036509 -0.06527786
-0.025780441 0.038219772 -0.073228024 0.08315926 -0.07220683 -0.024496868 -0.024921944 -0.068752185
-0.02109146 0.07741626 0.0052005686 -0.05652846 0.085699655 0.05138181 0.054383833 -0.060664147

2.bias f4 [128]
00000000: 6b25 bf3a 4681 64bd 8016 e0bc 5864 ac3e
00000010: a2a5 563f 748c 7cbe c446 a6bd 2342 673e
00000020: e258 473e cea1 063e 403c 17be 68d2 cebc
00000030: af48 dd3e 4bf5 0e3f 5271 083f f51f d7bd
00000040: 9163 2cbe b0ba 183f b4ee 78bd d001 ad3e
00000050: 4492 013f e444 c2bc 2606 5bbd 8ff0 9dbc
00000060: ebbe 01be 5583 aebd b884 cd3e 32fb b3bb
00000070: cc21 a6bd 7882 8f3f a7bf 0fbc 09e0 223f
00000080: 0984 c7bd e919 d73c a18b 31bb 6565 123d
00000090: cc44 de3d d9f6 a13e 5da3 163f 271d 013f
000000a0: 7827 12be 39e5 9ebd a92a 8a3e 4653 a83e
000000b0: 159a 143f 8cd7 97bd 9c2c aa3c dc93 bfbd
000000c0: c4fc a03d 60b1 de3e 0df6 ca3e 8524 4abe
000000d0: 63bb 8d3d 4943 0ebd 405c 93bd 8b8b 893d
000000e0: a8b4 4e3c cb9c ac3e 3b21 b1bd 74d8 283f
000000f0: 765a abbd 1747 c2bd a16e 0ebd e197 64bd
00000100: 6203 b0bb 78ff 453d 802a 59bc c4e1 c1bd
00000110: fc5e de3c 1063 95bb e620 cd3c e6a8 4c3e
00000120: 3a29 a1bd e6cd aa3f 304f 4bbd 589c 103d
00000130: f9ca bb3e c7b5 c03e 8403 933f e31b 5c3d
00000140: 0215 c63e d062 0ebd d7a1 06be 8fdc bb3e
00000150: 4170 5ebd 111a ba3e 5bd9 29be 1c31 6b3f
00000160: e69e b8bd 4754 afbd 82d6 3b3f 93bd 5ebd
00000170: cb98 053f f551 c83e 9384 9a3e 9cb8 443f
00000180: 0926 953d d6c6 c93e 389b a2bd 38ba a93e
00000190: caa4 9c3e 50d4 ac3e 8eed 423f a6e0 c33e
000001a0: 8344 9bbe af23 d53e 43d8 53bd 37b1 fe3d
000001b0: 3fac 7d3f c519 fd3e 3ec5 d33e 15b0 82be
000001c0: ff18 413f 50f8 1a3f 6197 be3e 1ccd 95be
000001d0: 3f75 41bd 5a83 6ebd 2c94 6b39 c693 c139
000001e0: 5e71 a93d 7ed0 92be fe7f 943f 454c 0c3e
000001f0: f6d6 003f a29f 3fbd 3cdf fa3c d364 ea3e
0.0014583295 -0.055787347 -0.027354479 0.33670306 0.83846486 -0.24662954 -0.08118966 0.22583823
0.194675 0.13147661 -0.14769077 -0.025246814 0.43219516 0.5584304 0.53297913 -0.10504142
-0.16834857 0.5965986 -0.06077452 0.33790445 0.5061381 -0.02371449 -0.05347266 -0.019279746
-0.12670486 -0.08521143 0.4014032 -0.0054925913 -0.08111915 1.1211691 -0.008773721 0.636231
-0.097419806 0.026257472 -0.0027091282 0.03574123 0.10852966 0.31633642 0.5884302 0.5043511
-0.14272869 -0.077585645 0.26985672 0.32876033 0.5804761 -0.07414159 0.020773225 -0.09354374
0.07860711 0.434947 0.39640847 -0.19740494 0.06920507 -0.034732137 -0.0719533 0.06716069
0.012616314 0.33713374 -0.08648916 0.6595528 -0.083668634 -0.094862156 -0.034773473 -0.055808906
-0.005371497 0.048339337 -0.013254762 -0.094668895 0.027144901 -0.0045589283 0.025040101 0.19986305
-0.078691915 1.3344085 -0.049636066 0.03530535 0.36678293 0.37638685 1.1485448 0.053737532
0.38687903 -0.034762204 -0.13147675 0.3669171 -0.054306272 0.36348012 -0.16586821 0.9187181
-0.090146825 -0.085609965 0.7337419 -0.05438001 0.5218627 0.39125028 0.3017927 0.7684419
0.07282645 0.39409512 -0.07939762 0.33149886 0.30594474 0.33755732 0.7614373 0.3825733
-0.30325708 0.41628787 -0.051719915 0.12436145 0.9909095 0.49433723 0.4136142 -0.25524965
0.75428766 0.60535145 0.37224868 -0.2925805 -0.047230955 -0.058230735 0.00022466545 0.00036921928
0.08273576 -0.28674692 1.160156 0.1370097 0.50328004 -0.046783097 0.030624025 0.45780048

4.weight f4 [6, 128]
00000000: fe42 d23e 4998 a23d f9ab 79bf 819a 9ebe
00000010: 57d8 5ebe e9ec 733f 469c 72bd 0245 2b3f
00000020: a9a7 043f d113 f43e 678e 6cbf 2b99 69bd
00000030: 4e1f eb3f 8886 13bf 6842 6fbf 05fd 203f
00000040: 5b0d 283f 00ee 4dbe ff25 ae3d f3b1 34c1
00000050: 00ba 2cbf e9d2 023f cd3b 143d 248a c93e
00000060: f90f 923e 2ee3 4cbf e022 07bf c018 113e
00000070: dee1 3fbd 4244 82bf 2714 803e 4c70 edbe
00000080: d4f6 343f 8585 0d3f ff0b 17bd c348 e13e
00000090: cc24 da3e 6e80 7b3e 03d5 9d3e 0d3f 83bf
000000a0: 7d9d f63e 2718 043f d611 9c3e e815 abbe
000000b0: 12c6 a43e b022 9ebb 6c9e a4bc 6a19 62bf
000000c0: cdf9 443e 3951 1ebf 4291 03bf e6b2 7fbf
000000d0: 2303 033f 2d57 9f3b 36e0 54bf 6c3f 0f3f
000000e0: 6085 663b fe87 fa3e 1538 6a3f 2d9f b2bf
000000f0: 9be4 07bb 229b ed3e 30b2 b6bf e84f a0bd
00000100: 283e 9bbc a727 fd3e 605d 64bc 6271 063f
00000110: c2da 833d 205d 6cbb 0dba 203f daf4 b23e
00000120: 72c6 82bf e480 f0bf ae5c 4d3d 94ec a83d
00000130: 0515 2abe cc43 25bf 9f40 dcbe 9ad5 103f
00000140: dd8f 5cbf 7879 7ebd eeae d13e fcbd 363f
00000150: 4190 ed3e 666d 92be 79b4 643f d8e2 b6bf
00000160: 5236 69bf 8f8a 92bc 38ce 1c3e 88d0 6abc
00000170: bad8 cabe 276b 873e b4e3 74be 44f7 d2bd
00000180: 311c 0a3f 643f 6bbf 31c3 d83e b50d 823e
00000190: cea9 273d e9eb 6dbf 2887 203c ded7 56be
000001a0: ddba 673f aed8 80be 261d a53e fb17 083f
000001b0: 4832 4cbf 228f 6cbf 6e15 983f c068 103f
000001c0: 1a7c c03f 8a5b c13f 9b7e c93e ef5e 1b3f
000001d0: dd55 563f 46e3 283f 7f74 28bd 4743 923d
000001e0: 1e12 2a3d 5d6d 4d3e a852 b5bf f42e 083f
000001f0: 30cb 653e 3dad 33bd c001 1fbc aa08 10bc
00000200: 19d6 f4be 9205 54bd bc7f f6be 78c3 913f
00000210: 69cb 973f fd27 64bf 323a 80bd b925 223f
00000220: 2b55 79be 4b66 6dbe 34ce cebe b0b6 82bb
00000230: 5425 333e cddb 25c0 80d9 d1be 9035 3f3e
00000240: 6a22 023e 7eee 4540 88bd 3c3c d2b7 03c0
00000250: a33c 1340 848d d8be 78f1 283d ea47 0d3f
00000260: 27d2 2a3f a91c 05be dcc4 2bbf e80d 1b3f
00000270: c4f0 ecbc 0fc6 fcbf cfce 7c3f be98 f13f
00000280: fc84 493d d708 d2be befd 80bd f500 983d
00000290: 9e52 4bbe 6ac3 343f 8e01 773f c02f babe
000002a0: 6125 f63e 02bc dc3e 8622 d8be 3c62 32c0
000002b0: 5fa0 433f c21e 653d cc11 98bd d7db 8dbe
000002c0: a400 1c3f 8aef 19bf f41a 1cbf 3cf6 94be
000002d0: 2f0f fabd dd17 81bd a292 55be 108a e4bd
000002e0: 4976 803d d22f 6abd 66a9 45bf 3a2c dbbe
000002f0: ad6c 183d f5aa 303e e64c 7a3f fa9f 033d
00000300: acba eb3c 3fb2 eebe c4aa afbd effd 2e3f
00000310: 47cc 6e3f 3b8e 5abd cf51 893e dd81 6e3f
00000320: a55c cbbe c93c 2540 7712 a6bd dabd 83bd
00000330: b579 20c0 60c6 26bf ffd6 2740 7467 74be
00000340: c078 ecbe 1baf 843d 91e6 8d3d 3c23 be3e
00000350: c501 d3be 48cf 5dbf e759 45bf 3a06 263f
00000360: 7a51 583e 9e43 e3bc b85b 903f c2ab 653d
00000370: 0195 c43f 2d21 46c0 519d c23f d2e1 1940
00000380: b6fb c5bd e9ae aabe 2494 0e3f 339d 6b3f
00000390: 3991 523f 2714 22c0 692f 8a3f 884d 8a3f
000003a0: 3ed0 1d3e 0e02 0540 9ce2 aebd 25eb 6cbe
000003b0: dc90 9b3f 1e2c a73f 6ad8 9d3f 9999 833f
000003c0: 60b0 453f 0b17 9cbf 5a3b 573f d8cb 32bc
000003d0: 5997 4bbf 6af6 b6bd c6a3 503d 54b2 e63c
000003e0: 06c6 49bd 3d28 613f 05c0 d33e fd35 9abe
000003f0: e663 583f 382e 9dbd 83d6 a3bd 8748 0b40
0.41066736 0.07939202 -0.97528034 -0.30977252 -0.21762215 0.9528337 -0.059231065 0.6690217
0.5181833 0.4767137 -0.9240479 -0.057030838 1.8368928 -0.57627153 -0.934607 0.6288608
0.6564538 -0.20110321 0.08503341 -11.293445 -0.67471313 0.51103073 0.036189843 0.39363205
0.2852781 -0.8003415 -0.5278759 0.14169598 -0.046846263 -1.0177081 0.25015375 -0.46374738
0.7068913 0.5528186 -0.036876675 0.44000825 0.426062 0.24560711 0.30826578 -1.0253617
0.4816703 0.51599354 0.30482358 -0.3341515 0.32182366 -0.0048259124 -0.020095073 -0.8832003
0.19235916 -0.61842686 -0.5139352 -0.9988235 0.5117666 0.004862687 -0.8315462 0.5595615
0.0035174713 0.4893188 0.91491824 -1.3954827 -0.0020735625 0.4640742 -1.4273129 -0.07827741
-0.018950537 0.49444315 -0.013938278 0.5251676 0.06438209 -0.003606625 0.6278389 0.34952432
-1.0216811 -1.8789334 0.050137214 0.08248249 -0.16609581 -0.64556575 -0.43018052 0.5657593
-0.8615702 -0.06212756 0.40953773 0.71383643 0.4639912 -0.2859909 0.8933788 -1.4287977
-0.9109851 -0.017888336 0.15313041 -0.014331944 -0.39618474 0.26448938 -0.23914987 -0.103010684
0.53949267 -0.918936 0.4233642 0.25401083 0.040933423 -0.92938095 0.009797849 -0.20980784
0.90519506 -0.25165313 0.322488 0.5316159 -0.79764223 -0.92405903 1.188154 0.56409836
1.5037873 1.510606 0.39354405 0.6069173 0.83724767 0.6597179 -0.041126724 0.071417384
0.041521184 0.2006125 -1.416585 0.53196645 0.22440791 -0.043866385 -0.009705007 -0.008791128
-0.47819594 -0.051763125 -0.4814433 1.1387777 1.1858951 -0.8912352 -0.062611 0.6333881
-0.24348895 -0.23183553 -0.40391695 -0.003989063 0.17494708 -2.5915406 -0.40986252 0.18672776
0.1270844 3.0926814 0.011519797 -2.0580945 2.300576 -0.42295468 0.041245908 0.5518786
0.6672692 -0.12999214 -0.6709726 0.60568094 -0.0289234 -1.9747943 0.98753065 1.8874738
0.04919909 -0.4102237 -0.062983975 0.074220575 -0.19855735 0.7061068 0.9648675 -0.36364555
0.48075393 0.4311219 -0.4221384 -2.7872458 0.7641658 0.055937536 -0.074252695 -0.27706787
0.6093848 -0.6013113 -0.6097863 -0.29094112 -0.12209927 -0.0630338 -0.20856717 -0.11159146
0.06272561 -0.05717451 -0.77211607 -0.4280718 0.037213016 0.17252715 0.9777359 0.032134987
0.028775536 -0.46620366 -0.08577493 0.6835622 0.9328045 -0.053358298 0.26820228 0.93166906
-0.3971912 2.581835 -0.08108991 -0.06432696 -2.5074284 -0.65146446 2.6224973 -0.23867589
-0.46185875 0.06478711 0.06928743 0.37136257 -0.41212288 -0.8664441 -0.77090305 0.6485325
0.21124831 -0.027742203 1.127799 0.056072004 1.5357972 -3.095775 1.5204259 2.404408
-0.09667151 -0.3333657 0.55694795 0.9203674 0.8225284 -2.53248 1.0795718 1.0804911
0.1541147 2.0782504 -0.08539316 -0.23136576 1.2153583 1.3060338 1.2331669 1.0281249
0.7722225 -1.2194532 0.8407494 -0.010912858 -0.79527813 -0.089337185 0.050937437 0.028161205
-0.049261115 0.87952024 0.41357437 -0.30119315 0.8452743 -0.07674831 -0.07999899 2.1763017

4.bias f4 [6]
00000000: a450 52bc 6102 143f c8b8 e33c c444 973e
00000010: 4ee4 bbbe b385 293f
-0.012836609 0.5781613 0.027798072 0.29544652 -0.3669762 0.66219634

6.weight f4 [2, 6]
00000000: 33e4 ee3e 1ff4 0e40 53b6 763e 244d d93f
00000010: d53e 1fc0 bc0a 16c0 2817 5e40 847f cd3d
00000020: c8c8 e93f 3dd9 05c0 12c5 ce3e bf08 1fbf
0.46658477 2.23365 0.24092989 1.6976666 -2.48821 -2.3444052 3.4701633 0.10034087
1.8264399 -2.0913842 0.40384728 -0.6212272

6.bias f4 [2]
00000000: 6126 77bf 047a 44bf
-0.96542937 -0.7674868
