src/main/resources/models/model_demonstrator__30_05_2024_15-52-32.pth (torch, 10760 bytes, 6 tensors)

0.weight f4 [128, 8]
00000000: 73b9 39bf 2849 583e 13bc 763f 5ad6 f0bf
00000010: a385 01c0 0a42 a53e 51bf d03c 9e62 07c0
00000020: 788a 7e3f 9501 82bf d985 d5be 5a6f 0a3f
00000030: f7b8 5f3f 22ea 16c0 ba14 2cbf c0c6 ec3d
00000040: 17ab d0bd 9928 6f3e 16b7 15bd ecb3 62bd
00000050: 9924 6bbe 49e7 abbe 7967 c33c dc26 963e
00000060: a75c 0fbf cd13 123f 8d98 243f f9ba 2a3f
00000070: b967 09be 841d 18c0 36f2 913e 0c94 493e
00000080: cf11 903e 5b37 c0bf 314f 91bf cced a4be
00000090: 1bd2 463f 6206 47bc bac9 613f 215c a33e
000000a0: b502 69be dd6a 0cbf 4618 603f a23e 9f3f
000000b0: fa33 24be b843 4cc0 ced5 2dc0 67b4 2d3f
000000c0: 6fda 8fbe b481 d93c 360b 613f bd67 693f
000000d0: d3ec e73d 4aca 15c0 d10b f93e 2349 de3e
000000e0: 81b5 e63d da52 c0bf 845b 19bf 5dff 283e
000000f0: 21a7 673f a9b6 05c0 3844 96bd cb35 f2be
00000100: c1d9 383e 2679 a3bf 8163 0f3f 90aa 563e
00000110: 7cbb 16be 5894 833e e21a d63f ea76 5b3f
00000120: 472f acbd bd6b 81bf 3c6b e3be a943 0e3f
00000130: 3ef0 493f 00bc ebbf 6189 f6be b135 1fbf
00000140: 1eee 6cbd c5ed 6dbe 78b9 03be 5e78 56bc
00000150: 3eb7 58bd defb 343e d122 45be cc8e d13d
00000160: 1887 7bbd cd60 83bf ef51 223f d318 033f
00000170: 6a0b eabe 2633 bdbf 4918 5a3f 546a 6a3f
00000180: 8a1b c83e aeac 58bf e0e8 36be 0fe5 083f
00000190: 7526 c03f c7ae 1ac0 16c5 c9bf bfe3 bebe
000001a0: 1ea8 b5be 237b ed3e aaa8 2a3f e124 683e
000001b0: 610d 05be 4ca9 01c0 97e4 6f3e dc11 763f
000001c0: 1b19 353d e94f c53e 1b7f 483f 2bdf de3e
000001d0: b10d 84be 162c 1cc0 b50c 4c3f 91aa 403f
000001e0: ca87 343e de8e 0cc0 f172 28be b146 c53d
000001f0: b756 793f da9f e0bf 2d30 c7be 9059 bdbd
00000200: 51c6 fabc a562 d6bf 4d39 4ebf b211 80be
00000210: 3e3e 053f df0f 6ebe 53aa e53e 5b0b 2d3d
00000220: 5e6e 023f c2a4 68bf 660d a9be ab05 053e
00000230: 9145 8f3f ff73 17c0 fd6c 22bf e594 a8be
00000240: 788f 1f3e 005c ac3e cb1e d4bd 711a 52be
00000250: ca04 c3bd 199c 8f3e 6dfd 583d 5ff2 7fbd
00000260: cfc1 12bf d367 17bd 05bc ac3f 2570 833f
00000270: 2955 9dbe a878 4bc0 8f43 f9bf a3b1 7b3f
00000280: 48d2 d1bd a351 a0be afcc 53be 8d98 0c3e
00000290: bcb2 11be bd01 89be dde0 6fbd f990 d83c
000002a0: 0b34 1bbe b74e 233d 724f acbe 9999 c1bd
000002b0: f55f 8dbe a0c6 a13e 178d b5bd e7f5 4dbd
000002c0: 3264 a7be a7c1 b2bd 80ea 16be 2d15 c03c
000002d0: 0c1a edbd 6ac4 febd b34d 533e fc3d acbd
000002e0: 0719 7cbe e577 323f e909 383f c119 683f
000002f0: 7f03 9f3e 86c4 17c0 7c8c d43e 17aa 173f
00000300: 4c21 acbe cbd2 b93e c91a 163f 44f2 6f3f
00000310: 266c 09bd ef4c 13c0 bb49 843e c971 413f
00000320: db75 183e 2458 9fbf adeb 283f 8556 8cbd
00000330: 1a3a 25bf 4b13 61bf 340f cc3f 0c1f 4b3f
00000340: c326 573e 43e0 8bbf cfaf 203f d65c 84bd
00000350: 5e11 acbe de77 27be 3f67 c03f bdb7 5a3f
00000360: 4fe8 03bf 26ea b9be e95e 053f 6274 143f
00000370: 3db7 ac3e bbc6 1dc0 e841 21c0 bd94 90be
00000380: eb6d c5be 33e7 3cbe bbe0 763f 9a7d fbbf
00000390: 42b5 c4bf 1435 0fbc 4cb0 893e 65b6 e1bf
000003a0: 8129 25c0 5077 38c0 369f 93be c746 48be
000003b0: c20f dc3f 098b 55c0 23c9 1ec0 0230 483f
000003c0: 631a a73e 8a73 743e 2d6a acbe ce98 bbbe
000003d0: c893 9abe 1e08 74be 62f0 bcbe ec16 5c3d
000003e0: 05ab 333d 3f3b 9ebf 3bbd a1be 1a4a 4b3e
000003f0: 3c87 913f 2dc7 1ec0 7d23 23bf c61f 4dbd
-0.725486 0.21121657 0.9638073 -1.8815415 -2.0237815 0.32276946 0.025481852 -2.115394
0.99430037 -1.0156733 -0.4170368 0.5407616 0.8739161 -2.3580403 -0.67219126 0.11561346
-0.10188883 0.2335533 -0.036551557 -0.055347368 -0.2296318 -0.33574894 0.02385305 0.29326522
-0.5600075 0.57061464 0.64295274 0.6669155 -0.13418473 -2.3768015 0.28505105 0.19685382
0.28138587 -1.5016893 -1.1352292 -0.32212675 0.77664346 -0.012147518 0.88198435 0.31906226
-0.22754939 -0.5485056 0.8753704 1.2440989 -0.16035452 -3.1916332 -2.7161746 0.678534
-0.2809634 0.026551105 0.8790773 0.9117392 0.113244675 -2.3404717 0.48641828 0.43415174
0.11265088 -1.5025284 -0.59905267 0.16503663 0.90489393 -2.0892737 -0.073372304 -0.47306666
0.18051817 -1.2771347 0.56011206 0.20963502 -0.14719957 0.25699115 1.6726954 0.85728323
-0.08407455 -1.0111004 -0.4441775 0.5557199 0.78882205 -1.8416748 -0.48151687 -0.621913
-0.057844274 -0.23235233 -0.1286372 -0.013090221 -0.05290913 0.17674205 -0.19251563 0.102323145
-0.061408132 -1.0263916 0.6340627 0.51209754 -0.45711833 -1.4781234 0.85193306 0.91568494
0.3908351 -0.8463849 -0.17862272 0.53474516 1.5011736 -2.4169176 -1.5763271 -0.3728313
-0.35479826 0.46383008 0.6666361 0.22670318 -0.12993385 -2.025958 0.23427044 0.96121
0.044213396 0.3853753 0.7831895 0.4352964 -0.25791696 -2.4401908 0.7970689 0.75260264
0.17629924 -2.19622 -0.16450097 0.09632624 0.9739794 -1.7548783 -0.38903943 -0.09245598
-0.030612143 -1.6748854 -0.80556184 -0.250135 0.520481 -0.23248242 0.4485651 0.042247158
0.50949657 -0.908764 -0.33018035 0.12990443 1.1193105 -2.3664548 -0.6344755 -0.32926098
0.15582073 0.3366394 -0.10357436 -0.20517899 -0.09522398 0.2804878 0.05297606 -0.062487002
-0.5732698 -0.03696425 1.3494879 1.0268599 -0.30729035 -3.1792393 -1.9473742 0.9831793
-0.10245186 -0.31312284 -0.2068355 0.13730069 -0.14228338 -0.2675914 -0.058564056 0.026436316
-0.15156572 0.03986999 -0.33654362 -0.094531246 -0.27612272 0.3159685 -0.088648014 -0.05028334
-0.3269363 -0.087283425 -0.14737892 0.023447597 -0.11577234 -0.12439807 0.20635109 -0.0841026
-0.24618922 0.69714195 0.7189012 0.906643 0.31057355 -2.3713698 0.4151343 0.5924391
-0.33619153 0.36293635 0.5863462 0.93729043 -0.033550404 -2.3015707 0.25837502 0.7556425
0.14888708 -1.2448773 0.6598461 -0.0685244 -0.6454178 -0.87920064 1.594214 0.7934425
0.2101088 -1.0927814 0.6276826 -0.064630195 -0.33607 -0.1635432 1.5031508 0.8543661
-0.5152635 -0.36311454 0.52097946 0.57990086 0.3373355 -2.4652545 -2.5196476 -0.28238478
-0.38560423 -0.1844757 0.9643666 -1.9647706 -1.5367815 -0.008740682 0.26892316 -1.7633787
-2.5806582 -2.8822823 -0.28832406 -0.1955825 1.7192309 -3.336611 -2.4810264 0.78198254
0.3263732 0.238722 -0.33674756 -0.36640018 -0.30190873 -0.23831221 -0.36902148 0.053732798
0.04386427 -1.236183 -0.31589684 0.19852486 1.1369395 -2.4809067 -0.63726026 -0.05007913

0.bias f4 [128]
00000000: 76f7 973f 3530 da3e 39a6 92be ab15 b03e
00000010: 0980 ed3f 0880 c33e aa26 44bd cce4 673f
00000020: 9842 be3f 3281 133f 0cef 52be 95be 3f3f
00000030: 3abb 9c3e a85a 4f3f b9ff cf3e 7e5d 933f
00000040: c4a4 e33f 233e 303f bf1a 2dbe a553 c73e
00000050: e6e8 90be 9730 aabe 92d5 7ebe 0f71 e73c
00000060: 64f4 283e a294 4e3f 7026 8b3f aec3 e53e
00000070: bc00 a63f b61a 0f3f 183f a73e 410f 053f
00000080: 24de b1bb 0c4d 463f 2c26 24be c051 e43f
00000090: 5ff2 7d3e 225b c93f 79ed d63d 1bdf 763f
000000a0: 7cc9 52be cf8f 9a3e 773c e23e 85c2 613f
000000b0: 56fa 043f 1395 743f 0331 87be d324 893f
000000c0: 7df3 3d3d 7939 503f e49a 54bd ce95 81be
000000d0: a527 1c3f 1de6 f03f 6780 da3e a0e3 213f
000000e0: 5c3f ae3d a586 f83f cc82 f33c 6d45 f13e
000000f0: a0dd 083f 243d 3c3f 4392 a13f b8dd 9e3e
00000100: a52b 023f e1ee 793f 80da 663f c743 bc3e
00000110: a0f2 583f 82f2 7f3e 9cac 1b3f 51ab a73e
00000120: 9151 0e3f 9ee1 ac3f 8af4 163f d1f5 33be
00000130: 297a 23be 122f 97be 1a20 ea3e a210 453e
00000140: 751f 443f 1a67 83be 01c8 c93f 0c06 883e
00000150: 0e8f bd3f 85e9 233f 1c0b 8f3f ceb6 f83e
00000160: 38fa a6be d57f 3e3f 151a a7be 4c32 553e
00000170: 6685 a73e b5b3 583f 6f2c a03e 3619 b13f
00000180: 3a84 c23d b9ec 14be 1207 313e 9a1b c63f
00000190: 910d 613e 85c0 893e 602d 2bbe c042 0f3f
000001a0: 2d66 153f de74 a8be 0d13 13be ad68 61be
000001b0: fcfc bebd 8646 dc3e 4aee 0b3f f6f7 083f
000001c0: cc8a e13f 66d7 99be 663a f13e b758 043f
000001d0: 86c6 95be fcb0 a33f 199a bd3f e539 c23e
000001e0: 81e8 ebbd a41d 9d3f 61a6 db3e 8889 a6be
000001f0: 7358 7fbb 52b7 93be aa39 db3e 90fe 08be
1.1872394 0.42614904 -0.28642443 0.3439153 1.8554698 0.38183618 -0.047888435 0.9058349
1.4864073 0.5761901 -0.20599002 0.7490018 0.30611593 0.80997705 0.40624788 1.1512907
1.7784657 0.68844813 -0.16904734 0.38931003 -0.28302687 -0.33240196 -0.24886158 0.028252153
0.16499478 0.80695546 1.0871105 0.44875854 1.2968974 0.5590013 0.32665324 0.519764
-0.0054280926 0.77461314 -0.16030186 1.7837448 0.24799488 1.5730937 0.10494513 0.9643418
-0.20584673 0.30187842 0.44186756 0.8818744 0.5194448 0.9553997 -0.2640458 1.0714363
0.046374787 0.81337696 -0.051905528 -0.25309604 0.6099799 1.8820225 0.42676088 0.63237953
0.085081786 1.941609 0.029725455 0.4712328 0.5346317 0.73530793 1.262276 0.31028533
0.50847846 0.97630125 0.90177155 0.3677046 0.84745216 0.24994853 0.60810256 0.32747892
0.5559321 1.3506353 0.58966887 -0.1757424 -0.15964569 -0.295281 0.45727617 0.19244626
0.766105 -0.25664598 1.5764161 0.26567113 1.4809282 0.640282 1.1175265 0.4857697
-0.32612777 0.74413806 -0.32637087 0.20819968 0.32718962 0.8464921 0.312839 1.3835819
0.094978765 -0.14543428 0.17287853 1.5477173 0.21977831 0.26904693 -0.16716528 0.5596123
0.5835903 -0.32901663 -0.14362736 -0.22012587 -0.09325597 0.43022555 0.54660475 0.5350336
1.7620482 -0.30047148 0.47114867 0.5169787 -0.29253024 1.2788386 1.4812652 0.37934795
-0.11518956 1.2274671 0.42900375 -0.32526803 -0.0038962632 -0.288508 0.42817432 -0.13378358

2.weight f4 [6, 128]
00000000: 3a0b 2c40 293c 403e 7d9b 26bd a471 aa3f
00000010: e5ab 7ebf d2f4 4c40 58f9 cd3f 7785 34bd
00000020: f60a 83bf 22a7 473d abe8 44bd 5425 0cbf
00000030: 4043 ac3e 1ba7 af3e f08a 76bd b2fb b8be
00000040: e8f4 24bf fbdf 9abb 900c 31bd 81f1 b33f
00000050: 4c8e 4e3d 6114 92bc 4037 2fbd 6ced a83f
00000060: 07d1 9d3f 3e39 81bf 4cdd 72bf a352 af3f
00000070: c007 1d40 ac22 0740 a73f 9ebd c498 873e
00000080: 9f98 383d 732c 3abe 462d a53c 81e3 6abf
00000090: 5eac 273f fac6 83bf 3509 dbbf d80b babe
000000a0: 5316 c0bc cff1 92bf 14dc f23e f521 f4bf
000000b0: c414 1040 72b2 f93b c2d7 1bbd cce5 60bf
000000c0: fd53 a7bc cf48 973c 5eac f6bc 5425 96bc
000000d0: adb1 483e dff2 10bf cefe 7e3f 7de0 f43f
000000e0: 6edb f83e 592c 15c0 e4a2 6bbd 9262 9e3e
000000f0: f4c5 91be 2111 bd3d 0dbc 84bf 9d4c a63f
00000100: b9fa 61be a9a0 febe 9f5f c5bd 2495 9c3f
00000110: 06f9 30be 2f34 0940 7b0a f93e ceff 04be
00000120: ef11 ae3f b58f 6240 003d 253f 55bb 1d3b
00000130: 6338 82bd ba73 97bc 8b26 923f 355d 663e
00000140: fc73 e93f 1465 b3bd 4f77 a2bf 1a30 b83f
00000150: 9d3f 44bf 6d4c 85bb 455d 7ebf 2187 123e
00000160: e14d 813d bd9e 1140 2bad 43bd 74a3 843e
00000170: 6d0d 1c40 6b9c e13e 1aff 1340 5087 9bbf
00000180: 27ca eabc 1643 aebd e3f1 d93f 8646 5e40
00000190: 0ada 93bf d317 693d cc83 4e3d 8150 0340
000001a0: cd56 0c3f 62cd 8d3c c983 313d aa9d aebd
000001b0: ced4 843d a173 40bc 8342 ed3f 6437 0a40
000001c0: fb96 9cbf f292 46bd 895e feba c81f 2d40
000001d0: e1f0 1abd 2a00 d6be b1a0 e1be 495e 3140
000001e0: 2e0f 293f 787c 26bf c553 57ba 956b fa3c
000001f0: b602 053f 9860 f73c 96a9 0d3f 9ef4 28bd
00000200: 586a febf 6489 d53f d405 643d 4a56 473e
00000210: 0d9a 6cbc 6443 1a40 b468 8b3e 1851 ae3f
00000220: b46c c3bf f381 0c40 677a eabc e690 c3bf
00000230: 46fc 0040 0385 08bf cc89 d2be 53b6 893f
00000240: 4a7b 77be 7bde d53f ad70 1fbd 13de 3b40
00000250: cec1 08bd 6606 393d 9dc4 9d3b 3bce 003f
00000260: c1da 723e a1d2 debf 8b11 ccbf 6482 0040
00000270: b0d5 4cbf c012 d23f b924 44bd dffb ef3f
00000280: 8caa 86bd ab74 b43f 0e06 93bb 7f5b 87be
00000290: 09c5 1640 d4c3 ccbf 1caf f53f 7f2c 70bf
000002a0: 6a15 81bd ab36 1840 835a 0440 1299 4f40
000002b0: 9234 cd3f 5412 98be 72db bd3c edd3 edbf
000002c0: 6f70 cabc e435 cb3c a207 223d 9a99 d63c
000002d0: 50f8 cf3f efc8 9e3d 6811 38bd f903 0140
000002e0: 7845 0040 79c5 ea3e 3be9 4dbd f4c1 c43f
000002f0: 2140 cd3f c44f c63f 06ed d7bf 0c32 2f40
00000300: 3edd c63f 750f b73f 6ce2 c13f 1721 d3bd
00000310: 10a2 b63f d517 ee3f 9df3 d33f 3643 24bf
00000320: 395b 0140 9069 29bf e331 2cbe 2e41 38bd
00000330: f8ba 21bd 8bca 28bd 3fc7 1940 4ca7 0e40
00000340: f82e e43f 9e3b 913d dec9 4040 0b98 913f
00000350: b5e8 003e c6bb 31bf eb22 cdbf 21fe 0abf
00000360: 58a2 01bd 07d0 ee3f 9178 1d3d 100e 1340
00000370: cd6b e83f 5351 dd3f d46c 1940 3199 4e40
00000380: cd21 69bc 0ba2 6bbb 3b93 0640 b086 91bf
00000390: 8192 eb3f 118d c73e 05b9 91bd 1047 ad3f
000003a0: 9119 0a40 add8 afbd d563 6e3d cd33 5a3c
000003b0: 242e a53d 487f d53f 632e e83f 77c5 21c0
000003c0: 9215 eebf 1c76 913d b1d8 95be e634 4240
000003d0: 0198 dfbc e8f9 693f 7e96 8c3c ae50 d73f
000003e0: 81ca f83f 73b2 483f 931e bd3f 288b e13c
000003f0: 1a6f 0e40 3a71 76bd 53cc 3ebf 007e 69bd
2.6881852 0.1877295 -0.04067563 1.331593 -0.9948104 3.2024426 1.6091719 -0.044072594
-1.023772 0.048743375 -0.048073452 -0.5474446 0.33645058 0.3430718 -0.060191095 -0.36129528
-0.644362 -0.0047264076 -0.04322487 1.4058076 0.050428674 -0.017831983 -0.0427773 1.3197455
1.2329415 -1.0095594 -0.9486892 1.3697094 2.453598 2.1114912 -0.077269845 0.26483738
0.045067426 -0.18181019 0.02016319 -0.91753393 0.65497386 -1.0295098 -1.7112185 -0.3633716
-0.023448145 -1.1480044 0.4743353 -1.9072863 2.2512674 0.0076201493 -0.03804756 -0.8785064
-0.02042579 0.018467335 -0.030111488 -0.018328346 0.19599028 -0.5662059 0.9960755 1.9131008
0.48604912 -2.3308318 -0.05752839 0.30934578 -0.2847134 0.09231783 -1.0369889 1.299213
-0.220683 -0.4973195 -0.09637379 1.2233014 -0.17282495 2.14381 0.48640808 -0.12988207
1.3599223 3.5400212 0.64546204 0.0024067957 -0.06358411 -0.0184878 1.1418012 0.22496493
1.8238521 -0.087595135 -1.269266 1.438968 -0.76659566 -0.0040679486 -0.9936107 0.1430936
0.06313682 2.2753136 -0.047772568 0.25905955 2.4383194 0.4406465 2.3124452 -1.2150669
-0.028660847 -0.085088894 1.7026943 3.4730544 -1.1550915 0.056907486 0.05041866 2.0517886
0.5481995 0.017309848 0.04333857 -0.08526166 0.06485902 -0.011746318 1.8535923 2.1596308
-1.2233576 -0.04847998 -0.0019406836 2.7050648 -0.037827376 -0.41797 -0.4406791 2.7713797
0.6603879 -0.65033674 -0.0008214082 0.030568877 0.5195726 0.030197427 0.5533689 -0.04124891
-1.9876204 1.6682553 0.05566962 0.1946651 -0.014441025 2.4103632 0.2722832 1.3618498
-1.5267549 2.1954315 -0.02862282 -1.5278594 2.0153975 -0.5332796 -0.41120756 1.0758766
-0.24168125 1.6708521 -0.038925815 2.9354293 -0.03338795 0.045172118 0.004814698 0.5031468
0.2371626 -1.7408029 -1.5942854 2.0079584 -0.8001356 1.6411972 -0.047886584 1.874874
-0.06575498 1.4098104 -0.0044868058 -0.26436993 2.355776 -1.5997262 1.9194064 -0.93817896
-0.063029125 2.3783367 2.0680244 3.2437177 1.6031668 -0.29701483 0.023175929 -1.85803
-0.024711816 0.02480597 0.03955806 0.02619629 1.6247654 0.07753169 -0.044938475 2.0158675
2.00424 0.45853785 -0.050271254 1.537169 1.6035196 1.5493093 -1.6869209 2.7374296
1.5536268 1.4301592 1.5147223 -0.10309046 1.4268208 1.8601023 1.655872 -0.64165056
2.0211928 -0.661767 -0.16815905 -0.044984035 -0.039484948 -0.041208785 2.402786 2.228961
1.7826834 0.07091449 3.012321 1.1374525 0.1258877 -0.69427145 -1.6026281 -0.5429402
-0.031648964 1.8657235 0.03844506 2.2977333 1.8157898 1.7290443 2.3972673 3.2281
-0.01422925 -0.003595474 2.1027362 -1.1369228 1.8404084 0.38974813 -0.07115368 1.3537312
2.1578104 -0.085862495 0.058200676 0.013318014 0.08065441 1.6679468 1.8139156 -2.5276773
-1.8600333 0.07102606 -0.29266885 3.0344787 -0.02729416 0.9139695 0.017161604 1.6821496
1.9436799 0.7839729 1.4774956 0.027532175 2.225531 -0.060166575 -0.74530524 -0.05700493

2.bias f4 [6]
00000000: 7f09 02bf 3805 f33d 8f2f 093e eb33 abbd
00000010: 5a27 98bd 6ee0 e63b
-0.5079574 0.1186623 0.13397048 -0.08359512 -0.07429381 0.007045797

4.weight f4 [2, 6]
00000000: d964 65c0 33c8 5040 6971 86c0 08ec 76be
00000010: d1c6 eebc 47dc 263e ee89 6740 b0e8 fc3f
00000020: 86e3 b73f 5595 f13d e1cf 833e c45b d43c
-3.5842803 3.2622192 -4.201344 -0.24113476 -0.029147537 0.16294967 3.6177936 1.975851
1.436631 0.11796061 0.25744537 0.025922664

4.bias f4 [2]
00000000: bcb1 4840 5c0b b0bf
3.135848 -1.3753467
