src/main/resources/models/model_demonstrator_24_10_2024_11-47-12.pth (torch, 77428 bytes, 8 tensors)

0.weight f4 [128, 8]
00000000: 0455 afbe 2ead 6fbe bd01 273d 1b2e e83e
00000010: b79f b93e b1cd 63bf 099c c43f 943c d23f
00000020: 39f8 073e 96b6 163e 1f2b a8be c447 353e
00000030: e305 813f ad93 92bf 4e87 51bf e4ea 3a3d
00000040: 6a61 203e cc44 013e b09b 943d 5a2d 3cbe
00000050: d0a2 7ebd bf44 61be 8d15 21be 2e61 7e3e
00000060: 0e21 843e 946a 633e 9a0e 4dbf 506d 243f
00000070: 80b2 4ebf a2e2 8bbe 303c 603f 5e61 113f
00000080: 27ca 5ebe 009f 6d3f 1692 72bf ffae e53e
00000090: 3aac 29bf e460 3bbf b317 313f 5cb1 d03d
000000a0: 9ee4 663f 6a3d 083e 28e6 4b3f e657 e1bb
000000b0: b7f7 793e 8516 373f df6e 563f fdab a73e
000000c0: ce3b d3be 0765 e5bd 92db cebd 06ca 5fbf
000000d0: 2dbf 523f 1977 a2bf ba9d 22be 5c61 c43f
000000e0: 9b7b 0b3e ea3c 843f 282c 223f d88c b7bf
000000f0: 546d 8d3f 4011 013f 8ef7 35be 1445 65bf
00000100: 61a4 633e 7464 ac3f 8d74 7bbe a5d0 2f3f
00000110: 5449 a2be cc4b 9abd aa39 acbf b7ca 23be
00000120: 38d9 5abe 834c 13bf 58ea d03e 5100 4ebf
00000130: b2e1 b03e 4eff 303f 9c72 54be 53f9 e83e
00000140: d032 52bf 834f 213d 5b79 d2be f362 28bd
00000150: 190e a23f 3560 84be 98ee 3f3f 836f 1abf
00000160: 0bc5 9cbe 37a9 21be c325 383c 6a43 d3bc
00000170: 89e0 823e 6809 8e3d 34bf 18be 8365 8d3e
00000180: 753a b7bf 40f3 abbe 45a0 253f f980 90be
00000190: cf4b debb cf55 8fbf ec33 cc3f df0d af3f
000001a0: 2ca9 c5bd c4a2 9f3d 200d 52bc e451 8c3d
000001b0: 5f46 97be 8055 d73c 0d56 19be e4da 5bbe
000001c0: 59d3 20bf a8df 613d 5d03 8abe d956 a8be
000001d0: abae a23f 52ed 4cbe ace9 663f a282 34bf
000001e0: b83a aa3e ca60 db3d 882e cfbd 4c87 a2be
000001f0: 255b 2fbe 33ca 4dbe a858 20bb 8ee9 abbe
00000200: ec76 b43e 9f8b 8abe 7e93 4bbd d0c7 04bf
00000210: b3f3 d03e 6840 423f 9eb8 dd3f 5ee9 203e
00000220: c1a9 15bf 4c79 79be cf3f 76bf 1ef7 b73c
00000230: d2d5 a03f 8fd7 f0bd 35fc ac3e 41bb 0cbf
00000240: d466 74be 4533 9abf 77b7 c6be 5b79 ce3e
00000250: 1e72 aebf 9210 fdbe 2f96 8e3f d60f 9f3f
00000260: 2f4a e83e 33a4 2c3f b9f8 2c3d e31c 8cbe
00000270: 726c 90bf 6a6e 79bf b309 dcbe 2a52 b23e
00000280: 03a2 04be fe2c 983f f1ec f6be e551 d93e
00000290: 17cd b33f a77c 133f 9f0a d4be 2815 c6be
000002a0: a1d9 4fbe 8863 7f3f 5882 1f3f 7f49 203f
000002b0: 523c 0fbf 7888 a4be a540 a5bd 9de7 253f
000002c0: b940 41bf c04b 4a3e f604 093f 268c 403f
000002d0: 2c0a 713e 6079 35bf 5b1e 98be 9cc1 a73f
000002e0: ab73 2f3f 1083 933e 358d 5d3e 7a36 0b3f
000002f0: 7635 bcbe 3aa1 a1be feb5 e13d 3a8b f43e
00000300: 0f1c e2be eb0e 2f3f 87b8 3fbf e874 52bf
00000310: 308d 45bf ec1b 053f 35d3 5b3f eb41 a63f
00000320: 0bbc e83e acb1 8a3f cb79 db3e b4d7 7cbf
00000330: 7476 29bd 4832 083f ea62 10be cff1 373e
00000340: 798b 8c3e 48f2 863f fa32 2ebf b410 b03e
00000350: 531a 6b3e 9eea ee3d 6350 08bf 8f6c 653f
00000360: 1179 6d3f 5d96 c03f c44a 623e 6e54 efbe
00000370: 2c96 2a3f 7935 183f bd06 183e 3804 433f
00000380: a922 c53d cb1d 4abd 525f 3d3e 4ff7 ac3e
00000390: f554 833f 1320 193f 9aac 843d 3541 073f
000003a0: 56dc 10bf a6dd 1b3f fb61 5d3f 496e 063f
000003b0: b6f8 1fbf 5d9b 38bf 17e3 93bd a6dd 7e3f
000003c0: ab10 81bf 2343 efbd b3e6 0dbd 4f2c 333f
000003d0: c5da a2bc 9719 c1bf d530 1540 b95d 40bf
000003e0: f0b8 e0be 640b 83bf 8d06 013e 112c 0a3f
000003f0: 7427 6bbe f772 92bf 6dbf d73f a7ae 73bf
-0.3424455 -0.23405907 0.040773142 0.45347676 0.36254665 -0.88985735 1.5360118 1.6424737
0.13278283 0.14718089 -0.328454 0.17703158 1.0079921 -1.1451317 -0.81847084 0.045634165
0.1566216 0.126239 0.072562575 -0.18376675 -0.06216699 -0.21998881 -0.15730877 0.24841759
0.2580647 0.22208625 -0.80100405 0.642293 -0.8074112 -0.27321345 0.8759184 0.56789196
-0.21756802 0.9282074 -0.9475416 0.44860074 -0.6627842 -0.7319472 0.6917679 0.101900786
0.9019259 0.13304678 0.79648066 -0.0068769334 0.24410902 0.7151874 0.83762926 0.32748404
-0.41256565 -0.1120091 -0.101004735 -0.8741764 0.8232296 -1.2692596 -0.1588048 1.5342212
0.1362137 1.033109 0.6334863 -1.4339857 1.1048989 0.50416946 -0.17770216 -0.8955853
0.22230674 1.3468156 -0.2455618 0.6867774 -0.3169657 -0.07533988 -1.3455098 -0.15995298
-0.21371925 -0.5753862 0.4080379 -0.8046923 0.34547192 0.69139564 -0.20746845 0.4550272
-0.82108784 0.03938247 -0.41108212 -0.04110999 1.2660552 -0.2585465 0.7497344 -0.60326403
-0.30619082 -0.15787207 0.011239472 -0.025788981 0.25561932 0.06935388 -0.14916688 0.2761651
-1.4314715 -0.33584023 0.64697677 -0.28223398 -0.0067839394 -1.1198062 1.5953345 1.3676108
-0.096514076 0.07794717 -0.012820512 0.06851557 -0.29545876 0.026285887 -0.14974232 -0.21470219
-0.6282249 0.055144936 -0.2695569 -0.3287876 1.2709554 -0.20012406 0.90200305 -0.7051183
0.33247924 0.107118204 -0.10116297 -0.31743848 -0.17124613 -0.20096664 -0.0024466906 -0.33576626
0.3524698 -0.27059647 -0.049701206 -0.5186739 0.40810928 0.75879526 1.7321966 0.15714023
-0.5846215 -0.24362677 -0.96191114 0.022456702 1.2565253 -0.117598645 0.3378617 -0.54973227
-0.23867351 -1.2046896 -0.38811848 0.40326962 -1.3628576 -0.49426705 1.1139582 1.2426708
0.45369098 0.6743805 0.042229388 -0.2736579 -1.1283095 -0.97434103 -0.4297615 0.3482831
-0.12952428 1.188873 -0.48227647 0.42445293 1.4046963 0.5761208 -0.41414353 -0.38688016
-0.20297863 0.9976125 0.62308264 0.62612146 -0.55951416 -0.32135367 -0.080689706 0.6480654
-0.75489384 0.19755459 0.53523195 0.7521385 0.23539037 -0.7088833 -0.2971066 1.310596
0.6853587 0.2881093 0.21635897 0.5438 -0.36759537 -0.3156832 0.110210404 0.4776247
-0.44162032 0.6838214 -0.7489094 -0.82209635 -0.7716856 0.5199573 0.8586915 1.2988867
0.45455965 1.0835471 0.42866358 -0.98766637 -0.04137273 0.53201723 -0.14100233 0.17963336
0.2745016 1.0542688 -0.68046534 0.34387743 0.2295926 0.116658434 -0.5324766 0.8961877
0.9276286 1.5045887 0.22098833 -0.46744102 0.66635394 0.5945659 0.1484632 0.7617831
0.096257515 -0.04934482 0.18493393 0.3378243 1.0260302 0.59814566 0.06478234 0.52833873
-0.56586206 0.60885084 0.8647763 0.5251203 -0.6248888 -0.72112066 -0.07221048 0.9955696
-1.0083212 -0.11682727 -0.03464384 0.69989485 -0.019879708 -1.5085934 2.3311055 -0.7514301
-0.43891096 -1.0237851 0.12600155 0.5397349 -0.22964269 -1.1441334 1.6855294 -0.95188373

0.bias f4 [128]
00000000: 640a e43e b8d4 ab3f 35ab adbe de3b 9abe
00000010: 1f68 713f f589 0b3f be05 3d3f 2daf ef3e
00000020: 8f7b a93e 0785 173f 046e 343f a1c5 afbe
00000030: 1113 243f 8067 f9bd ead0 883d 849f 1bbe
00000040: ac47 e83e 8f68 483f 451e e0bc a53b 5e3f
00000050: 3ea4 0d3f d162 6d3f 74d1 e33e 030c 843f
00000060: f17a 283f d39e 6c3e e663 773f 7893 623e
00000070: 0341 023f c5e9 d73e 83e4 d53e 428c 863f
00000080: 9534 41be 7763 133f 155d 7ebf eb82 8e3f
00000090: f7e4 0dbe 4d41 21be fa7b 3a3f 7ea8 6d3f
000000a0: 5178 033e d125 f93e cad2 593f 2ad6 6c3f
000000b0: 37b0 fe3e 235b 323f 2181 cd3e a5d1 503f
000000c0: c3d4 953f b5fd c7be 7382 643f 141c ce3e
000000d0: 306f 6bbe dff2 3c3f e192 403f d0a5 243f
000000e0: 240c 3b3f a92c f53e ba9f 10bf 3c5a e93e
000000f0: 648e 693e 4326 183f 6b52 663f 1bf4 323e
00000100: 4870 993f 4506 5b3f e62e 7a3f f1d0 cfbe
00000110: 6601 eabd 22db db3d 0ee9 c4be 2b01 e43e
00000120: 6e5b 553f f085 f63e b2c7 203f e357 0e3f
00000130: c64a 333f c79c 1b3f 7685 adbf da0f 5a3f
00000140: 06d9 62be 978c 30be e2f5 38bf 732a 7b3e
00000150: a2fb 2a3d 2f86 603f d6c6 333f bf19 f13d
00000160: 3072 e03d 3530 f83e e2ee 443f 463a 1c3f
00000170: 95ce 843d 602e b0be bd89 a13e 00e5 4d3f
00000180: 24ca ec3e 8899 273f 964d b33e b9b4 b03d
00000190: a4d9 333f e7cc 803f fa33 113f 03ce 5b3e
000001a0: 2700 4a3f abb9 ce3e 0c48 fd3e e78d 24be
000001b0: c91a c2be 8459 0a3f eb66 28be e15a 633f
000001c0: 97d4 493f 8233 e23e 88ef 4e3f 7c8f 593f
000001d0: d05c 86bd 07cb 3b3f ce70 3d3f cc2a 813f
000001e0: 2d0e 873f b3cd 983f 0a89 103f ac27 693e
000001f0: b8e3 64bd 0bbc 323f 7659 9e3d 484f 533f
0.44539177 1.3424292 -0.33919683 -0.301238 0.942995 0.5450738 0.73836887 0.46813336
0.3310208 0.5918736 0.7048037 -0.34330466 0.64091593 -0.12177944 0.06680472 -0.15197569
0.4536718 0.78284544 -0.027358184 0.8680976 0.5532874 0.92728907 0.44495738 1.0316166
0.65812594 0.23107462 0.9663681 0.22126567 0.5088045 0.4217054 0.41775903 1.0511553
-0.18867715 0.57573646 -0.9936078 1.1133703 -0.13856874 -0.15747567 0.72845423 0.92835224
0.12838866 0.48661664 0.85087264 0.9251429 0.49743816 0.69670314 0.4013758 0.8156989
1.1705555 -0.3906075 0.8926155 0.40255797 -0.22991633 0.7380809 0.7522412 0.6431551
0.730654 0.47885635 -0.56493723 0.45576656 0.22808224 0.5943338 0.8996951 0.17475931
1.198739 0.8555644 0.9772781 -0.40589097 -0.11426048 0.10735156 -0.38459057 0.4453214
0.83342636 0.4814906 0.6280471 0.55602854 0.7003597 0.607861 -1.3556354 0.8518044
-0.221531 -0.17241131 -0.7225019 0.24527912 0.041743882 0.8770475 0.70225275 0.11772489
0.109592795 0.4847428 0.76927006 0.6102642 0.06484715 -0.3441038 0.31550398 0.8042755
0.4624797 0.65468645 0.3502013 0.0862822 0.7025397 1.0062531 0.56719935 0.21465306
0.7890648 0.40376028 0.4946903 -0.16069756 -0.3791106 0.5404284 -0.1644551 0.88810545
0.7884001 0.44179922 0.80834246 0.84984565 -0.06560671 0.7335667 0.7400025 1.0091186
1.0551201 1.1937774 0.56459105 0.2276904 -0.055881232 0.6981818 0.07731907 0.8254285

2.weight f4 [128, 128]
00000000: 2891 273f 3878 793f bac1 6e3d 1341 4b3f
00000010: 84a5 67bc dc34 473e a3cb fa3d aeac 543f
00000020: c6af 4a3d 59a7 2d3f 39a0 d23e 8e41 a53d
00000030: e301 4e3f 1cb0 d7bc 5c47 d13e 5716 153d
00000040: 3c3d 193f 2b5c d43e c87e bc3e 0c04 9fbe
00000050: 0908 d2bd 8024 a43d 122e 69be 695b 933e
00000060: 81ab 89bf f503 d23e 7282 9c3e 4bdd 813e
00000070: 2f75 6bbe 9b5c f93c 2639 03c0 d276 c2bf
00000080: 5efb e9bc 34c3 8d3f b5cc 7fbf 6aa5 ba3f
00000090: 241d 32bd a1f7 8a3d 08db 033f 6c3d 793f
000000a0: 75d2 05bf 8438 043f 9d4f 3b3f ab58 98bf
000000b0: c651 3b3f 9655 a73e 6f91 21bd d8ed 103f
000000c0: 3991 cebf f20c adbf ba81 0d3f d71a 843e
000000d0: 73fe 93bd a053 0840 01af 343f c9de c3bf
000000e0: a403 bc3e 6dd3 383f a0cb a2be c715 cd3e
000000f0: a28e 183e 8915 113f a4ab 33bd f151 47be
00000100: 6f52 183f 7485 a8bd 7488 f03e 73b6 a13f
00000110: 5aff 7dbd 0878 a73f a7db 14be cc93 87bf
00000120: 9169 343f 108f 533e 3025 3b3e e580 f63e
00000130: 6773 5a3f 40f4 ef3d 1dc3 e7be 36ad eebd
00000140: 8827 ef3c 45d7 263f b02b 5c3e 5e65 a2be
00000150: ecbb 0b3f dace 833f 7a1c 403f 0b62 613f
00000160: 01dc 2a3f 4dc8 db3e 47dc 9ebd e9e0 f83e
00000170: 6e33 f53f 930a d7bf fd95 363f e3a5 3c3e
00000180: d600 3c3f e273 d03d 3a57 3a3f 2743 b73e
00000190: 91d5 85bc ce4b a9bf 92cf 243f 9921 4bbe
000001a0: 2f34 0bbf 9a85 853d 4cfb b1bd 2179 cf3e
000001b0: dda3 ecbe 6458 ccbe be05 793d 0eed 403f
000001c0: 87c2 b93e 8998 cf3e 8323 063e 1b20 c0bd
000001d0: cba8 be3d 2f8a 713e c772 193e 7d69 e5bd
000001e0: 6323 febd 9955 a2be 4e59 633e a0f6 e93e
000001f0: f0c6 bf3c 6107 033f 7afc 1240 df36 013f
00000200: 455e 6ebc a500 b2bd 8095 e7bb 366b 423d
00000210: 75b0 f03c fbbc 46bd 6546 b7bd fd84 09bd
00000220: 1f93 c9bd dbfc 39bd c6eb a83d 7f95 023d
00000230: e8e9 323d 9472 e13c f72f 2bbd 64ec a43c
00000240: b898 8f3d 392f 54bd e120 b23c 5962 bfbc
00000250: 285c 803d 0a6a 77bc 4504 ca3c ed98 9bbd
00000260: a1bb 713d bf30 62bd e964 893d f3d1 fc3c
00000270: 0c9b 67ba 6398 6c3d 1571 8abc 7ae7 69bd
00000280: 20b5 e53b 5520 debb 0808 aa3c 3e50 a33d
00000290: cd10 a93d c6bd 253d 75f3 a3bd a4c4 adbc
000002a0: b255 56bb 4a02 8c3d 45c7 b7bd e6d3 273a
000002b0: 61f1 113d e25c 7c3c 529d 4b3d 48d1 aebd
000002c0: 34ee f83c b422 e2bb e2dc 7dbd 5176 953d
000002d0: 20aa 7b3b 6c68 9ebd c113 9abc 86ea ba3c
000002e0: a28f d4bc 6c03 1dbc c544 8b39 4858 9bbd
000002f0: cbca 163d 242d 273d 6b06 3abc 57ca 5d3c
00000300: 77ad bfbd 867c 15bd ca6e 49bd 0939 da3b
00000310: 702d fb3c 3386 c5bb dd9b a6bd 75a6 e13c
00000320: 2b4b 203d f43b 9fbd 3e19 c33c b2c7 463c
00000330: 275f 4b3c 0621 523c 95a2 e73c 25e7 5c3c
00000340: e4a4 d2bc 1cb3 083d 4b40 433d 62e5 44bd
00000350: 1611 f7bb 1bdf 7cbd bd52 d13c f737 2a3d
00000360: afc5 76bd ab30 353b 3300 893d b838 48bd
00000370: db7f 3e3b acb5 39bc 19ad 6d3d cec8 123d
00000380: d9f0 81bb 634e dabc 35e5 89bd e980 51bc
00000390: e177 14bd ae29 c3bd 9ed9 c23c 4610 903d
000003a0: 5b16 52bd 1531 f9bc 20df 69bd 5e0d 32bd
000003b0: b2d7 fd3b a2dd afbd ac05 f03c 2b25 39bd
000003c0: 85ff 57bd 3a78 a2bd 6aab 54bd 6c9a 2d3b
000003d0: bc55 89bd 39a1 4f3c 02d5 823d 7196 72bd
000003e0: 7dbb 62bd 57f8 b8bd 3cc8 1dbd 316c 073d
000003f0: 6dc5 a1bd 50ae 6c3d fe56 10bb 7168 2abc
0.65455866 0.97449064 0.05829022 0.7939617 -0.014138583 0.19453758 0.12245872 0.8307599
0.049484037 0.6783348 0.41137865 0.08069144 0.8047163 -0.026329093 0.40874755 0.036398258
0.5985906 0.4147657 0.36815476 -0.31057775 -0.10255439 0.08014774 -0.2277148 0.28780678
-1.0755464 0.41018644 0.30568272 0.25364146 -0.2299392 0.030439666 -2.050363 -1.5192511
-0.028562244 1.1075196 -0.99921733 1.458173 -0.043484822 0.06785513 0.5150609 0.9735935
-0.52274257 0.51648736 0.73168355 -1.1902059 0.7317165 0.32682484 -0.039445337 0.5661292
-1.6138068 -1.3519576 0.5527607 0.25801727 -0.07226267 2.130104 0.70579535 -1.5302364
0.36721528 0.7219761 -0.3179598 0.40055677 0.1489816 0.56673485 -0.04386486 -0.19464852
0.59500784 -0.08228579 0.46979105 1.2633804 -0.0620111 1.3083506 -0.14536916 -1.0591979
0.7047358 0.20660043 0.18275905 0.48145214 0.8533234 0.11716509 -0.45266047 -0.11654131
0.029193655 0.65172225 0.2150104 -0.31717962 0.5458362 1.0297501 0.7504345 0.88040227
0.6674195 0.42926255 -0.07756858 0.48609093 1.915632 -1.6800102 0.71322614 0.18422656
0.73438776 0.10178353 0.7278935 0.3579342 -0.016337188 -1.3226259 0.6437923 -0.19837035
-0.543765 0.06519623 -0.08690509 0.40522102 -0.46218768 -0.39911187 0.06079649 0.75361717
0.36281225 0.40546063 0.13099484 -0.09381124 0.093095385 0.23587869 0.1498519 -0.11201761
-0.12409093 -0.3170593 0.22202036 0.45695972 0.02341029 0.51183134 2.29666 0.5047435
-0.014548843 -0.08691529 -0.0070673823 0.047465526 0.029381016 -0.04852007 -0.089489736 -0.033574093
-0.09842514 -0.045407157 0.08248095 0.03188085 0.0436801 0.027520455 -0.04179379 0.020132251
0.07011551 -0.051802848 0.021744194 -0.023362326 0.062675774 -0.015100965 0.024660239 -0.07597528
0.059016827 -0.05522227 0.067087 0.03086183 -0.00088350545 0.057762515 -0.016899625 -0.05710552
0.007010117 -0.0067787566 0.020755783 0.07974289 0.082551576 0.040464185 -0.0800542 -0.02121193
-0.0032704887 0.06836374 -0.089735545 0.000640212 0.035630587 0.015403004 0.04971058 -0.08536011
0.030387022 -0.0069011096 -0.06197823 0.07297958 0.0038400963 -0.07734761 -0.018808248 0.022816908
-0.025947396 -0.009583335 0.00026563383 -0.07585198 0.036814492 0.040814534 -0.011354069 0.013537011
-0.09359258 -0.036495708 -0.049177922 0.006659631 0.030661315 -0.0060279607 -0.08135197 0.027545193
0.039134186 -0.07775107 0.023815747 0.012132572 0.012412823 0.012825256 0.028275767 0.0134828435
-0.025713392 0.033373937 0.047668736 -0.04807032 -0.0075398786 -0.061736207 0.025552148 0.04155728
-0.06024712 0.0027647417 0.06689491 -0.048882216 0.0029067907 -0.011334818 0.058026407 0.035836034
-0.003965479 -0.026648706 -0.06733171 -0.012787082 -0.036247138 -0.09529434 0.023785409 0.07034354
-0.05129085 -0.030418912 -0.057097554 -0.04346978 0.00774666 -0.08587195 0.02929958 -0.04520146
-0.052733917 -0.07933088 -0.051921286 0.0026489748 -0.06705806 0.012672716 0.06388284 -0.059225503
-0.055354584 -0.09031742 -0.038521037 0.033062164 -0.07898984 0.057783425 -0.0022024508 -0.010400877

2.bias f4 [128]
00000000: a52e be3e 8e2b d8bc 2e3c 7e3d 5b1b 363f
00000010: d2db 023e 247e 143f 0404 cd3e 4bc7 543e
00000020: 0b9c aa3e 239a 89bd d8d3 c63c 2cbe 513f
00000030: 5458 fe3e 4f60 ff3b fa8a 313f c827 da3e
00000040: b602 1abd 33dc d03e f678 2abe a2aa bbbe
00000050: 807a 6cbd 5a76 bfbd 7f46 fd3e 862e 123f
00000060: 2513 163f 7678 2b3f d1d2 4a3f c463 9d3d
00000070: eb7c 92bd 9903 443f ea34 a63e 7960 4c3f
00000080: 8379 c43d b97e 843e e7a3 81bc b167 9c3e
00000090: c96f dbbd ae4b bcbd dfb8 093f 5fe5 333f
000000a0: 1155 933d c59b 01bd 0184 e73b 72d7 4e3f
000000b0: 9d78 79bd 15e5 f6bd a62a aebd 2d5c 643e
000000c0: f118 a6bd 89d5 893e 894c 673c 0a20 343f
000000d0: 5905 a23d 1846 43bd cb3f 8f3f 1291 f63c
000000e0: c5cd 413d 6dfc 173f a803 013f 44d3 75bd
000000f0: f25d b33e 10af 563f 5ec9 1c3f d753 c4be
00000100: b047 a23b ce81 08bd 4533 c2bd f268 1a3e
00000110: 617b bd3e 374e 8bbc a511 4b3f ac1d ff3e
00000120: 403d 1fbd 0dce 1a3f 9064 d43b d170 3ebd
00000130: 1d72 b4bd efcf cd3e fb8a 5e3d 1eed 083e
00000140: 3e19 ba3e 9532 08bd 9b7d 963e f7e4 1e3f
00000150: 4204 b23d b46b 3b3f 65d4 3b3f c4b5 96bd
00000160: 0020 68ba ac19 c13e 3c1a c53d 2f19 8d3e
00000170: abd9 d23e bfb7 f63e 8c3a b33d bf72 afbd
00000180: 737e 1b3f 57df bd3e 4869 143f c02f 4ebc
00000190: d395 9abe e5b0 933e aa24 e83e 0431 033f
000001a0: 31bd 343f 33da e03c fc73 b7bd 2cb5 a1bc
000001b0: 31c9 2b3f debd 03be 51a6 103f 871f 96be
000001c0: 6492 3c3e 2be8 c1bd f58c d23d a2bd e43e
000001d0: f7b0 bb3e ae9e 233d 5582 b83e 5de7 403f
000001e0: 0fc3 5cbd 0fac 3a3f fcbe 183f 1f1b d43d
000001f0: 2bc1 033f 5f66 e63c 563d 063f dd77 1c3f
0.37144962 -0.026387956 0.06206911 0.7113549 0.12779167 0.58004975 0.40042126 0.20779149
0.33322176 -0.06718852 0.024270937 0.81930804 0.49676764 0.0077934633 0.69352686 0.42608476
-0.03760024 0.40793 -0.16647705 -0.3665362 -0.057734013 -0.09348746 0.49467847 0.5710224
0.5862296 0.66980684 0.7922793 0.076850444 -0.071527325 0.7656799 0.32462245 0.79834706
0.09593489 0.25877932 -0.015825225 0.3054786 -0.10714681 -0.09194122 0.53797716 0.7027187
0.071939595 -0.031642694 0.0070652966 0.80797493 -0.06090604 -0.12055413 -0.08504228 0.22300787
-0.08110226 0.26920727 0.0141173685 0.7036139 0.07911176 -0.04767427 1.1191343 0.030098472
0.047315378 0.59369546 0.50396204 -0.06001593 0.35032612 0.83860874 0.6124476 -0.38345215
0.0049523935 -0.033326916 -0.09482435 0.15079096 0.37008193 -0.01700507 0.793238 0.49827325
-0.038876772 0.6047066 0.0064817145 -0.04649431 -0.08810828 0.40197703 0.05433176 0.13371703
0.36347383 -0.033251364 0.29392704 0.6206812 0.08692218 0.73211217 0.73370963 -0.07358888
-0.0008854866 0.377149 0.096241444 0.27558276 0.41181692 0.48187062 0.08751401 -0.08566808
0.6073982 0.37084457 0.57973146 -0.012584627 -0.30192432 0.28845897 0.45340472 0.51246667
0.70601183 0.027447795 -0.08957669 -0.01973971 0.6710387 -0.12865397 0.5650378 -0.29320928
0.18415219 -0.09468111 0.10280792 0.44675928 0.3665845 0.03994625 0.36036935 0.7535303
-0.05389696 0.7291879 0.5966642 0.103567354 0.51466626 0.028124986 0.5243734 0.61120397

4.weight f4 [6, 128]
00000000: 3f07 6d3f 9d36 3b3c ba0e 75bf beb3 4b3f
00000010: 7b28 85bf 1af1 353f 3ccd 0cbf 57e0 743f
00000020: a2c8 16bf 5a2a 4ebd a6de 643d 8da0 743f
00000030: 87bd 0fbf bbdd 7e3d e4a9 7d3f 9190 17bf
00000040: b45f 6b3c 461d 61c0 c1a5 72bf 84ab 903f
00000050: bb69 6cbf a3bb 82bf a6b7 823f 1807 893f
00000060: ef94 853f 9717 9fbf 41ec 653f a80c 873f
00000070: 0ba0 c5bc 51fa 87bf 96c9 9c3f 6ef2 6a3f
00000080: 7e59 8fbf ee71 5cbf 21cd 47bf a848 50bf
00000090: 97fa 84bf dad3 9abf 9b73 913f 033e 4e3f
000000a0: 4c9c 7cbf 3744 b13d d531 ef3c 52c6 6b3f
000000b0: f3b2 423d 68da 52bf 34c2 023d 186d 693f
000000c0: 3db7 a53d 14d1 6f3f 18ad 55bf c3e6 823f
000000d0: c11b 92bf 7a6a 57bf 34c6 15c0 32cf a4bf
000000e0: 0770 5fbf 40bb 6a3f e913 1bbf 181b 073c
000000f0: fb17 03bf bdb9 6f3f 7a23 c13f b988 8abd
00000100: 6d96 67bf c33a 71bd 451c 8dbf 831b 87bf
00000110: 74d8 f8bf ff11 893d 417c acbd 930a 9d3f
00000120: 2654 3bbf f619 25c0 5b38 9e3d 973c 7bbf
00000130: 3c99 6dbf d5cc bcbc 8740 93bc 3c5d fa3d
00000140: e61b 32bf 868d 3abc 0e10 8abf 67ec 65c0
00000150: bbed ac40 0477 1f3f df4a 483f 4b2b 46bf
00000160: 98fe 573c a43b 16bf 4a8b 0bbf 8cb7 913f
00000170: 0736 99bf 0c0e fcbe 42b9 05bf ffed b8bc
00000180: edc7 3640 e0dc 8a3f 0776 883f 4908 bd3c
00000190: a94a 20bf 2414 553f e65e e13d 952e 0abf
000001a0: 5c75 553f df55 9d3f b309 143d b1a3 97bd
000001b0: 52b9 5e3f 072f 71bf e27b 873f 47d4 bd3f
000001c0: 8df7 993f 8fe8 36bd fe53 80bf 16b1 0cbf
000001d0: aa79 813f 9b18 9e3d e1b0 883f a7a4 853f
000001e0: 183b 96bf 66ca 8cbf ccc9 9cbf 9aaf 8bbf
000001f0: 60da 853f 7918 a43d e235 04bf 6451 673f
00000200: c013 b6bc 20f1 13bc acee e7bc 6a8e 383d
00000210: 1046 bfbb 62c9 7b3d 482f 563c e6f5 dbbc
00000220: b0e7 76bd 55f9 903d 1381 953d 4ac4 39bd
00000230: 9e27 9dbd da18 6c3d f026 7e3c c047 24bb
00000240: b7fa ad3d 0b0b b13d 401c 4bbb 5973 a9bd
00000250: 00b3 ce3b 195f 8f3d 468f 3e3d 9664 1d3d
00000260: 8e08 9bbd 00d0 0f3a 95ae aebd 04d9 e3bc
00000270: 446c 9ebc 844a 69bd 764e 793d 30f4 963c
00000280: 3c5e cb3c f0cb aa3b 1010 d23b fb16 9fbd
00000290: d043 b73c 60c4 033b 1b17 903d c0d0 1c3c
000002a0: b25c 463d 6829 e83c d079 00bd 045b f9bc
000002b0: 29c5 4abd bb0f 2fbd 5eb8 96bd 5a25 4c3d
000002c0: b860 0cbc 402a a4bd 39a1 b2bd 5f7a 8b3d
000002d0: a00e 1f3c b0c0 a3bd 22d7 0cbd 68f0 56bd
000002e0: c8c1 de3c 8425 c63c 349c 81bd 2cbb f73c
000002f0: ae15 8bbd 20ea 8ebc e49f b1bc 8039 7f3b
00000300: 9cf4 91bd e86f 79bd fe95 513d 5f59 943d
00000310: 22ea 5b3d 9326 88bd 41cf 62bd a12b 913d
00000320: 1932 a1bd b849 cdbc be4c 7f3d 08a3 9b3c
00000330: b035 52bc 00f8 df3c 6a09 313d 84ce ecbc
00000340: 5ee8 b4bd 2f7f 9f3d c835 0b3c ce95 6d3d
00000350: 9d7b 81bd f8ad 133d 5dbe 8d3d cb2e 3fbd
00000360: a89c 143c 016a 933d 3c7f a8bc 504b 4f3c
00000370: 2008 2cbd 091d 07bd 28d2 aabc 2eda 49bd
00000380: 2088 c8bb 7e18 29bd 2ea7 723d 58d4 adbd
00000390: 4a7d 1cbd f02a 2a3c 93a7 a23d e86f 463c
000003a0: ee4b 4f3d dfaa ad3d aadd 773d 6c05 aebc
000003b0: 3074 8fbd 5130 04bd faaf a9bd c372 b23d
000003c0: 4977 a93d 1397 2fbd 92a0 113d 5a0a 7bbd
000003d0: b00b bd3b 8cfa 61bd 07d7 3fbd 2bb8 a0bd
000003e0: e8f9 68bc 0075 d23b 48b0 703c 8134 4cbd
000003f0: b9ec 2bbd 95dc 98bd 6232 413d 4346 9ebd
0.9258918 0.011426595 -0.95725596 0.7957114 -1.0402979 0.71071017 -0.5500066 0.95654815
-0.5889989 -0.05033336 0.055876397 0.9555748 -0.5614857 0.062223177 0.9908736 -0.59204966
0.014366079 -3.5174117 -0.9478417 1.1302342 -0.9234883 -1.0213512 1.0212295 1.070529
1.0436076 -1.2429074 0.8981362 1.0550737 -0.024124166 -1.0623266 1.2249019 0.9177617
-1.1199186 -0.8611134 -0.78047377 -0.81360865 -1.0388974 -1.2095902 1.1363405 0.8056337
-0.9867599 0.08655589 0.029198566 0.9209949 0.04753394 -0.8236451 0.031923488 0.9118209
0.080915906 0.936784 -0.83467245 1.0226673 -1.141472 -0.84146845 -2.3402224 -1.2875731
-0.87280315 0.9169197 -0.60577255 0.008246206 -0.51208466 0.9364279 1.5088952 -0.06764359
-0.90463907 -0.05889393 -1.1024252 -1.0555271 -1.9441056 0.066928856 -0.08422137 1.2268852
-0.73175275 -2.5797095 0.07725593 -0.9813933 -0.9281194 -0.02304689 -0.017975105 0.12224814
-0.6957382 -0.011386281 -1.078615 -3.5925539 5.40402 0.6229098 0.78239244 -0.7740981
0.0131832585 -0.58684754 -0.54509413 1.1384139 -1.1969613 -0.49229467 -0.52235806 -0.022574423
2.8559525 1.0848656 1.0661019 0.02307524 -0.6261392 0.8323386 0.110044286 -0.5397733
0.833822 1.2291831 0.036142062 -0.074042685 0.87001526 -0.94212383 1.0584681 1.4830407
1.2028672 -0.04465538 -1.0025632 -0.5495771 1.0115254 0.07719537 1.0678979 1.0440873
-1.1736784 -1.0999267 -1.2249084 -1.0912964 1.0457268 0.0801248 -0.5164472 0.9035857
-0.022226214 -0.009029657 -0.02831205 0.04505769 -0.0058372095 0.06147135 0.013072796 -0.026850652
-0.06027955 0.07078806 0.073000096 -0.04535321 -0.07673572 0.057640888 0.015512213 -0.002506718
0.08495086 0.086446844 -0.003099218 -0.08273954 0.0063079596 0.0700056 0.046523355 0.038426004
-0.07569991 0.00054860115 -0.08529393 -0.027813442 -0.019338734 -0.05695583 0.06086584 0.018426985
0.024825208 0.0052122995 0.006410606 -0.07768055 0.022371203 0.0020106062 0.07035657 0.009571254
0.048428245 0.028340057 -0.03136617 -0.030438907 -0.049504433 -0.04273961 -0.07359384 0.04984031
-0.008567981 -0.08015871 -0.08722157 0.0681045 0.009708077 -0.079957366 -0.034384854 -0.052475363
0.027192011 0.02418781 -0.063286215 0.030240618 -0.067912444 -0.017445624 -0.021682687 0.0038944185
-0.07126734 -0.060897738 0.051168434 0.07243609 0.053690083 -0.066479824 -0.055373434 0.070884
-0.078708835 -0.025059566 0.062329046 0.018998638 -0.012830183 0.027339935 0.04322187 -0.028907068
-0.08833383 0.0778793 0.008496709 0.058004193 -0.063224055 0.03605458 0.069210745 -0.046675485
0.009070553 0.07197953 -0.020568483 0.012652233 -0.041999936 -0.032986674 -0.020852163 -0.049280338
-0.006119743 -0.041283123 0.059241466 -0.08487767 -0.038205422 0.010386214 0.079421185 0.0121116415
0.05060952 0.08479857 0.06051413 -0.02124282 -0.07004583 -0.03227264 -0.08285518 0.08713295
0.08274705 -0.042868685 0.035553522 -0.06128917 0.0057692155 -0.05517058 -0.046835925 -0.07847627
-0.014219739 0.006422639 0.014690466 -0.04985476 -0.041973803 -0.07463948 0.04716719 -0.07728245

4.bias f4 [6]
00000000: b94a 91be fc02 7ebd 7594 8dbd eabd c43e
00000010: 0808 013f 9292 fa3d
-0.2837732 -0.062014565 -0.069130816 0.38426143 0.5040288 0.12234987

6.weight f4 [2, 6]
00000000: 0bea 0bc0 b05a c43c 805f 763f cb1c 1d3f
00000010: dd04 3ec0 d66c c1bc 26d6 c73e ddf8 bebe
00000020: 0d41 cfbf 57f7 2b40 98c5 ccbe 9870 d63f
-2.1861598 0.023969024 0.9623947 0.6137206 -2.9690468 -0.023611467 0.3903057 -0.37299243
-1.6191727 2.6869714 -0.39994502 1.6753111

6.bias f4 [2]
00000000: 36e4 bcbf ca92 fa3f
-1.4757144 1.9576046
